src/Models/training/100_critic.pt (torch_old, 22186 bytes, 7 tensors)

fc1.weight f4 [32, 28]
000000 ce d7 4d 3e 14 47 ee 3d 2c a3 16 3e 19 16 9e 3d
       0.20101854 0.11634651 0.14710683 0.077190585
000010 da 89 08 be 0b 95 ee 3b 75 02 cf bd 1d 9a 4f bd
       -0.13333836 0.007280951 -0.101078905 -0.050684083
000020 c6 16 98 bd 40 00 9d 3d ba 49 5c bd f5 c3 77 be
       -0.07426219 0.07666063 -0.05378125 -0.24195845
000030 7b 92 7c bd 52 ee a2 3d df bf 52 be 85 b4 a4 bc
       -0.061663132 0.07955612 -0.20581006 -0.02010561
000040 bb 4c d8 3c 70 48 b2 bd 4e b3 ce 3d f6 5d 32 3e
       0.026403775 -0.087052226 0.100927934 0.17418656
000050 bc ad 08 3e 73 9d e6 3d 4f f3 a9 3d d1 c1 14 3e
       0.13347524 0.112605 0.082983606 0.1452706
000060 14 5a 7c be 72 67 17 bd 80 ee b0 3e 21 cf 25 be
       -0.24643737 -0.036963888 0.3455696 -0.16192295
000070 32 c1 61 3d 7c e0 a0 bd 2b f1 c2 3d 74 57 9f 3d
       0.055115886 -0.07855317 0.095186554 0.07780352
000080 8a 49 cd bd 1f 9b 2a 3e 01 47 d6 3d ed e8 e6 bc
       -0.10023792 0.16660737 0.10462762 -0.02818724
000090 ee 8a bf 3d fe 6c 8d 3c 6a c2 b6 3b 9d db 59 3d
       0.093526706 0.017263886 0.005577375 0.053187955
0000a0 e7 62 13 3e c0 e1 13 3e fa 6b 22 3e 52 20 bf 3b
       0.14393197 0.14441586 0.15861502 0.0058327103
0000b0 fc f6 c4 3d b4 41 4f bb 71 bc 21 bd 6d 04 75 3d
       0.09617421 -0.0031624855 -0.039486352 0.059818674
0000c0 1f 3e ee bd 06 3e d4 bd 28 c5 5b bb 9b 5c 14 3e
       -0.116329424 -0.103633925 -0.0033534262 0.14488451
0000d0 d3 3e 11 be 4a 82 7f bd ef 87 0a be 73 c4 fc 3d
       -0.14184122 -0.062380113 -0.13528417 0.12342157
0000e0 73 57 b1 3d c5 2b 1b 3d cf 13 ce 3c 38 85 0e 3d
       0.08659258 0.03788354 0.02515593 0.034795016
0000f0 63 07 b4 3d 1e f7 16 3c 65 bb 85 bd 75 f7 01 3d
       0.087904714 0.009214191 -0.06529883 0.031730134
000100 c4 c1 98 3c 0f 71 b8 bd d6 18 84 3d 08 e4 d2 3d
       0.018647082 -0.09005939 0.064500496 0.102974
000110 72 b5 b7 3d cc ef 1c 3d 4d 0b a5 3d 3d 57 13 3e
       0.08970155 0.038314626 0.08058796 0.14388748
000120 b8 d0 08 bd d7 b3 c7 bd f0 d6 59 3d bc fb dc bd
       -0.033402175 -0.097510986 0.053183496 -0.10790202
000130 3b d4 59 3d e3 6a af 3c e6 39 9a bc 74 10 16 bc
       0.053180914 0.021413272 -0.018826436 -0.009159196
000140 de 4b 3b 3e 92 91 84 bc 6f 97 09 3f e3 b3 d1 bd
       0.1829066 -0.016182695 0.53746694 -0.10239389
000150 6a 7b 60 bc b1 77 4b bd f5 38 23 be 2d b9 ca 3b
       -0.013701299 -0.049674693 -0.15939696 0.0061866255
000160 65 54 35 3d 2a 7e cf 3d 58 01 47 bd 5b e2 39 be
       0.044269938 0.10131486 -0.048585266 -0.18152754
000170 c1 74 32 be 21 6e bf 3d ee de d3 bc 3b 4a 2a bd
       -0.1742735 0.09347177 -0.025863137 -0.041574698
000180 c9 9a 03 3e c0 4c 25 3d aa 71 20 be 0f de 43 bd
       0.12852015 0.040356398 -0.1566836 -0.047819193
000190 14 e4 45 bd 31 b4 20 bd 99 cc 37 bd 91 6d 34 be
       -0.048313215 -0.039234344 -0.044872854 -0.17619921
0001a0 49 00 9d 3d 02 c7 3d be 4b 0f 16 be 21 ec b0 bd
       0.0766607 -0.18532947 -0.14654271 -0.08638788
0001b0 70 51 09 3d e3 d2 f2 3d 92 07 eb bd b3 a4 c2 3c
       0.03352493 0.1185663 -0.11476053 0.023760175
0001c0 6d 02 16 3e 05 7c f4 bd 62 f0 5a 3c b5 01 23 3e
       0.14649363 -0.11937717 0.013362976 0.1591862
0001d0 be f5 66 bd 94 80 8a 3d a3 6e 0a be 90 9d df 3d
       -0.0563867 0.067628056 -0.13518767 0.109187245
0001e0 79 33 e2 bd 17 5f 1c 3e d4 f4 e0 3d 6c c3 70 bb
       -0.11044974 0.15270649 0.10984197 -0.0036737574
0001f0 ac f1 92 3d f0 41 ac 3d 23 d0 dd bd 92 b0 86 bd
       0.071750015 0.08411014 -0.108307146 -0.06576647
000200 b8 05 ac 3d 2a 7e 00 be 97 02 d7 3d 53 f4 ce 3d
       0.08399528 -0.12548128 0.10498541 0.10105195
000210 df b0 74 3d 3a b1 2e bd d8 c8 2f 3e a4 33 85 bd
       0.05973899 -0.042649485 0.1716646 -0.0650399
000220 2b 47 39 be ec a6 0d bd 00 89 2b be 8c f5 b7 3d
       -0.18093555 -0.034583017 -0.1675148 0.08982381
000230 9e 62 63 3d e9 94 d7 3c 49 0f 52 bd 05 dd 13 bd
       0.05551397 0.026316123 -0.05128411 -0.036099453
000240 57 06 cd bd 21 6a dd 3d 27 76 eb 3d 1d 80 a5 3c
       -0.10010975 0.10811258 0.11497145 0.02020269
000250 54 26 9c bd 98 d3 32 3e 9c f4 bf 3d 87 47 ae bb
       -0.07624498 0.17463529 0.093728274 -0.0053185853
000260 98 43 31 3d a2 ee c0 3d 9a 31 dd bb 21 21 eb 3c
       0.043277353 0.094205156 -0.0067502977 0.02870232
000270 31 ac 8f 3c c9 f3 22 bd d6 81 21 3e a9 f0 fc bc
       0.017538162 -0.039783273 0.15772185 -0.030876474
000280 99 64 97 be 58 16 ca be 45 c8 86 be dd 78 28 be
       -0.29568937 -0.39470172 -0.2632467 -0.16452356
000290 da 3a a0 3d 7b ef 10 3d b6 aa 3a bd 33 08 da bd
       0.07823725 0.035384636 -0.04557296 -0.10646095
0002a0 9c cc 89 3d 1b 2d 1b 3d 48 b0 53 3e ae d1 3d 3d
       0.06728479 0.037884813 0.20672715 0.046342544
0002b0 fd bb aa bc eb 31 0b 3e a8 44 65 3d d1 2f 0e be
       -0.020841593 0.13593261 0.05597368 -0.13885428
0002c0 c6 bf 0e be 46 a5 a4 3d 2e a8 84 bd f4 d6 3c bc
       -0.13940343 0.08039336 -0.0647739 -0.011525858
0002d0 8b 66 44 bd c5 2a 65 bc 4d 41 e2 3d 91 04 7b 3e
       -0.047949355 -0.013987248 0.110476114 0.2451346
0002e0 b7 f7 b9 3c f2 0e 7c be 29 a6 ec be 72 99 bc bd
       0.022701127 -0.24615076 -0.4622052 -0.09208955
0002f0 b1 03 9f be f9 1b ed bd 88 8a 27 3e 1d 7c 5c 3d
       -0.31057504 -0.11577601 0.16361439 0.0538293
000300 1f b1 96 3d ae b4 f1 3c 0a ef c8 bc 33 a9 f6 bd
       0.07358002 0.0295051 -0.024528045 -0.12043991
000310 84 a5 41 3d ac 33 a8 3d 4b 2d 58 3d 14 00 10 3e
       0.04727699 0.08212981 0.05277757 0.1406253
000320 2d 47 2f 3d 0e 11 70 bd 17 e8 8a bd 5a b1 61 bd
       0.042792488 -0.058610015 -0.06782549 -0.055100776
000330 be 74 2a bc 71 41 6a 3d f1 3f fb bd 26 21 da 3d
       -0.01040381 0.057191316 -0.12268055 0.10650854
000340 5d 3c f8 bc 8d df 0d bd 82 a2 2e 3d 5a 2d 06 3e
       -0.030302221 -0.034637023 0.04263545 0.13103238
000350 96 25 07 3e 90 d7 5c bd e8 6e 02 3e 10 ed e9 3d
       0.13197932 -0.053916514 0.1273762 0.11422169
000360 fc 4a b0 3d 4d d4 0b 3a 35 fd 4e bc 83 04 f5 bd
       0.08608052 0.00053340645 -0.012633611 -0.11963751
000370 81 73 cd 3e 8f aa 3f 3e de 11 ee be cd 63 4a be
       0.40127185 0.18717407 -0.46498007 -0.19764633
000380 50 8f b6 3d 32 1a cb 3d c7 d1 1b 3e 42 d7 1c 3d
       0.089140534 0.09917106 0.15216742 0.038291223
000390 68 6b 0a 3d 7f c2 5e 3d 79 47 51 3d cf b7 c7 3c
       0.033793837 0.054384705 0.051093552 0.024379639
0003a0 8c b9 2d bc a3 15 d6 3a 14 c0 67 bd 92 73 0d 3e
       -0.01060332 0.0016333353 -0.056579664 0.13813618
0003b0 4c 05 2f bd 39 be 69 3d 7a 94 18 3d 4e f3 28 be
       -0.04272966 0.057066176 0.037250973 -0.16499063
0003c0 e7 67 d7 bd 53 a4 85 3d 0d 2d 0a bd 71 57 17 bd
       -0.10517865 0.06525483 -0.03373437 -0.036948625
0003d0 66 13 ab bd 25 e7 13 3e 84 7e 89 bd 72 2c 08 be
       -0.08353309 0.14443643 -0.06713584 -0.13298205
0003e0 ee c9 04 be e1 d4 ab bd e3 2f c3 3e 46 b0 ad 3d
       -0.12967655 -0.08390213 0.38122472 0.08480887
0003f0 97 6e 47 bd 3b dc 12 3e 3e 54 db bd 70 45 e3 b9
       -0.04868945 0.14341824 -0.10709427 -0.0004334855

fc1.bias f4 [32]
000000 51 83 e4 3d a5 cf 71 3d d2 3e d9 bd 71 1e 09 3e
       0.11157859 0.059035916 -0.10607685 0.13390519
000010 bd 1d eb 3d be 60 20 3e 11 92 2b be 49 5a d9 3d
       0.114802815 0.15661904 -0.16754939 0.10612924
000020 93 e3 57 bd 36 af ad 3d 7f 74 5a 3e 00 d1 0e be
       -0.052707266 0.084806845 0.21333502 -0.13946915
000030 42 66 27 3e 11 1e 30 bc de c1 1e 3e 12 e9 88 3d
       0.16347602 -0.010749356 0.15503642 0.0668508
000040 8e d9 47 3e 5b 96 b4 3d ad 6b 4d 3e 40 3a e8 3d
       0.19516584 0.088177405 0.20060606 0.11339235
000050 01 c3 da 3c 14 8b a3 3c 32 e2 81 bd 54 86 6c 3e
       0.026704313 0.019963779 -0.063419715 0.23098117
000060 36 a9 5e bd af 64 90 bd 38 54 3b bc 7f a7 c6 3d
       -0.05436059 -0.07050454 -0.0114336535 0.09699916
000070 17 69 20 3e d0 24 52 3e 60 00 ec bd 02 0e 49 3d
       0.15665089 0.20521855 -0.11523509 0.049085625

fa1.weight f4 [32, 2]
000000 13 71 11 3e a8 da ad 3c 5a b6 56 be 6e de da 3d
       0.1420329 0.021222427 -0.20967999 0.10686956
000010 78 e8 f9 bc 84 44 46 3d 96 b7 c4 3d 48 b9 db bd
       -0.030506358 0.048405185 0.09605329 -0.10728699
000020 ea 9a c9 bd ab 67 70 bd f1 ac 2d 3e 4c 42 27 3d
       -0.09844001 -0.058692615 0.16960503 0.04083471
000030 8e a3 99 3d 00 09 95 3c 11 a8 9d bd c1 58 26 3e
       0.07501899 0.018192768 -0.07698072 0.16244794
000040 26 99 c0 3d 0c c5 92 bd c3 fd 1f 3e 40 ef 26 3d
       0.09404211 -0.0716649 0.15624146 0.04075551
000050 22 28 ea 3d c0 3e 15 3c bd e8 14 3e 47 d5 6f bc
       0.11433436 0.009109199 0.14541908 -0.014638252
000060 8a 9e 9e 3d 4c 53 72 bd 59 52 2e 3d fc 26 0f be
       0.07745083 -0.05916147 0.042559 -0.13979715
000070 d5 09 16 3e 25 f8 04 3e 45 27 29 be a6 0d 1c 3d
       0.14652188 0.12985285 -0.16518886 0.038098954
000080 2c e7 04 3d 40 0c 15 bb ab 5b 0a 3e 3a 9b 44 be
       0.032447025 -0.0022742897 0.13511531 -0.19199839
000090 d5 45 2e 3e 48 81 b3 bc e8 df e1 bd a8 2a 13 be
       0.17018826 -0.021912232 -0.11029035 -0.14371741
0000a0 b9 70 02 be 40 53 56 bc aa ea ef 3d d4 e2 16 be
       -0.12738313 -0.013081372 0.117146805 -0.14734966
0000b0 2e ec be bd 9f 03 07 3e c9 26 6c bc 33 2c bf 3d
       -0.093223915 0.13184975 -0.014413544 0.09334602
0000c0 20 1f ad 3b 2c 77 41 3d b0 e2 9b bc 6e cc 8d 3d
       0.0052832514 0.04723279 -0.019028991 0.069237575
0000d0 e3 98 a9 3d e4 0a c5 bd e3 c8 bb bd 40 28 4f bd
       0.08281114 -0.09621218 -0.091691755 -0.050575495
0000e0 38 b4 cb 3d 8b b5 ad bd 6b 54 6d 3e 7d ee 51 be
       0.099464834 -0.08481892 0.23176734 -0.20501132
0000f0 8d 0d f0 bd 5c fd 4e 3e dc 2b 2d be fe d4 f5 bd
       -0.117213346 0.20213836 -0.16911262 -0.12003516

fa1.bias f4 [32]
000000 1c 45 3a be 90 5e 5a 3e b8 fc b2 be f4 8e ad be
       -0.18190426 0.21325135 -0.34958434 -0.33898127
000010 c3 67 28 3f f9 8d 07 bf 7d f8 29 bf 67 49 04 3f
       0.6578333 -0.5295101 -0.6639479 0.51674503
000020 ea 0b 9b be c8 7b 2b be 98 d8 36 be d9 59 00 bf
       -0.30282527 -0.16746438 -0.17856061 -0.50137097
000030 09 56 11 bf 57 26 be 3e 25 77 e6 be 5a e3 17 3e
       -0.56771904 0.37138626 -0.45012775 0.14832821
000040 80 84 94 bd 91 43 d3 3d f3 26 06 bf 7d 63 c4 3e
       -0.07251835 0.10315622 -0.5240318 0.38357154
000050 01 f3 8b 3e ba ba 27 bf 57 7d f5 be 68 3d 39 3f
       0.27333835 -0.655193 -0.4794719 0.72359324
000060 16 a9 3f be 40 27 d4 be 1f 76 67 be 4e 46 5c be
       -0.18716845 -0.41436195 -0.22603653 -0.21511194
000070 d5 45 f0 3e 92 fe 1c be 6d de 9b 3d 97 f1 af 3d
       0.46928278 -0.15331486 0.07610784 0.085910015

fca1.weight f4 [64, 64]
000000 10 9a 84 bc d8 79 19 bd 9c 74 76 bd c0 b9 9b bc
       -0.016186744 -0.037469715 -0.0601698 -0.019009471
000010 24 a8 0d bd f4 9f db bd ec f3 0f bd 02 e4 f6 bd
       -0.03458418 -0.10723868 -0.03514473 -0.12055208
000020 aa a2 7c bd ea d2 b1 bd 3e 73 eb 3d 00 b3 0d ba
       -0.061678566 -0.08682807 0.1149659 -0.0005405396
000030 b4 ff 21 bd 50 6f 5a 3c b3 15 62 bd 80 6b da 3b
       -0.039550498 0.013332203 -0.055196475 0.006665647
000040 8c b8 4d 3d a0 11 f5 3c 0c 6d 24 bd 68 14 a8 bd
       0.050224826 0.02991563 -0.040143058 -0.08207017
000050 4c d7 e3 bd 32 c5 d7 3d c2 de 8e bd f0 ad f1 3b
       -0.11125049 0.10535659 -0.069760814 0.0073754713
000060 d0 c7 2b 3c be 67 80 bd 3a 8f c1 bd 1c bc cb bd
       0.010484651 -0.06269787 -0.094511464 -0.099479884
000070 b6 ac fa bd b8 dd 0c bd 8f 73 53 3d e4 f0 f5 3d
       -0.12239973 -0.034391135 0.051623877 0.12008837
000080 28 af 87 3d b8 b8 be 3d 40 2a 37 3b 38 78 f3 bc
       0.06625205 0.09312576 0.0027948767 -0.02972041
000090 2a 6b 9e bd 90 bd be bd 78 c3 cd 3c 36 a7 dd bd
       -0.07735284 -0.093135 0.02511762 -0.108229086
0000a0 60 de a6 bd d4 3a d5 bd 40 47 f3 bc 7c 70 ae bd
       -0.081478834 -0.10411611 -0.02969706 -0.085175484
0000b0 93 1b 29 3d 2e 86 a0 3d 68 6a af bc 93 60 4f 39
       0.041286062 0.07838093 -0.021413043 0.00019777035
0000c0 4e 0b ca bd 90 12 ed bd 4e 74 8d bd 2c d4 08 3d
       -0.098654374 -0.11575806 -0.06906949 0.033405468
0000d0 e8 40 2d bd fc ba 5c 3d 82 d6 b4 bd 20 c8 de bb
       -0.042298228 0.05388926 -0.088299766 -0.006798759
0000e0 3c 3f 4b 3d 28 6e 0c bd d0 0d 2d bc a0 af 16 bc
       0.049620852 -0.03428474 -0.010562375 -0.009197146
0000f0 62 3c f3 bd c8 a1 bf 3d 80 9f 0d 3b a9 0d 39 3c
       -0.118767515 0.09357029 0.0021609962 0.011294761
000100 f6 b7 0d 3d 15 59 91 bd 78 3f 55 3d b4 2d 7b 3d
       0.034599267 -0.07097069 0.05206248 0.061322883
000110 99 c9 5a 3d 94 db 83 3d 57 e5 0f 3e 30 6d 17 be
       0.053414915 0.064383656 0.1405233 -0.14787745
000120 46 4e dd 3d c3 3a 03 3e 4c 5e 00 bd 8b a6 82 bd
       0.10805945 0.12815385 -0.03133993 -0.06379422
000130 0b a2 f9 bd 73 53 42 bd 58 c4 63 3d 87 c7 4f bb
       -0.1218911 -0.047442865 0.05560717 -0.003170462
000140 f0 3b e5 3d c7 5c 87 3c cb 35 33 3c e1 ec 21 3b
       0.11193073 0.016523732 0.010938118 0.0024707841
000150 cc ad ef 3d 5a d6 cb 3d e5 fd 0b 3d d6 dd b2 bc
       0.11703071 0.09952994 0.03417768 -0.021834295
000160 82 e7 de 3d c4 d0 3b 3c bf 6b 65 bd ee b4 cc 3d
       0.10884 0.011463348 -0.056010958 0.09995447
000170 f9 5a a6 3c 2c e7 7d 3d 0b ee b1 bd d7 58 9e bc
       0.020307051 0.06198804 -0.08687981 -0.019329472
000180 52 40 b2 3d ec 06 e5 3d 10 6f 6e 3d de 5d b9 bd
       0.087036744 0.11182961 0.058211386 -0.09051107
000190 79 fa ff 3d 34 a8 a9 bd 76 e4 e4 bd dc 11 36 3e
       0.12498946 -0.08284035 -0.11176388 0.1778025
0001a0 a0 a5 d8 3c 72 d3 9b bd f0 0e ed 3c df 7f a4 3d
       0.026446164 -0.07608689 0.028937787 0.08032202
0001b0 92 cd e6 bd 50 14 20 3d 18 14 75 bd 06 52 00 3e
       -0.11269678 0.03908187 -0.059833616 0.1253129
0001c0 ce a9 c8 3d ca f1 05 3e 08 24 2f 3d a8 b9 a7 3d
       0.09798013 0.13080516 0.04275897 0.08189708
0001d0 43 b8 34 3c 82 88 a8 3d 1e ce d6 3d bc 0d 27 3d
       0.01103026 0.08229162 0.104885325 0.040784582
0001e0 7c 0a a3 3d 73 66 16 bc 13 c8 3a bd 9a 72 a7 bd
       0.07960984 -0.009179699 -0.045600962 -0.081761554
0001f0 57 49 9a 3d dc 9f a0 bd 44 dc 22 3e 6b 11 77 3d
       0.0753352 -0.07842991 0.15904337 0.060319345
000200 5d b8 e6 3d 8f f4 d6 3d c7 ab 03 bd e0 7c 4a bd
       0.11265633 0.104958646 -0.03214624 -0.049435496
000210 a3 09 09 3e 40 de 30 3e bd e3 86 3e 43 ed 0a be
       0.13382582 0.17272282 0.26345626 -0.1356707
000220 81 66 23 3e 10 b5 7f bd 85 ad d8 3d c5 dd 7f bb
       0.15957071 -0.062428534 0.10579971 -0.0039042097
000230 f7 f6 d7 3d a0 02 09 3d d9 58 99 3d b4 55 c5 3d
       0.10545152 0.03344977 0.074876495 0.09635487
000240 97 7e e4 bc 4e 62 57 3c 90 af da bb 15 dd 20 3c
       -0.027892394 0.013145996 -0.0066737607 0.009818335
000250 b2 2a 6c 3c a3 63 e1 3c 22 19 e5 3c 72 6a f5 3d
       0.014414476 0.02751333 0.027966086 0.119831935
000260 e9 4e 34 3d 66 68 f1 3d fd c6 1b bd 8b 14 d0 bd
       0.044020567 0.117874905 -0.038031567 -0.10160168
000270 8e fd b0 3d 64 b8 a3 bd 6d fc f8 bd 7a 80 ef ba
       0.08642112 -0.07994154 -0.121575214 -0.0018272542
000280 9e 06 bf bd 50 57 a7 3d 02 b9 c5 bd 1c ac 5c bd
       -0.09327434 0.081709504 -0.09654428 -0.053875074
000290 e7 4c 0f 3d 60 bc cf bd ea 52 f4 bd 05 de 1e 3e
       0.03498545 -0.101433516 -0.11929877 0.15514381
0002a0 96 fc c4 3d 40 48 d4 bd b6 a8 e7 bd e0 27 01 bc
       0.096184894 -0.10365343 -0.11311476 -0.007883042
0002b0 96 c4 9e bd b2 f5 01 3e f6 0c 8d bd 64 30 8c 3c
       -0.077523395 0.12691382 -0.06887238 0.017112918
0002c0 14 1b b0 3d ae 12 12 bd 9c 3c b2 3d e4 07 b6 3d
       0.08598915 -0.035662346 0.087029666 0.08888224
0002d0 c9 fa 94 3d 54 f6 a9 3d e8 aa 5f 3d 81 51 2e 3e
       0.07274396 0.082989365 0.05460635 0.17023279
0002e0 58 e2 3c bd ba 69 fc bd 12 65 2d bd 2c df a8 bd
       -0.046114296 -0.12324853 -0.042332716 -0.08245692
0002f0 c1 74 3d 3e 06 d8 d0 bc 31 96 b6 bb 4c 4b 27 3e
       0.1850157 -0.025493633 -0.0055721034 0.16337317
000300 27 23 ce bc f4 56 dc 3d 62 cc 08 3e 8c 23 b7 3b
       -0.025163246 0.107587725 0.13359216 0.0055889543
000310 88 4f a5 3d 90 d7 3c 3e f1 3e 64 3d 6b 88 d1 3d
       0.0807181 0.18441606 0.055724088 0.10231098
000320 ce 1a 8e 3d 87 e4 6f 3d e2 ff ae 3d f5 d4 ce 3c
       0.06938706 0.05856755 0.085448995 0.02524803
000330 b6 bb f0 bd 98 08 df bd d8 df f8 3d 8a 6c c1 3d
       -0.11754553 -0.10890311 0.1215207 0.0944453
000340 cb c8 3a bd 40 e4 6b 3d 86 1a a9 bd e2 2d fa 3c
       -0.045601647 0.057590723 -0.08257012 0.030539457
000350 11 59 0c 3e 14 c6 91 3d 62 7e 9b 3d 69 65 95 bd
       0.13705851 0.071178585 0.07592465 -0.07294733
000360 90 ed 1e bd 73 5f 51 3d 7e 47 05 3c 3b 3b f5 bc
       -0.038800776 0.051116418 0.008134721 -0.02993547
000370 09 b2 e2 3d 61 d8 e8 3c bc 29 d2 3c 37 31 d5 bc
       0.11069114 0.02842349 0.025654666 -0.026024444
000380 88 a0 e4 bd f0 e5 f8 3d 88 1d 25 bd a2 98 d8 3d
       -0.111634314 0.12153232 -0.040311366 0.105759874
000390 cd 22 79 3c 48 de ae bd f4 f4 b3 bb 91 38 33 3c
       0.015206051 -0.085384905 -0.005491847 0.010938779
0003a0 7c 88 e6 bd 80 f2 44 bb ec 6d c2 3d e8 82 8b bc
       -0.11256501 -0.0030051768 0.09493622 -0.017030194
0003b0 5a 9e d9 3d 50 b5 2d bd cd 05 e4 bb 12 9e c5 bb
       0.10625906 -0.04240924 -0.0069586993 -0.0060308063
0003c0 04 dc b7 3d 49 10 36 3e d8 5c f1 bc 05 f6 1a bd
       0.089775115 0.1777965 -0.029463217 -0.03783228
0003d0 2b 1e 5f bd b4 d2 4b bd 76 d6 89 bd 98 d2 97 bc
       -0.05447213 -0.04976149 -0.06730358 -0.018533036
0003e0 b0 40 5b bd a9 5d d6 3d 95 46 71 3c 44 63 3d bd
       -0.053528488 0.10467083 0.014726301 -0.046237245
0003f0 71 5b 0b 3d 23 71 55 be 4c eb 14 3e 94 a1 d8 3d
       0.034022752 -0.2084394 0.14542884 0.105776936

fca1.bias f4 [64]
000000 4c 74 85 3d 66 d6 a1 3d 02 ac 3f 3e 10 bf d0 3d
       0.065163225 0.079022214 0.1871796 0.10192692
000010 eb 10 46 bd 54 3e 99 3a 4b 37 46 bd ea f4 27 3e
       -0.048355978 0.0011691549 -0.048392575 0.16402021
000020 a7 c2 73 3d e3 82 33 3e 4e f8 da 3d 54 38 f7 3d
       0.059511807 0.17530398 0.106918916 0.120712906
000030 7d 0c 34 3e b7 ce 76 3d 5d 9a f6 bd ac d6 65 3e
       0.17582889 0.060255732 -0.12041161 0.22445172
000040 d2 9b 2b 3e 47 02 95 bd 0e 4a 0c 3e 2c 6b 31 3e
       0.1675866 -0.07275825 0.13700125 0.17326039
000050 31 2c a3 3d 9b 94 94 bc 77 03 c0 3a 08 3b 35 3e
       0.07967413 -0.018137267 0.001464947 0.176983
000060 b7 b7 d4 3d 39 e1 35 bd d8 51 a9 bb 09 6a 1e 3e
       0.10386603 -0.044404242 -0.0051672272 0.15470137
000070 5b ce 41 3e 76 10 84 bd 02 e6 80 3d 45 1b 0f 3e
       0.18926375 -0.06448452 0.062938705 0.13975246
000080 2b 6b ee 3c bf 86 07 3e f8 b4 68 b9 df 40 34 3e
       0.029103836 0.13234995 -0.0002219266 0.17602871
000090 ae 77 ed bc 1d c0 11 3c dd c7 93 3d 48 f3 42 bd
       -0.028987732 0.008895901 0.07215855 -0.047595292
0000a0 ad 95 dd 3d 65 85 8e bb 43 3b a0 3b 5a 40 1c 3b
       0.10819564 -0.004349398 0.004889877 0.0023842067
0000b0 83 a7 41 3c 91 b8 12 3e f7 2e 0b 3e 73 9a ca 3c
       0.011819723 0.14328219 0.13592134 0.02473185
0000c0 37 f3 53 3b 22 7c a1 bd 59 32 35 3e b2 9c a4 3d
       0.0032341012 -0.078850046 0.17694987 0.080377
0000d0 24 32 5e 3e 02 48 a6 3d 1b a2 82 bd 5b 54 5f 3c
       0.21698815 0.08119203 -0.063785754 0.013630952
0000e0 5e 95 d1 3d d8 a7 fb 3d 00 10 04 3e 20 7d f5 3d
       0.10233568 0.12287873 0.12896729 0.11986756
0000f0 8f 93 69 bc d3 2f c3 3d c6 51 15 3e 8e a4 32 3e
       -0.014256372 0.09530606 0.14581975 0.17445585

fca2.weight f4 [1, 64]
000000 78 85 9f 3a 31 31 34 bd 6e e9 29 bd 52 b7 ed bc
       0.0012170514 -0.043992225 -0.04148238 -0.029018078
000010 40 54 2e bd 2c e3 bf bd bc 0f f6 bd 7e 83 31 bd
       -0.042560816 -0.093695015 -0.1201472 -0.04333829
000020 31 29 0d bd e7 04 0e bd d3 18 21 bc a7 22 93 be
       -0.03446311 -0.034672644 -0.009832579 -0.28737375
000030 d4 cd 19 bd 22 5e c3 bc 24 26 07 bc ae ba 5b be
       -0.03754981 -0.023848597 -0.0082488395 -0.21457931
000040 78 4d a8 bd c2 8b 37 3c df 73 f6 bc a0 61 2a bd
       -0.08217901 0.011202754 -0.030084549 -0.04159701
000050 ae 92 1d bd d5 6e 14 bd 55 f5 0d bd 9c 38 8b bd
       -0.038469963 -0.03623851 -0.034657795 -0.06797907
000060 83 c5 43 bd 49 93 12 bd 1c fe c5 38 74 f3 57 bd
       -0.047795784 -0.035784993 9.4410236e-05 -0.05272241
000070 5e c5 23 bd 19 79 aa bb 1c 60 1c bd 27 b2 dc bc
       -0.039983146 -0.0052024242 -0.038177595 -0.026940418
000080 18 1a fe bc aa 4e 36 bd 5c f4 3d bd d5 e8 45 bd
       -0.031018302 -0.044508614 -0.046375617 -0.04831775
000090 0a 65 05 be ec f1 60 bd 25 c1 d9 bc 92 f8 ea ba
       -0.13026825 -0.054918215 -0.026581356 -0.0017926863
0000a0 b2 d3 2c bd 81 b1 14 be 16 5e b2 bc 38 22 1f bd
       -0.042194076 -0.14520837 -0.02177338 -0.038850993
0000b0 8a 42 01 bd 04 48 17 bd b4 01 09 be 6f 47 06 3b
       -0.031557597 -0.036933914 -0.13379556 0.0020489355
0000c0 89 31 e2 bc d8 be 77 3a e5 5a 8d be b9 80 64 bc
       -0.02761151 0.000945074 -0.2760841 -0.0139467055
0000d0 c4 4a 83 be b0 cb 2f bd 50 50 ff bc 7f ed df bc
       -0.2564298 -0.04291886 -0.031166226 -0.027334927
0000e0 ee 3f 15 bd 44 3f 24 bd 70 d8 61 bd 82 3e 10 bd
       -0.03643792 -0.040099397 -0.05513805 -0.035215862
0000f0 77 c5 5a bd b4 a1 5d bd 06 48 04 bd 0e 4a f0 bc
       -0.053410973 -0.05410929 -0.03229525 -0.029332187
