src/Models/training/150_actor.pt (torch_old, 25545 bytes, 6 tensors)

fa1.weight f4 [64, 28]
0	0x3c4f97fa	0.012670511
1	0xbcfab979	-0.030606018
2	0x3ca8268a	0.02052619
3	0x3bec18af	0.007205091
4	0xbd3b25b8	-0.04569027
5	0xbdecb3e2	-0.115577474
6	0xbc811737	-0.01575814
7	0xbc79d62a	-0.015248815
8	0xbd8cf10b	-0.06881913
9	0xbdc94ec7	-0.09829479
10	0x3dc9c1d1	0.09851421
11	0xbdb6d711	-0.089277394
12	0x3da749ab	0.08168348
13	0xbe06d712	-0.1316798
14	0xbd7d3c14	-0.061824873
15	0xbd485a23	-0.048914086
16	0xbcf37c72	-0.029722426
17	0x3cfac870	0.030613154
18	0xbe0834da	-0.13301411
19	0xbc8fa451	-0.017534407
20	0xbdff695f	-0.1247127
21	0xbd5626ca	-0.052283086
22	0xbddaeb30	-0.1068939
23	0x3d4e408a	0.050354518
24	0x37a9c72e	2.023912e-05
25	0x3e04db86	0.12974367
26	0x3eac30ec	0.33631074
27	0xbdf21c2c	-0.118217796
28	0xbd622cbb	-0.05521844
29	0xbcd78bdb	-0.026311805
30	0xbd89369e	-0.066998705
31	0xbe6b5bdf	-0.22984265
32	0xbdd2a2a0	-0.102849245
33	0x3ab98c8b	0.0014156265
34	0x3e05d3dc	0.13069099
35	0xbd8a84c1	-0.06763602
36	0x3da778bb	0.081773244
37	0x3db7a7a1	0.089675196
38	0xbdba9f42	-0.09112407
39	0xbd19c9bd	-0.03754591
40	0xbd16f464	-0.036854163
41	0x3e1e7e5c	0.1547789
42	0x3db931d8	0.0904271
43	0x3d547dbd	0.051877726
44	0x3d10183c	0.03517936
45	0x3da8ea36	0.08247797
46	0x3d859ca8	0.065240204
47	0x3d2d5d1f	0.042325135
48	0xbdf3714d	-0.11886845
49	0xbdc11084	-0.09426978
50	0xbd2b3486	-0.041798137
51	0xbe0a700c	-0.13519305
52	0xbd28a102	-0.041169174
53	0x3d48fc56	0.04906877
54	0xbd751650	-0.059835732
55	0x3d1781dc	0.036989078
56	0xbe1c2bc9	-0.15251078
57	0xbc4369e8	-0.0119271055
58	0xbdea235a	-0.11432524
59	0xbe27bc13	-0.16380338
60	0x3d4e397d	0.050347794
61	0xbcc1741d	-0.023614937
62	0xbe1965a3	-0.14980178
63	0x3c830eb8	0.01599823
64	0x3c7366f7	0.014856092
65	0xbccddd4c	-0.025129937
66	0xbce57c0a	-0.028013248
67	0xb96e109c	-0.00022703636
68	0x3c052509	0.008126506
69	0xbdba8608	-0.09107596
70	0xbe3d54fc	-0.1848945
71	0x3d2334cb	0.03984527
72	0x3e0187e8	0.126495
73	0xbce59330	-0.028024286
74	0xbc9a214a	-0.018814702
75	0x3d705d8f	0.058682974
76	0x3e268ec6	0.16265401
77	0x3e0e0ec2	0.13872817
78	0xbe1ad1fa	-0.15119162
79	0xbe4e9a76	-0.2017611
80	0x3ccc6db9	0.024954664
81	0xbdd89923	-0.105760835
82	0x3d5be19a	0.053681947
83	0x3dbfcfca	0.093658045
84	0x3c811c01	0.015760424
85	0xbdee5ecc	-0.11639175
86	0x3d518654	0.051153496
87	0x3d5f0344	0.054446474
88	0x3d8913c6	0.066932246
89	0x3d74d03b	0.059768897
90	0xbc253b22	-0.010084899
91	0xbdd86c94	-0.10567585
92	0x3cd4eab2	0.025990818
93	0xbdbe2ed7	-0.09286278
94	0xbe2309b3	-0.15921669
95	0x3e064d71	0.13115479
96	0xbd88aa65	-0.06673125
97	0x3d8869ec	0.06660828
98	0x3c012aad	0.00788371
99	0xbdfb8311	-0.12280858
100	0x3c67b615	0.014142533
101	0xbcfcfdfa	-0.030882824
102	0xbd8bc43a	-0.068245366
103	0xbdac91e2	-0.084262624
104	0xbe52f7d4	-0.20602351
105	0xbdc35a9f	-0.09538769
106	0xbe5dfca0	-0.216784
107	0xbdeb0818	-0.11476153
108	0xbd8f98d8	-0.070115745
109	0xbd526055	-0.0513614
110	0xbe0be7e6	-0.13662681
111	0xbca39b7c	-0.019971602
112	0xbd324a21	-0.043527726
113	0x3dc6dc8c	0.09710035
114	0xbc0691a3	-0.008213433
115	0xbce2927b	-0.027657738
116	0xbdd872f4	-0.105688006
117	0xbbfa02e1	-0.0076297377
118	0x3d91da35	0.07121698
119	0xbce00194	-0.027344503
120	0x3d6f14e6	0.05836954
121	0xbd055b28	-0.032557636
122	0x3d10ab6d	0.035319734
123	0x3bb4bf8e	0.005515999
124	0x3d81968b	0.06327542
125	0xbd93b075	-0.07211391
126	0xbca91806	-0.020641338
127	0xbd59f3e9	-0.053211126
128	0xbd0aa240	-0.03384614
129	0xbdad037e	-0.08447932
130	0xbd55377c	-0.052054867
131	0xb9e22082	-0.000431303
132	0x391f05be	0.00015165561
133	0x3c80e7d2	0.01573554
134	0xbdb00f5c	-0.085966796
135	0xbddf9816	-0.1091768
136	0xbd8b3a0a	-0.067981794
137	0xbc3885d8	-0.01126238
138	0xbcad88f0	-0.021183461
139	0xbd915ac5	-0.07097391
140	0xbdff956c	-0.12479672
141	0xbd43e32c	-0.04782407
142	0xbe046ef0	-0.12932944
143	0xbe0edb35	-0.13950808
144	0x3c31e450	0.010857657
145	0xbd9b663a	-0.075878575
146	0x3dd05f84	0.10174468
147	0x3b12b7c2	0.002238736
148	0x3d186020	0.037201047
149	0x3d01fe11	0.031736437
150	0x3dd9244c	0.10602626
151	0x3da1b262	0.07895352
152	0xbd243cfc	-0.04009722
153	0xbd3ba057	-0.04580721
154	0x3b828a1c	0.003983749
155	0xbd4e3422	-0.050342686
156	0x3dd2763e	0.10276459
157	0x3cf0e025	0.029403755
158	0x3e075925	0.132176
159	0x3d58fbf2	0.05297465
160	0x3c22cdd4	0.009936769
161	0xbdbd1f53	-0.0923449
162	0xbc46ebcd	-0.01214118
163	0xbdd8b13a	-0.10580678
164	0x3d9fc498	0.07801169
165	0xbcc61a5e	-0.024182495
166	0x3dd6cd4a	0.104883745
167	0x3e1a54dd	0.15071435
168	0x3dd88164	0.10571554
169	0x3d1cfc5a	0.0383266
170	0xbd164aa9	-0.036692295
171	0xbd207ca3	-0.039181363
172	0xbdfa0ba5	-0.12209252
173	0x3cefd0eb	0.029274425
174	0x3e5d9bbf	0.21641444
175	0x3bfaa3e1	0.0076489304
176	0xbd276d51	-0.040875737
177	0x3e060d93	0.13091116
178	0x3d676f67	0.056502726
179	0xbc90e668	-0.017687991
180	0x3e0b4876	0.1360186
181	0x3d5c8adc	0.053843364
182	0xbc8ce3de	-0.0171985
183	0xba977633	-0.0011555612
184	0x3ad1c80b	0.0016005052
185	0x3e05e62e	0.13076088
186	0x3e64d589	0.22347082
187	0x3cdc1cf5	0.026869277
188	0x3e1023d8	0.14076173
189	0x3e3ecf91	0.18633868
190	0x3d14f6ad	0.03636806
191	0x3dd85f6d	0.10565076
192	0xbd9802f3	-0.074224375
193	0xbd878a3a	-0.066181615
194	0x3ecdb681	0.40178302
195	0x3dcba863	0.099442266
196	0x3e3debec	0.18547028
197	0x3e96af1d	0.29430476
198	0x3e570c7f	0.2100086
199	0x3d2a0311	0.04150683
200	0x3e3f70fd	0.18695445
201	0x3e6811fe	0.22663113
202	0x3dd5ebba	0.10445352
203	0x3e684f90	0.226866
204	0x3e0b2b0b	0.13590638
205	0x3e15e17d	0.14636798
206	0x3e1f7a35	0.15573962
207	0x3e79aa08	0.24381268
208	0x3ebcec67	0.3689911
209	0x3e27cc9f	0.1638665
210	0x3e71e3d5	0.23622067
211	0x3e5528ca	0.20816341
212	0x3e83e2ba	0.25758916
213	0x3e24427f	0.16040991
214	0x3e68cdfb	0.22734825
215	0x3e9a12f4	0.30092585
216	0x3ea6d395	0.325833
217	0x3eb9517a	0.36194974
218	0x3e15bbc6	0.14622411
219	0x3d8e44f1	0.06946743
220	0x3d2b1040	0.041763544
221	0xbc5a43df	-0.013321846
222	0x3e421126	0.18951854
223	0x3e14df69	0.14538349
224	0xbcb01d78	-0.021498427
225	0xbd93e3f8	-0.07221216
226	0xbdac3c5e	-0.084099516
227	0x3d81d96a	0.063402966
228	0x3dde51c8	0.10855442
229	0x3b083fc0	0.002078995
230	0xbd8d2c84	-0.06893256
231	0xbdea0112	-0.114259854
232	0xbd7d6212	-0.061861105
233	0xbcc8a9ce	-0.024495032
234	0x3db4857d	0.08814523
235	0xbd2fa650	-0.042883217
236	0xbc16cb20	-0.009203702
237	0x3de6636e	0.112494335
238	0xbc8844b8	-0.01663433
239	0xbd88a868	-0.06672746
240	0xbcb15ae0	-0.021649778
241	0xbcc11648	-0.023570195
242	0x3c3fc46e	0.011704547
243	0xbdebcb6c	-0.11513409
244	0xbc807f78	-0.015685782
245	0xbdd36034	-0.10321084
246	0xbdd76c84	-0.105187446
247	0x3d342408	0.043979675
248	0x3cadc6e7	0.021213008
249	0x3bcc36e0	0.0062321275
250	0x3d370a07	0.044687297
251	0xbda33d9a	-0.07970734
252	0x3c8dbbf3	0.017301535
253	0xbe308c93	-0.17241125
254	0xba76bfe5	-0.000941275
255	0x3d1291bd	0.035783518

fa1.bias f4 [64]
0	0x3d2ebad7	0.042658653
1	0xbd5a9be4	-0.053371325
2	0xbe0e6370	-0.1390512
3	0x3dfb804d	0.12280331
4	0x3d08b788	0.033378154
5	0x3e44e586	0.19228181
6	0xbc3b0061	-0.011413665
7	0x3ec8c8ce	0.39215702
8	0xbd4e0ed8	-0.050307125
9	0xbe273551	-0.16328932
10	0xbe35bc01	-0.17747499
11	0x3df81bc5	0.121146716
12	0x3d3c1fc8	0.045928746
13	0xbcee2854	-0.029071964
14	0x3d3fa7b8	0.04679081
15	0x3def88e6	0.11696033
16	0xbba4af4f	-0.005025781
17	0x3e5dd981	0.21665002
18	0xbde45a3c	-0.11150023
19	0x3e6e1ba6	0.23252735
20	0xbc3018c8	-0.010748096
21	0x3e237f43	0.15966515
22	0x3d5ecd95	0.054395277
23	0x3ddf13e8	0.10892469
24	0x3d3c8b6d	0.046031404
25	0xbe5fbc7c	-0.21849245
26	0xbe2b025f	-0.16700123
27	0xbe39ab51	-0.18131758
28	0x3df3962a	0.11893876
29	0x3d0cccbe	0.034374945
30	0x3dd9820c	0.106205076
31	0x3d65b4f8	0.05608079
32	0xbd99f28f	-0.075169675
33	0x3db1bb9f	0.08678364
34	0xbe35346a	-0.17695776
35	0x3e06dbb4	0.13169748
36	0xbd297744	-0.041373506
37	0x3e817dc9	0.2529128
38	0xbda57caa	-0.080804184
39	0x3df7838d	0.12085638
40	0xbd795adf	-0.060877677
41	0xbbf256e4	-0.007395612
42	0xbe0996b0	-0.13436389
43	0x3e1b632f	0.15174554
44	0x3cb5052c	0.022097193
45	0x3da700e0	0.08154464
46	0x3e02a799	0.12759246
47	0x3ddeb7c6	0.10874896
48	0x3db09420	0.086220026
49	0x3dbf362b	0.093365036
50	0xbe3ad81c	-0.18246502
51	0x3e038de5	0.12847097
52	0x3e037d58	0.12840784
53	0x3d80d4b6	0.062905714
54	0xbe2391c4	-0.15973574
55	0x3da1ee7f	0.07906818
56	0xbe281c20	-0.16416979
57	0xbd7a1b3a	-0.06106112
58	0x3e5afdad	0.21385832
59	0xbdcc8f59	-0.09988279
60	0x3d03f355	0.03221448
61	0xbd25a04c	-0.040436074
62	0x3d82e6d0	0.0639168
63	0xbe1eb58e	-0.15498945

fa2.weight f4 [64, 64]
0	0x3d1c15f0	0.03810686
1	0xbdf4133a	-0.1191773
2	0xbd2f2d54	-0.042767838
3	0xbd12ba84	-0.035822406
4	0xbd918ab6	-0.07106535
5	0xbd32e383	-0.043674003
6	0x3d9ee31a	0.0775816
7	0xbd46db48	-0.048548967
8	0x3d3243b0	0.043521583
9	0xbcddb620	-0.027064383
10	0xbcbf1630	-0.02332601
11	0xbd9152a6	-0.07095842
12	0x3da86bcb	0.08223685
13	0xbd4e0b94	-0.05030401
14	0x3d1f384b	0.038872045
15	0xbd11d31c	-0.03560172
16	0xbd950b0c	-0.07277498
17	0xbdf27911	-0.11839498
18	0x3da7d79c	0.08195421
19	0x3db5b246	0.088718936
20	0x3ddd11a6	0.10794382
21	0x3bc165a0	0.005902007
22	0x3b3e5480	0.0029042065
23	0xbdf28acc	-0.1184288
24	0x3d77e870	0.060524404
25	0x3da179a2	0.07884528
26	0x3cf3e6c0	0.029773116
27	0xbdba1bb6	-0.09087317
28	0xbd8b5a4a	-0.06804331
29	0xbbc10e00	-0.0058915615
30	0xbdf97e10	-0.12182248
31	0xbd8c8fe6	-0.06863384
32	0xbdc2fa30	-0.09520376
33	0xbda58d90	-0.080836415
34	0xbdcf6aa6	-0.101277635
35	0x3c2dea0f	0.010614886
36	0x3ddd036c	0.10791668
37	0xbded0e55	-0.11574999
38	0x3d174f68	0.036940962
39	0xbd99809e	-0.07495235
40	0x3dddddac	0.10833296
41	0x3d80c3b4	0.062873274
42	0x3dedca88	0.116108954
43	0xbda10e20	-0.07864022
44	0x3d1db478	0.038502187
45	0x3c17c8b0	0.009264156
46	0x3d9920f0	0.074769855
47	0xbdbe7900	-0.09300423
48	0xbde97370	-0.11398971
49	0x3ce6a4b8	0.028154716
50	0x3cb17858	0.02166383
51	0xbc2e0e60	-0.010623544
52	0xbcf2dc50	-0.029646069
53	0xbdafaf31	-0.08578337
54	0xbd8bfd8a	-0.06835468
55	0xbd4b68f0	-0.049660623
56	0xbcc4a140	-0.024002671
57	0xbd87498e	-0.06605826
58	0xbdec51ec	-0.11539063
59	0xbd313c4c	-0.043270394
60	0xbc04a240	-0.008095324
61	0xbad3f780	-0.0016171783
62	0x3dcb7a94	0.09935489
63	0x3d378da0	0.0448128
64	0xbde34688	-0.11097437
65	0x3d242b45	0.040080328
66	0x3e0aa379	0.13538922
67	0x3de98ef7	0.114042215
68	0xbd157276	-0.03648611
69	0xbe12f5f0	-0.1435163
70	0xbe71dd8e	-0.23619673
71	0xbde66308	-0.112493575
72	0x3b9d3f40	0.0047987998
73	0xbd8d6971	-0.06904877
74	0xbd074db9	-0.033033106
75	0xbe625929	-0.22104324
76	0x3db4e368	0.08832437
77	0xbd0328b8	-0.032021254
78	0x3c634cbb	0.013873274
79	0xbc087de8	-0.0083308
80	0xbd8642c2	-0.06555702
81	0x3d8d9b9f	0.06914448
82	0x3d9f1246	0.07767157
83	0x3d3b0525	0.045659203
84	0xbda162d6	-0.078801796
85	0xbddcfe26	-0.107906625
86	0xbcd75afd	-0.026288504
87	0xbd4c37cc	-0.0498579
88	0x3d03a55e	0.03214013
89	0xbd9f763c	-0.07786223
90	0xbcbb2e06	-0.022849094
91	0xbc3ae58e	-0.011407269
92	0xbcce70bd	-0.025200242
93	0x3c3bc130	0.011459634
94	0xbc8507d6	-0.016239088
95	0x3cd01258	0.025399372
96	0x3c7b82c6	0.015351003
97	0xbc15f367	-0.00915227
98	0x3e185f0f	0.14880012
99	0x3db5ceba	0.088773206
100	0xbd653fc2	-0.055969007
101	0xbda12e76	-0.0787019
102	0xbd424ac0	-0.04743457
103	0x3d455892	0.04818017
104	0x3e11497a	0.14188185
105	0xbd7cacfb	-0.061688405
106	0xbdeb6554	-0.11493936
107	0x3e37c578	0.17946422
108	0x3cdfe758	0.027331993
109	0x3dad3134	0.084566504
110	0xbd26005a	-0.04052768
111	0x3de79c9c	0.11309168
112	0x3dfe10c9	0.12405545
113	0xbcaa017f	-0.020752667
114	0xbd3fc4b2	-0.046818443
115	0x3cd45048	0.025917187
116	0x3d77c910	0.060494483
117	0xbca8935f	-0.020578085
118	0x3e3f6938	0.18692482
119	0xbd7cf717	-0.06175908
120	0xbdbd87a8	-0.0925439
121	0x3c9ccb40	0.019139886
122	0x3c3b881b	0.011446024
123	0xbdcd72e4	-0.10031679
124	0x3e397659	0.18111552
125	0x3c918c4b	0.017767092
126	0x3d9a6781	0.07539273
127	0x3e048418	0.12941015
128	0xbea03444	-0.31289876
129	0xbaaf0eed	-0.0013355889
130	0xbe4bc995	-0.19901116
131	0x3bc3b643	0.005972655
132	0x3db11883	0.08647253
133	0xbed8fb3b	-0.42379174
134	0xbe9eee40	-0.31041145
135	0xbe34f086	-0.17669877
136	0x3dd89654	0.10575548
137	0x3c9dc81b	0.019260457
138	0x3df0981f	0.11747765
139	0xbe8cf121	-0.27527717
140	0x3d036333	0.032077026
141	0x3db92325	0.090399064
142	0x3cd6694c	0.026173256
143	0xbe3f9129	-0.18707718
144	0xbd91cacb	-0.07118758
145	0xbdc16415	-0.09442917
146	0xbd67ee2a	-0.056623615
147	0xbc0332f3	-0.008007753
148	0xbe2dc004	-0.1696778
149	0xbe653d2a	-0.22386613
150	0xbe4cbce4	-0.19993931
151	0x3cedd740	0.029033303
152	0x3c89a220	0.01680094
153	0xbd256882	-0.04038287
154	0x3dc21d1f	0.09478211
155	0x3d38aa69	0.04508439
156	0xbd293d72	-0.041318364
157	0xbc3f16e0	-0.011663169
158	0x3d74ebd3	0.059795212
159	0x3d82478a	0.06361301
160	0x3d9a3b40	0.07530832
161	0x3df63961	0.12022663
162	0xbd317972	-0.04332871
163	0xbd1a08b0	-0.03760594
164	0x3dd7350c	0.10508165
165	0xbdbafce6	-0.09130268
166	0x3da485d6	0.0803334
167	0x3e12fd9c	0.14354557
168	0xbc3195c0	-0.010838926
169	0xbe23dd68	-0.16002429
170	0xbddfdcb8	-0.10930771
171	0x3d40d34a	0.0470765
172	0x3dc9cc1e	0.098533854
173	0x3d286ee6	0.041121386
174	0xbe12a7e6	-0.1432186
175	0xbd943ea6	-0.07238512
176	0x3ccee747	0.025256766
177	0x3d786d77	0.06065127
178	0xbe57510f	-0.21027015
179	0x3dc569c3	0.09639313
180	0xbd521967	-0.051293757
181	0x3dace88a	0.08442791
182	0x3e32ab70	0.1744821
183	0x3dcb440c	0.09925088
184	0xbc57fbf0	-0.013182625
185	0xbe3633dd	-0.17793222
186	0xbdabbbf2	-0.08385457
187	0xbde83f39	-0.11340184
188	0x3cc3cbae	0.023900833
189	0xbdb09359	-0.08621854
190	0x3de62526	0.11237554
191	0x3d35a3a9	0.04434553
192	0x3c67a343	0.014138046
193	0x3df4f327	0.1196044
194	0xbda2a36b	-0.07941326
195	0xbb428dab	-0.0029686491
196	0x3d0285fa	0.03186605
197	0xbd61fc65	-0.055172343
198	0xbdcc036b	-0.099615894
199	0xbd5348ca	-0.05158309
200	0xbd87e3dc	-0.066352576
201	0x3d89b613	0.06724181
202	0x3db0e1fc	0.08636853
203	0x3d8329b1	0.064044364
204	0x3d4f5790	0.050620615
205	0x3bd1dc40	0.0064044297
206	0x3d93b4d4	0.072122246
207	0x3d3a54a6	0.045490883
208	0xbd65180b	-0.055931132
209	0x3def2a1e	0.11677955
210	0x3d670318	0.056399435
211	0xbccd6895	-0.025074283
212	0x3d6fb908	0.05852607
213	0xbdb072fe	-0.08615683
214	0x3d4ca3fa	0.049961068
215	0x3d271d2b	0.0407993
216	0xbd0e746d	-0.034779
217	0x3d235c43	0.03988291
218	0x3d2894c4	0.0411575
219	0x3cf70735	0.030154804
220	0x3d730ff8	0.0593414
221	0xba13664d	-0.0005622849
222	0xbc956c8c	-0.018240236
223	0xbcba0c40	-0.02271092
224	0xbdc6f3e0	-0.09714484
225	0xbd996e22	-0.07491709
226	0xbd2d5dfc	-0.04232596
227	0x3d9ffdae	0.078120574
228	0x3c5efe6c	0.013610464
229	0xbc17a061	-0.009254546
230	0x3d489592	0.048970766
231	0xbdb6f4fd	-0.089334466
232	0xbd9c7e71	-0.07641304
233	0xbcda528f	-0.026650695
234	0xbdc51342	-0.09622814
235	0x3cd2e1ec	0.025742494
236	0xbce12084	-0.027481325
237	0xbd712383	-0.058871757
238	0x3da0e15e	0.078554854
239	0x3d800a89	0.062520094
240	0xbd9afbfd	-0.07567594
241	0xbcfd99cb	-0.030957123
242	0xbc9a00db	-0.018799236
243	0xbd509cac	-0.050930664
244	0x3d854d06	0.06508832
245	0xbd1cdfc3	-0.038299333
246	0x3d2e8f63	0.042617213
247	0x3db98e1f	0.090603106
248	0xbcb00270	-0.021485537
249	0xbced4ab8	-0.028966293
250	0xbd78abaa	-0.060710587
251	0x3dc17be1	0.09447456
252	0xbd1408b4	-0.036141112
253	0x3b2c33e9	0.0026276058
254	0xbd4f206f	-0.05056804
255	0x3db24f53	0.08706536

fa2.bias f4 [64]
0	0xbd7fcfcc	-0.06245403
1	0x3df459fd	0.119312264
2	0x3d407921	0.046990518
3	0x3d1532cc	0.036425397
4	0xbd3da2c1	-0.046297792
5	0x3c0afefc	0.008483645
6	0xbc15f504	-0.009152655
7	0x3db8aead	0.09017692
8	0x3e713279	0.2355441
9	0xbd866cdc	-0.06563732
10	0x3ce2e7d8	0.027698442
11	0xbe062690	-0.13100648
12	0x3e02255f	0.12709568
13	0x3e0ed2b3	0.13947563
14	0xbd8b7ef1	-0.068113215
15	0x3e84bf5f	0.25927255
16	0xbc2f943f	-0.010716497
17	0xbbad7831	-0.005293869
18	0x3c41dc2a	0.011832276
19	0xbdc5741c	-0.09641287
20	0xbd8aab7c	-0.06770989
21	0x3db0d414	0.08634201
22	0xbdf293f6	-0.118446276
23	0xbe17cb8d	-0.14823742
24	0xbda64426	-0.08118467
25	0xbc948597	-0.018130107
26	0x3d9fbb7e	0.07799433
27	0xbbe24793	-0.006905505
28	0x3dbea89e	0.09309505
29	0xbd7a692e	-0.061135463
30	0x3d357e09	0.04430965
31	0x3e7e9105	0.24860008
32	0xbc04653f	-0.00808078
33	0xbcb78c35	-0.022405723
34	0x3e2a606d	0.16638346
35	0xbe062526	-0.13100109
36	0x3ddd3032	0.10800208
37	0x3eb5f3c0	0.3553753
38	0xbe06cc4d	-0.13163872
39	0x3d995a8a	0.07487972
40	0xbdd533c7	-0.10410266
41	0x3d6b8e8c	0.05750899
42	0xbdbf0bb7	-0.09328406
43	0xbd5fe0cc	-0.054657742
44	0x3e661734	0.22469789
45	0xbce7cf8d	-0.02829721
46	0x3caefd47	0.021361006
47	0x3d9790a1	0.07400633
48	0xbe129cae	-0.14317581
49	0xbe0cdac6	-0.1375533
50	0x3dbdd104	0.09268382
51	0xbab92874	-0.0014126436
52	0x3d47d5df	0.048787948
53	0x3da81132	0.08206405
54	0x3cb4d2a8	0.022073105
55	0xbe1c956d	-0.15291376
56	0xbd8a2a57	-0.06746357
57	0xbd7cf4c5	-0.061756868
58	0x3e44b711	0.1921046
59	0xbd456c9b	-0.048199277
60	0x3d689fad	0.056792904
61	0xbc3e357c	-0.011609431
62	0x3e890389	0.2676051
63	0x3da476ff	0.08030509

fa3.weight f4 [2, 64]
0	0xbad7bade	-0.0016458889
1	0xbe90ff11	-0.283196
2	0xbf1beb53	-0.6090595
3	0xbe6e0def	-0.23247503
4	0xbf2dcf9e	-0.67894924
5	0xbe6988f3	-0.22806148
6	0xbdaa4a9f	-0.08315014
7	0x3eea121c	0.4571694
8	0x3e67973e	0.22616288
9	0xbe707a95	-0.23484261
10	0xbe8433ed	-0.25820866
11	0xbe1d3672	-0.153528
12	0x3f07375c	0.52818847
13	0xbe910f03	-0.28331766
14	0xbde2f484	-0.11081794
15	0x3ed5e365	0.4177505
16	0xbc6c3251	-0.014416293
17	0xbdeccf5a	-0.11562987
18	0xbe7c39c2	-0.24631408
19	0xbbd21951	-0.0064117094
20	0x3cc5a959	0.024128603
21	0xbd2349df	-0.03986537
22	0x3db4042b	0.087898575
23	0x3cdfd999	0.027325438
24	0xbe832916	-0.25617284
25	0xbd4aea9e	-0.049540155
26	0xbe676314	-0.22596389
27	0xbe58b912	-0.21164349
28	0xbe36501e	-0.17804
29	0xbe80c772	-0.25152165
30	0xbd0892a7	-0.033342984
31	0x3eebca43	0.4605275
32	0xbe67aa8b	-0.2262365
33	0xbbc06401	-0.0058712964
34	0xbe742f67	-0.23846208
35	0x3b13989e	0.0022521387
36	0xbe51865e	-0.20461413
37	0x3e21a2dd	0.15784784
38	0x3dc5d891	0.096604474
39	0xbe1c4555	-0.15260823
40	0xbe26184c	-0.16220206
41	0xbe5c19ee	-0.21494266
42	0xbe5118c6	-0.20419607
43	0xbf2bd56e	-0.6712254
44	0xbd755330	-0.059893787
45	0xbdd0896d	-0.10182462
46	0xbe05c3c4	-0.1306296
47	0xbdde41c0	-0.108523846
48	0xbea57b34	-0.3232056
49	0xbe752b16	-0.23942217
50	0x3d88da2a	0.066822365
51	0xbcfe9838	-0.031078443
52	0xbe3e735c	-0.18598694
53	0x3c6117d2	0.013738589
54	0xbf4b990a	-0.79530394
55	0xbca44173	-0.02005074
56	0xbe79197d	-0.2432613
57	0x3f63fd61	0.890585
58	0x3ecdd900	0.4020462
59	0xbadfb10e	-0.0017066316
60	0xbd0bf908	-0.03417304
61	0x3e671a55	0.22568639
62	0x3f62cd84	0.8859484
63	0xbf4c1921	-0.79725844
64	0x3b0996ae	0.0020994353
65	0xbc963c31	-0.018339248
66	0x3d1a85f0	0.03772539
67	0xbb4f5a1b	-0.00316394
68	0x3b297745	0.0025858444
69	0xbb837fe4	-0.0040130485
70	0x3c5d7336	0.013516238
71	0xbc8b7eb7	-0.017028196
72	0x3e7e0240	0.24805546
73	0x3b417a2a	0.0029522278
74	0xbb74cde8	-0.0037354175
75	0xbce5c0c3	-0.028046018
76	0x3b588e91	0.003304396
77	0xbcd1a4df	-0.025591312
78	0x3cd7fd4f	0.026365904
79	0xbd90d597	-0.07071989
80	0x3c6c2477	0.014412991
81	0x3dd3efeb	0.10348495
82	0x3bb1c78b	0.0054253987
83	0x3c37fe80	0.011230111
84	0x3cfc97a4	0.030834027
85	0x3bad1892	0.00528247
86	0x3d27ad1b	0.04093657
87	0x3c98bf6b	0.018645963
88	0xbaee8dae	-0.0018200183
89	0x3c61b6fd	0.013776538
90	0xbae7224d	-0.0017634124
91	0xbbe9047d	-0.0071111307
92	0xbb86293c	-0.004094271
93	0xb8dde96b	-0.00010581579
94	0x37b452ec	2.1496286e-05
95	0xbcd189f7	-0.025578482
96	0x3ae13465	0.0017181752
97	0xbc057ba6	-0.008147156
98	0xbc47a07a	-0.012184257
99	0x3bee147f	0.007265627
100	0x3bcde989	0.006283943
101	0x3eae9bfa	0.34103376
102	0x3caaf450	0.02086845
103	0xbbf1924e	-0.007372177
104	0x3c482771	0.012216435
105	0xb96aba3f	-0.00022385361
106	0xbaac1586	-0.0013128973
107	0x3c199951	0.009374932
108	0x3e4ca663	0.19985346
109	0x3d561032	0.05226154
110	0x3baa725e	0.005201622
111	0x3d4e445b	0.050358158
112	0x377c435e	1.5036056e-05
113	0xb9f52ac4	-0.00046761904
114	0x3bac4770	0.0052575395
115	0xbca5e8fd	-0.020252699
116	0xbb55401b	-0.003253943
117	0xbb31ff10	-0.0027160086
118	0x3c06d47a	0.008229369
119	0x3ae3ba6f	0.0017374287
120	0x3ae6e90a	0.0017617058
121	0xbe05f575	-0.13081916
122	0x3d7411ae	0.059587173
123	0xbcbb6e12	-0.022879634
124	0x3cae479c	0.02127438
125	0x3e27819e	0.16358039
126	0xbd55e036	-0.052215777
127	0xbd028bf4	-0.03187175

fa3.bias f4 [2]
0	0x3df16d9d	0.11788485
1	0xbdc8b5b4	-0.09800282
