src/Models/training/150_actor.pt (torch_old, 25473 bytes, 6 tensors)

fa1.weight f4 [64, 28]
00000000: f08f f0bd 0c56 8dbd 200b 0a3c 082f ef3c
00000010: 4c10 683d 02cc d9bd fc9b 2c3d 2075 eabb
00000020: 028c d3bd b8c8 db3c cca3 75bd 4603 bbbd
00000030: 88b0 b73d ea5f b83d a06a 5bbd 9edf ecbd
00000040: 50d1 0ebd 5c07 9ebd 78de 333d 18ea 9dbd
00000050: c05f 40bb f239 c23d ece1 88bd 20c1 883c
00000060: e6c7 b03d 9474 70bd c875 98bd 7c76 efbd
00000070: f2ab 813d 0012 75bd f412 153d 1068 73bd
00000080: e0a1 bb3d 2890 40bd d097 91bd e0b9 24bc
00000090: 8a99 833d 5ce0 a7bd 8c07 1cbd e871 3ebd
000000a0: 28b0 ce3d 2806 fcbd 269a dd3d 98d0 8ebd
000000b0: b04c fa3d 0a27 f5bd 28e2 cfbd 60ca bd3b
000000c0: a672 b93d 80ae b7ba 2a07 c6bd 0097 c7bb
000000d0: f0c0 e7bd a266 fe3d 80cc 7d3c 30b6 d1bc
000000e0: ca2b f4bd 825b 97bd b4aa 0e3d 6417 3e3d
000000f0: 46e0 9ebd 46f5 c43d 1a33 9bbd 602b 82bd
00000100: 3cdf 39bd 8613 a23d f059 0c3d 5687 a73d
00000110: eec5 da3d fcf1 aabd 88a9 cbbd 2a66 e8bd
00000120: c8d7 293d 90cd d63d 703c 1e3c 1c4a edbd
00000130: 5074 803c b467 8ebd 0e4f a2bd ae6f b63d
00000140: a0e2 ed3c 904d d3bd 4c7e 03bd 3681 fb3d
00000150: 889e 903d 2e51 e2bd 50f0 e7bd 60b7 50bc
00000160: b087 a1bc ccdb febd b83b 813d 90c7 23bd
00000170: e480 5e3d 60a8 913d 1852 ea3d 9ac0 ccbd
00000180: a06c de3d 90d9 33bd 58f5 9dbd b6be 8fbd
00000190: 8c4b 2cbd 24ca a7bd 4878 a3bd d0c7 f2bd
000001a0: 60c4 9abb 545e 1abd 9414 a73d da49 ba3d
000001b0: c081 07bd 70e0 fe3d b8fd 9a3c d639 ab3d
000001c0: c2c2 923d e007 8bbb f8a6 173d 38d1 ee3d
000001d0: 2ed8 f7bd 5ec8 b7bd d0a5 6c3d 00fe f4bd
000001e0: 6077 fdbd c879 e63d c872 713d 22b8 bf3d
000001f0: 14f5 d03d 287b fd3d e824 a3bd 2aee c6bd
00000200: 78f6 bebd a68e f4bd 18c3 9b3d 20b4 f0bd
00000210: d063 0d3d 40ec de3d aa0a c6bd 88a0 c0bc
00000220: a071 00bd fcd1 09bd 7044 babd 88b0 9e3d
00000230: fc30 65bd 14d6 42bd b8a3 21bd a0fc ce3b
00000240: c02f fbbb e4ba 30bd f464 ebbd aefe dfbd
00000250: b281 8c3d 6801 e3bc 22ec f4bd 54cb 223d
00000260: c0f9 d13b 060a c53d 8ca3 cbbd 9e18 b4bd
00000270: b048 ba3c d8c1 c43d 7089 193c 5ac3 aa3d
00000280: 0e29 d2bd 9c6a 3cbd d050 77bc f06e bf3c
00000290: 4c4c a7bd fad3 c3bd ce4a 8b3d 9097 383c
000002a0: 04ed 613d 8834 71bd 8297 943d 2072 7c3c
000002b0: 548d f8bd 4088 8dbd 1894 6e3d 9074 ffbc
000002c0: a496 9abd 3404 fc3d 8470 c73d fcb7 9d3d
000002d0: 1284 f6bd 6047 c13c 9807 d8bc b86c b63c
000002e0: 0c06 0e3d eabb d6bd 58eb 6bbd b85f de3d
000002f0: d0ac bdbd b0ca fb3c 1836 583d 80db 5ebb
00000300: a20a b5bd 74a0 243d 80db 27bc 567a 8bbd
00000310: 3cbc 553d 7c04 f83d 9855 25bd 0074 61bd
00000320: 00d1 55ba 201c e83b 145d 4e3d e435 3f3d
00000330: 500f b63d 80d6 d43a d089 e33d 5647 d9bd
00000340: c002 f83b 2845 b8bd 3ab2 abbd aa00 f2bd
00000350: daf8 febd fced 8c3d e86d f2bc 30e8 15bc
00000360: ec75 8e3d 40be 013c f023 843c 4031 ca3c
00000370: 3266 e7bd 80ff 0fbc 282b 1cbd 4082 053d
00000380: 9074 943c 6c2d 55bd 4442 c5bd d241 873d
00000390: 4aa4 86bd acc7 2ebd 306e acbc f43e e83d
000003a0: 7040 febc 9ce9 223d b803 eebd 58b8 9b3d
000003b0: ce90 aebd 76bc ab3d 00d9 0fbc 70fd 10bd
000003c0: 6826 36bd 48da 9c3d a01b ce3b 2439 44bd
000003d0: 8891 e53c ace5 9abd 0005 213b 3ea9 8abd
000003e0: 8c8c 39bd b215 d43d 9273 e33d 8817 f93c
000003f0: 0017 c53c 32a7 f3bd f08a 3ebd 3010 10bc
-0.11746204 -0.06901178 0.008425504 0.029197231 0.056656167 -0.106346145 0.042140946 -0.0071550757
-0.10329439 0.026829109 -0.059970662 -0.09131484 0.089692175 0.09002669 -0.053568482 -0.11566089
-0.034867585 -0.077162474 0.043913335 -0.077106655 -0.0029353946 0.094837084 -0.06683716 0.016693652
0.086318776 -0.058704928 -0.0744434 -0.11692521 0.06331624 -0.05983162 0.03639503 -0.059425414
0.091617346 -0.047012478 -0.07109034 -0.010054082 0.064257696 -0.0819709 -0.038093135 -0.04649535
0.10092193 -0.12305862 0.10820417 -0.0697338 0.12221658 -0.11970337 -0.10150558 0.0057919472
0.090550706 -0.0014013797 -0.09669335 -0.0060909986 -0.11316097 0.124219194 0.015490651 -0.02559957
-0.119224146 -0.073905006 0.034830764 0.046409026 -0.077576205 0.09617095 -0.07578106 -0.063559294
-0.04537891 0.0791388 0.03426546 0.0818011 0.10682283 -0.08346936 -0.09944445 -0.11347611
0.04146555 0.10488427 0.009657964 -0.11586401 0.015680462 -0.069533736 -0.07925235 0.0890802
0.029038727 -0.10317528 -0.032102868 0.122805044 0.070614874 -0.1105064 -0.11325133 -0.0127390325
-0.019718021 -0.12444267 0.063102186 -0.03998524 0.05432214 0.07112193 0.114414394 -0.09997673
0.10860562 -0.043908656 -0.07712811 -0.07018797 -0.042064235 -0.08192852 -0.07981926 -0.118545175
-0.0047231168 -0.037687615 0.08158222 0.09096117 -0.033082724 0.12445152 0.01891981 0.08360641
0.07166053 -0.004242882 0.03702447 0.11660999 -0.1210178 -0.08973764 0.05777532 -0.11962509
-0.123762846 0.11253697 0.058947355 0.093612924 0.10202995 0.12377006 -0.07966024 -0.09713395
-0.09324354 -0.119412705 0.076055706 -0.11753106 0.034519017 0.10884905 -0.09670003 -0.023514047
-0.03135836 -0.033647522 -0.09095085 0.077485144 -0.05595492 -0.047567442 -0.039462775 0.0063167363
-0.0076656044 -0.043146983 -0.11493865 -0.10937248 0.06860675 -0.027710631 -0.11959101 0.03974469
0.0064079463 0.096210524 -0.099433035 -0.08793758 0.022739738 0.09607285 0.009371147 0.083380416
-0.10261737 -0.046000108 -0.015094951 0.023368329 -0.08168849 -0.09561916 0.06801377 0.011266604
0.055157676 -0.05888799 0.0725546 0.015408069 -0.12136331 -0.06910753 0.058246702 -0.031183511
-0.07548264 0.12305489 0.097382575 0.07701108 -0.12036909 0.023593605 -0.026370808 0.022268638
0.034673735 -0.104850605 -0.05759749 0.10858101 -0.09261477 0.030736297 0.052785963 -0.0034005344
-0.08839919 0.040192083 -0.010245204 -0.06810443 0.052181467 0.1211023 -0.04036483 -0.055042267
-0.00081564486 0.007083431 0.050381735 0.046682253 0.088896394 0.0016238242 0.1111027 -0.106093094
0.007568687 -0.089975655 -0.083836034 -0.11816533 -0.124498084 0.068813294 -0.029593423 -0.009149596
0.069560856 0.007918894 0.016130418 0.024681687 -0.11298789 -0.008788943 -0.038127095 0.03259492
0.018121988 -0.05204527 -0.0963178 0.06604351 -0.065743044 -0.04267089 -0.021048635 0.11340132
-0.031036586 0.03977357 -0.11621803 0.0760352 -0.08523713 0.083855554 -0.008779764 -0.035397947
-0.04447022 0.07658821 0.0062899143 -0.047906056 0.028023496 -0.07563338 0.002456963 -0.06770562
-0.04530005 0.103557006 0.11106028 0.030406728 0.024058819 -0.11897124 -0.04651922 -0.008792922

fa1.bias f4 [64]
00000000: ea72 18be f357 d1bd 5c71 2e3d 9735 ccbd
00000010: 80e0 823a d3cc 22be 685e c2bc fda0 b6bd
00000020: 44f7 42bd eeb7 dd3d d0ad a7bc 8350 203e
00000030: 34fd 3cbd 395f 343e 3f4d 3d3e 6045 f5bb
00000040: b359 18be 3c0a 01be 703f 37bc 0e18 e43d
00000050: 9a27 b6bd a0b5 47bd 567d ae3d e0f9 52bd
00000060: 4e60 0abe 8837 84bd 9939 3ebe f6d9 e73d
00000070: 1e56 d73d d263 8f3d 6f1f 1ebe 5bef a9bd
00000080: b203 33be c224 3abe 9897 c1bc 748c 133d
00000090: d052 e13c 490d a5bd 8860 c83c 3293 ebbd
000000a0: 40e7 0dbe 080e e83c 66f9 debd 1f01 0f3e
000000b0: cc92 3bbe cc65 543d 9de0 3f3e fbc3 1b3e
000000c0: 6fbf 8abd b064 21bc 5908 26be 12c4 8f3d
000000d0: 4906 eabd 9885 70bd 2230 ccbd 6bf8 313e
000000e0: 8dac 97bd cfd7 1cbe 9e8a f43d f984 103e
000000f0: ef3d 08be ef11 343e 64bb 10bd ff90 0b3e
-0.14887586 -0.10221853 0.042588577 -0.09971159 0.0009985119 -0.15898447 -0.023726657 -0.08917425
-0.047599092 0.108260974 -0.020468622 0.15655713 -0.04613991 0.1761445 0.18486498 -0.007485077
-0.14877968 -0.1260156 -0.011184558 0.111374006 -0.08894272 -0.048757195 0.0852 -0.05150783
-0.135133 -0.06455904 -0.1857666 0.113208696 0.105144724 0.07001461 -0.15441678 -0.082976066
-0.17481878 -0.18178084 -0.023631856 0.03602262 0.027505308 -0.080591746 0.024460092 -0.11502685
-0.13857746 0.028327003 -0.10887413 0.13965271 -0.18317717 0.051854894 0.18738027 0.1521148
-0.06774794 -0.009850666 -0.16214122 0.07019819 -0.1142698 -0.058721155 -0.09970118 0.1737992
-0.07405958 -0.153167 0.11940502 0.14113225 -0.13304876 0.17584966 -0.03533496 0.1362953

fa2.weight f4 [64, 64]
00000000: 808c dbbb ae30 f03d acd7 063d 2800 b73c
00000010: 9c08 313d 604b cbbb c684 b4bd 3cad 6fbd
00000020: 6014 333c 4c3e e83d b0b4 a6bd 7a65 e8bd
00000030: 5e05 8b3d 6c38 b43d 60cc 4c3d 607e c5bd
00000040: acbf 40bd 681f 81bc 9a4c e1bd 78df 59bd
00000050: a86e 54bd 886a 83bc 8c64 c5bd 2c15 2abd
00000060: a80a b1bd 8888 e2bc ac09 9bbd 569c be3d
00000070: c02a dabd 70ce 913c 3a61 bf3d 9a5c 973d
00000080: 00b0 243d 8052 f13a e083 8abd 84d0 b2bd
00000090: 80bf 9e3d 5af1 9a3d 5e36 8f3d 2821 8bbd
000000a0: a870 e4bd 76c8 ad3d 66fb 9dbd 503d c53d
000000b0: d885 c4bd e8ca b53d 4870 0d3d 0085 79ba
000000c0: 9a8b e33d f4c7 b73d 80a7 0ebc 4a6c 98bd
000000d0: 220c f0bd b8f4 c7bd a00a a3bd 9ceb f2bd
000000e0: e05d eabd fafd cd3d 2025 a3bb 5058 9ebd
000000f0: e896 e3bd 8ecc 95bd 2ead e53d 6e88 c6bd
00000100: 96d8 d83d 8e51 f53d c66a cb3d 5267 fbbd
00000110: e0de 8f3c 78a3 cebd f0c7 65bc 9e5b 89bd
00000120: d8c9 fcbd 86a2 eabd 80e8 cfba 404e 463d
00000130: 5c0f 89bd 8ae2 b63d 0211 9c3d 10da 633c
00000140: 6027 b7bd 10d5 3c3c 00dc d5ba 20b9 953b
00000150: 106d 393d d899 b73d 6e00 9cbd 20a3 40bc
00000160: 3c9a 30bd b0aa 483d f6b7 d0bd 6437 88bd
00000170: 9a44 a7bd 3c94 f5bd 7ef3 96bd bce5 1dbd
00000180: a434 1cbd eec4 99bd 644b a1bd 60d7 67bd
00000190: e0dc 66bc 3a55 a03d 3e87 d33d a434 8ebd
000001a0: e8bc febd 5e78 e0bd 7eb0 c73d 482e fdbd
000001b0: f43c 403d 206f eb3b bcd9 e2bd b47b 6cbd
000001c0: 5ce8 613d cc87 be3d aa89 8e3d 2406 babd
000001d0: 5290 acbd cef7 dbbd 108d 513d 5ad9 fdbd
000001e0: b8d4 98bd d2bf c33d b0f6 ebbc bc97 213d
000001f0: 44d2 313d ac4d 11bd 8025 133c 00ba fbbd
00000200: baa2 d4bd e672 85bd e4fe 7a3d f647 c9bd
00000210: e022 61bd 34a3 3a3d c809 f8bc 5aad f53d
00000220: b0cb 43bd 645b afbd 20a8 c73c bc78 943d
00000230: 9e33 b4bd 403a 6fbb fa4e b23d f85c 97bc
00000240: 02cf a03d 1624 98bd e04a c4bb 9e12 f1bd
00000250: 9024 8e3c d0b7 ee3d fa1f d0bd 72d1 953d
00000260: 362f 973d a0c0 f6bd 404c 5f3d 98c1 b0bd
00000270: e645 edbd d086 51bc 6e82 c23d 08bd 49bd
00000280: 4401 e03d 1419 fd3d e0c8 953d b8b7 00bd
00000290: 00e0 1a3b 628c 8a3d 00c0 373a 2886 953c
000002a0: 5853 5f3d 00c5 623a 246f bb3d a831 abbc
000002b0: 006a 1e3c 721f ca3d 121e e4bd e02a bfbd
000002c0: 6edd bb3d fed5 f33d 00e8 b4ba 4a8d a03d
000002d0: fc75 f53d 1459 d63d 54e8 f93d aac6 c43d
000002e0: 585f c5bc 7203 d8bd e0a0 913c c09b 663b
000002f0: 58da f9bd eed4 8dbd 6092 ffbd c080 9f3b
00000300: 00ad f53b 30d7 72bd 329f d7bd 5cb8 f63d
00000310: a897 c43c f83f ea3d 083a f4bc e0a8 e93d
00000320: e0e6 b93c e0ff dfbd b8fc d6bd 8813 53bd
00000330: 585d dabd d04a f03c d81d b7bd f8cc cbbc
00000340: 94c4 6e3d 64ce 7cbd 982c b03c b639 d13d
00000350: b415 5abd 1cb7 e9bd ca0f 85bd 3828 a43d
00000360: b8e5 bdbc 3cab a2bd 2c71 1a3d 0e22 eebd
00000370: f007 7a3c c678 cdbd e4d7 a2bd 1080 803c
00000380: 40e9 fabc 0646 88bd 9868 b3bd 922a 833d
00000390: ace5 b03d b249 cf3d 2adc b7bd 1a3b a13d
000003a0: ccff 02bd b83c 7fbd e48e 8ebd aca8 04bd
000003b0: 8c4b d6bd 00ac 0abb 5459 31bd 5089 f6bc
000003c0: 6a6e 903d c06f a23b 8063 c23c 7ee2 b23d
000003d0: a0dc 9b3c a89e 27bd 3639 c0bd 889a a2bd
000003e0: c0a3 cb3c d8bd c13d c0af d43b 6695 c83d
000003f0: c096 993b 402c babc 4a57 903d 0c46 593d
-0.0067000985 0.11728035 0.032920524 0.022338942 0.0432211 -0.0062040538 -0.08814387 -0.05851482
0.010930151 0.11340007 -0.08139932 -0.1134748 0.06788133 0.08799824 0.049999595 -0.09643245
-0.047057793 -0.015762046 -0.11000939 -0.053191632 -0.051863343 -0.016042009 -0.096383184 -0.041524097
-0.08644611 -0.027652994 -0.07570204 0.093071625 -0.10652685 0.017798632 0.09344716 0.07390709
0.04020691 0.0018411428 -0.067634344 -0.087311774 0.077513695 0.075655654 0.069927916 -0.067934334
-0.111543 0.084855005 -0.07713966 0.09630835 -0.09595841 0.08876592 0.034530908 -0.0009518415
0.11110611 0.08973685 -0.008706927 -0.074425295 -0.11721064 -0.09763473 -0.07961011 -0.11861345
-0.114436865 0.10058208 -0.004978791 -0.07731688 -0.111127675 -0.07314406 0.11214672 -0.09693991
0.105881855 0.11978446 0.09932475 -0.12275566 0.01756233 -0.10089773 -0.01402472 -0.06706928
-0.12343186 -0.1145678 -0.0015862137 0.04841447 -0.06692383 0.08929928 0.076204315 0.013906971
-0.08943057 0.011525407 -0.0016316175 0.0045691878 0.045270026 0.0896489 -0.076172695 -0.011757642
-0.04311584 0.048990905 -0.10191338 -0.0665119 -0.081673816 -0.11991164 -0.07370661 -0.03854917
-0.03813614 -0.075082645 -0.07875708 -0.056601882 -0.014090747 0.07828756 0.1032853 -0.06943634
-0.12438375 -0.10960458 0.0975046 -0.12362343 0.04693313 0.007184878 -0.11076686 -0.05773516
0.055153236 0.09303245 0.06959851 -0.090832025 -0.084259644 -0.10740624 0.05115992 -0.12394972
-0.07462448 0.09558071 -0.028804153 0.039451346 0.043413416 -0.035474464 0.008981109 -0.12291336
-0.103826 -0.06516056 0.06127824 -0.098281786 -0.0549649 0.0455658 -0.030278102 0.11995955
-0.047801673 -0.08562353 0.02437216 0.07249591 -0.08798908 -0.0036503226 0.0870647 -0.018476948
0.078519836 -0.07428758 -0.005990371 -0.11771129 0.017351419 0.11656153 -0.10162349 0.07315339
0.07382052 -0.12048459 0.054516077 -0.08630675 -0.11585598 -0.012788489 0.09497534 -0.04925254
0.109377414 0.12358299 0.073137045 -0.031425208 0.002363205 0.06765057 0.0007009506 0.018252447
0.054522842 0.0008650571 0.09152058 -0.020897701 0.009668827 0.09869279 -0.11138548 -0.0933435
0.09173094 0.1190605 -0.0013802052 0.07839449 0.11985394 0.10466209 0.12202516 0.09608205
-0.024093315 -0.10547532 0.017776906 0.003518805 -0.12199849 -0.06925379 -0.12479091 0.004867643
0.00749743 -0.05928725 -0.10528411 0.120468825 0.023998097 0.11437982 -0.029812828 0.114091635
0.022693098 -0.10937476 -0.10497421 -0.0515323 -0.10662335 0.029332548 -0.08941239 -0.02487801
0.05829294 -0.061720267 0.021505639 0.102160856 -0.053243354 -0.114118785 -0.06497152 0.080154836
-0.023180827 -0.079428166 0.037705585 -0.11627589 0.0152606815 -0.10032801 -0.07951334 0.015686065
-0.0306288 -0.06653981 -0.08760184 0.06404604 0.086375564 0.10121478 -0.0897754 0.07872601
-0.03198223 -0.062313765 -0.06960848 -0.03238742 -0.10463628 -0.002115965 -0.04329808 -0.030094773
0.0705231 0.0049571693 0.023729086 0.08734606 0.0190261 -0.04092279 -0.09385912 -0.07939631
0.024858356 0.09460038 0.0064906776 0.097941205 0.0046871603 -0.022726178 0.07047899 0.053045318

fa2.bias f4 [64]
00000000: c072 3f3b 00e0 ff3c fa79 dbbd ac1a a8bd
00000010: 2054 fe3c e853 e53c c89a b1bd c808 5ebd
00000020: 10ae 373d d872 06bd 90a2 41bd d802 e93c
00000030: 6cbe 16bd 869e 963d 2c83 12bd 4cd8 8cbd
00000040: 4802 c3bc f084 d1bc d467 833d 7037 093c
00000050: 78df 033d 8832 e3bc fc3f d33d 5ee4 a7bd
00000060: 10a3 99bd c2f1 c3bd 6470 e3bd 386d 94bd
00000070: c67f ea3d 143e dcbd e208 993d 0001 363d
00000080: e878 aa3d 7889 303d 06b0 d33d 1238 f1bd
00000090: 5878 9bbd 9c3e 163d 3869 f13c 8cd4 d8bd
000000a0: 10db 5fbc fcfc 1b3d 3edb d7bd 0afe c9bd
000000b0: e0e8 87bd d027 34bd 68a0 193d 56a3 c43d
000000c0: 1c23 bd3d 887d 103d 4c5c a6bd 78e1 cfbd
000000d0: 40e2 1d3c 60b0 a73b ecd8 3dbd 00f4 d7bd
000000e0: e879 f6bc 188d b63d d84b e2bd 28ab e13c
000000f0: e8b9 dcbd d452 4ebd 54cc 073d c45d a5bd
0.0029212683 0.031234741 -0.107166246 -0.08208212 0.031045973 0.027994111 -0.086721 -0.054207593
0.044843733 -0.032824367 -0.047274172 0.028443739 -0.036802694 0.07354455 -0.035769626 -0.06877193
-0.023804799 -0.025576085 0.06416288 0.008375034 0.03219554 -0.027734056 0.103149384 -0.081978545
-0.07501805 -0.09567596 -0.11105421 -0.07247394 0.11450152 -0.10754028 0.074723974 0.044434547
0.08323842 0.04309985 0.10336308 -0.11778273 -0.07591313 0.036680803 0.029469118 -0.10587415
-0.013663068 0.03808306 -0.10539864 -0.09862907 -0.06636214 -0.04398328 0.03750649 0.09601466
0.09235212 0.035275966 -0.08123073 -0.101504266 0.009636462 0.005117461 -0.04634945 -0.10544586
-0.030087426 0.0891363 -0.11049622 0.027547434 -0.10777646 -0.05037196 0.033153847 -0.08074525

fa3.weight f4 [2, 64]
00000000: 483a 8739 08e0 2c3b 84a9 0bba 68f1 863a
00000010: 9060 cd3a da39 8dba 20fa 9aba 404e 1e3a
00000020: 1021 0239 c87d 0aba 14f6 ba3a a838 c13a
00000030: 9064 0c3b 50e8 743a b603 263b ea7d 253b
00000040: 6077 243a 40f0 ad38 e3e9 91ba c060 1939
00000050: 3d2e e4ba ba3e 1e3b 3021 f8b9 a401 003b
00000060: c0cd 20b9 aac3 1ebb 2812 913a 80fa f0b9
00000070: 4cc0 6b3a 2ae3 123b 4a7f 2f3b df2c 29bb
00000080: 9432 3e3b f82b bb3a aebd 41bb 50da 2eb9
00000090: 78e4 e4ba a888 42bb 1083 3439 deed 2b3b
000000a0: 8b0d a9ba 59d3 09bb 0006 72b8 80d2 c03a
000000b0: 968e 423b 1ecf 433b 7e06 08bb f0df f539
000000c0: be88 deba 7896 a039 cea7 2fbb 5c62 073b
000000d0: 6761 e5ba 8e73 00bb f00f 7e3a 0c60 463a
000000e0: 24b7 f83a f1d1 f9ba 7450 41ba 9014 ee39
000000f0: 38a3 3e3b e426 1abb 1309 cfba d8c5 323b
00000100: de03 0c3b 2cb5 3d3b fcb1 193b 745b 20ba
00000110: 6c99 023b b1e1 d6ba c092 353a e05b eab9
00000120: e053 243b adcb f6ba 9820 16ba e87d 293b
00000130: 308a 823a b0b7 ee39 f8ee 38ba a3e9 2abb
00000140: 9043 2739 24eb 1dbb ec42 c53a 101b b53a
00000150: e070 2e3b ec6a b53a c0a6 dcb9 d048 00ba
00000160: 6096 8539 e209 0ebb c85d 65ba da8f 8eba
00000170: bc66 33bb 3c22 22bb 24e0 393b 61f9 20bb
00000180: 8aa5 093b fc43 cf3a 30f7 aeba b8fc de3a
00000190: 3137 8fba 8004 73b9 5287 0cbb 103c 7e3a
000001a0: ecc0 fd3a 70db d139 ccc3 04ba de23 06bb
000001b0: 3c16 413b f4d8 0fbb 0e78 e2ba 1073 9dba
000001c0: 3251 06bb de0e ccba a028 fe3a 2cfe b33a
000001d0: 3497 ff3a e8d6 203b 241c ccba 7411 013b
000001e0: f428 f53a 530d 38bb 78a3 533a ccf9 113b
000001f0: e089 34b9 485c 5eba 333d 3fbb 14f5 c03a
0.0002579263 0.002637865 -0.0005327689 0.0010295333 0.0015669037 -0.0010774687 -0.0011823811 0.0006038882
0.00012410083 -0.0005283025 0.0014264011 0.0014741616 0.0021422245 0.00093424786 0.0025331802 0.0025252053
0.0006273892 8.294033e-05 -0.0011132326 0.00014627259 -0.00174088 0.0024146275 -0.00047326973 0.0019532228
-0.00015335437 -0.0024225512 0.0011068033 -0.00045963004 0.0008993193 0.0022413232 0.002677875 -0.0025814099
0.0029021846 0.0014280071 -0.002956252 -0.00016675261 -0.0017463109 -0.0029683504 0.00017214962 0.002623431
-0.0012897713 -0.0021030514 -5.7702884e-05 0.0014711171 0.0029687039 0.002987809 -0.0020755823 0.00046896888
-0.0016978008 0.00030629686 -0.00268029 0.0020657992 -0.0017500342 -0.0019600126 0.0009691706 0.00075674127
0.0018975479 -0.001905976 -0.0007374354 0.00045410218 0.0029088985 -0.0023521716 -0.0015795551 0.0027278569
0.002136461 0.0028947098 0.0023452034 -0.0006117143 0.0019927872 -0.0016394166 0.00069264695 -0.0004470041
0.0025074407 -0.0018829011 -0.0005726903 0.00258624 0.0009959396 0.00045531755 -0.0007054652 -0.00260792
0.0001595153 -0.0024096454 0.0015049851 0.0013817269 0.0026617572 0.0013841069 -0.00042085908 -0.00048936624
0.00025479775 -0.002167337 -0.0008749631 -0.0010876611 -0.0027374467 -0.0024739644 0.0028362358 -0.0024562704
0.002100321 0.0015813108 -0.0013348814 0.0017012572 -0.0010926483 -0.00023175962 -0.0021442962 0.0009698281
0.0019359863 0.0004002708 -0.00050645764 -0.0020468156 0.0029462716 -0.0021949382 -0.0017278211 -0.0012012441
-0.0020495174 -0.0015568396 0.0019390769 0.0013732365 0.0019500018 0.0024542157 -0.0015572351 0.001969424
0.0018704222 -0.0028084114 0.000807337 0.0022274135 -0.000172175 -0.0008482379 -0.0029180765 0.0014721476

fa3.bias f4 [2]
00000000: 70ae c6bd 28d9 f23c
-0.0970124 0.029644564
