src/Models/training/2600_critic.pt (torch_old, 22186 bytes, 7 tensors)

fc1.weight f4 [32, 28]
0	0xbf2ab613	-0.66684073
1	0xbf4ed894	-0.8079922
2	0xbee97bf3	-0.45602378
3	0xbeeb93b6	-0.46011132
4	0x3e1c48f5	0.15262206
5	0x3e7ee868	0.24893343
6	0x3ed67618	0.41886973
7	0x3efcd2a2	0.4937945
8	0x3ecf8d47	0.40537474
9	0x3f23fa36	0.64053667
10	0x3f0fcc4e	0.5617112
11	0x3eb50c9b	0.3536118
12	0x3e26f01e	0.16302535
13	0xbe4648ec	-0.19363755
14	0xbf00c683	-0.50302905
15	0xbeed0106	-0.46289843
16	0xbe895602	-0.2682343
17	0x3f1691ad	0.58816034
18	0x3dee6c87	0.11641794
19	0x3f30250c	0.6880653
20	0xbd80b4d4	-0.0628449
21	0x3ed2a493	0.41141185
22	0xbf806735	-1.0031496
23	0xbf2f8ef3	-0.685775
24	0x3f6524bc	0.8950918
25	0xbdad9f5e	-0.084776625
26	0xc0416bb9	-3.0221999
27	0xbfc9e764	-1.577374
28	0xbe98aff6	-0.29821748
29	0xbdded2d1	-0.10880054
30	0x3ce1d71f	0.027568398
31	0x3e585ccd	0.2112915
32	0x3e0646ee	0.13112995
33	0x3d9da5b3	0.0769762
34	0xbd3f34a3	-0.046681058
35	0xbd167321	-0.03673089
36	0xbd98f433	-0.07468452
37	0x3d52f7bb	0.051505785
38	0x3e5b2518	0.21400869
39	0x3de2858d	0.11060629
40	0xbde4f89b	-0.1118023
41	0xbe2737a6	-0.16329822
42	0xbe29d97d	-0.16586871
43	0xbd7ce149	-0.061738286
44	0xbe8ad81e	-0.2711801
45	0xbe33f8af	-0.17575334
46	0x3cf2e28d	0.029649043
47	0x3e90fdbe	0.2831859
48	0x3f02a067	0.51026005
49	0x3ee542c9	0.44777516
50	0xbe64523e	-0.22296998
51	0xbea45b22	-0.3210078
52	0xc016f0ac	-2.3584394
53	0xbe16ae58	-0.14714944
54	0x4078cec0	3.887619
55	0x3f3aa9d9	0.72915417
56	0xbdd20846	-0.10255484
57	0xbe27e312	-0.16395214
58	0xbceb4933	-0.028721428
59	0x3d86ce36	0.065823
60	0xbe271021	-0.16314746
61	0xbe52798e	-0.20554182
62	0x3b959f3b	0.004566101
63	0xbe027103	-0.12738423
64	0xbe0c11e3	-0.13678698
65	0xbad9a584	-0.0016605114
66	0xbcddeb48	-0.02708973
67	0xbca2bea6	-0.019866299
68	0xbe2ac175	-0.1667536
69	0xbdf42e93	-0.11922946
70	0x3e027cbb	0.12742893
71	0xbe17b665	-0.14815672
72	0x3adf27b1	0.0017025379
73	0xbe1f3463	-0.15547328
74	0xbc85c0ad	-0.016327227
75	0xbe1df02a	-0.15423647
76	0x3daa291c	0.08308622
77	0xbd647afd	-0.055781353
78	0xbe00dac1	-0.12583448
79	0x3dfb52b9	0.122716375
80	0x3e011559	0.126058
81	0x3d94fb2a	0.07274468
82	0x3c82ab9b	0.015950968
83	0xbd01f01a	-0.03172312
84	0xbf1845ad	-0.59481317
85	0xbef060d3	-0.4694887
86	0x3ed22565	0.41044155
87	0x3ea5b4a0	0.32364368
88	0x3f35e38b	0.7105033
89	0x3eda5da4	0.42649567
90	0x3f50bfb1	0.815425
91	0x3f0096d0	0.5023012
92	0xbe554b08	-0.20829403
93	0xbe4f7425	-0.2025915
94	0x3e41e105	0.18933494
95	0xbe6c9a91	-0.23105837
96	0xbecfdfa6	-0.40600318
97	0x3cf63404	0.0300541
98	0xbf0b1c56	-0.5434011
99	0xbe35f4c3	-0.1776915
100	0xbe571fd9	-0.21008243
101	0xbed31d08	-0.41233087
102	0x3f0fb930	0.5614195
103	0x3f8f41bb	1.1191934
104	0x3f858bae	1.0433252
105	0x3ed6d868	0.4196198
106	0xbf06e552	-0.52693665
107	0xbeac2fe2	-0.33630282
108	0xc004ef8a	-2.0771203
109	0x3daef38a	0.08542545
110	0xbfa2a90f	-1.2707843
111	0x3f316403	0.6929323
112	0xbe10d0e7	-0.1414219
113	0xbdc0fe0b	-0.09423455
114	0xbd61708f	-0.055038985
115	0x3d5febd5	0.054668266
116	0x3e578ff4	0.21051008
117	0xbda9df80	-0.08294582
118	0xbd4dd76f	-0.05025428
119	0xbdb389c2	-0.087665096
120	0xbd128cb9	-0.035778735
121	0xbd53ec83	-0.051739227
122	0x3cdb0475	0.026735524
123	0x3d91794c	0.07103214
124	0xbe1cb2a8	-0.15302527
125	0xbdb2566e	-0.087078914
126	0x3eaf08dd	0.3418645
127	0x3d7c018b	0.06152491
128	0xbe018cd0	-0.12651372
129	0x3dfcf463	0.123513006
130	0x3e6ba969	0.23013844
131	0x3c5b038b	0.013367544
132	0xbef55705	-0.47917953
133	0xbf0921f5	-0.5356744
134	0xbca61034	-0.020271398
135	0x3d0b7f61	0.034057025
136	0xbedbc380	-0.42922592
137	0x3e7b35c5	0.2453223
138	0xbe8a42d4	-0.2700411
139	0xbe0f3585	-0.1398526
140	0xbe59bb14	-0.21262771
141	0x3fb74b83	1.4319919
142	0x3fe00f07	1.7504586
143	0x3f3484eb	0.70515317
144	0xbf093d70	-0.5360937
145	0x3d6deabf	0.0580852
146	0xbf675b6c	-0.90373874
147	0xbe4af1cd	-0.19818802
148	0xbec06de8	-0.37583852
149	0x3db5049e	0.08838771
150	0x3e805531	0.25064996
151	0x3e3737fa	0.17892447
152	0x3d2eedea	0.04270736
153	0x3e208c32	0.1567848
154	0x3d4c6626	0.049902104
155	0x3dcc9005	0.09988407
156	0xbee825d9	-0.45341375
157	0xbe4b5163	-0.19855265
158	0xbf4c8657	-0.79892486
159	0xbf5a2bbf	-0.85223
160	0xbeecaccb	-0.4622558
161	0x3fc14b2e	1.5101068
162	0x3ef70dbb	0.48252663
163	0xbe4ffad1	-0.20310523
164	0xbfcd1829	-1.6022998
165	0xbdb22fec	-0.087005466
166	0x3ddf7dbc	0.10912654
167	0x3ea2f99d	0.31831065
168	0x3dce449d	0.10071681
169	0x3e884567	0.2661545
170	0x3e2eea64	0.170816
171	0x3e411f7f	0.18859671
172	0x3e9b82d5	0.30373254
173	0x3d474ed1	0.04865915
174	0xbc8612f2	-0.016366456
175	0x3e688191	0.22705676
176	0x3e863c72	0.2621799
177	0x3e2a8989	0.16654028
178	0x3d6fc0a2	0.05853332
179	0x3e27f76e	0.1640298
180	0x3e12b98d	0.14328595
181	0x3e4df6cd	0.20113678
182	0x3d1e6985	0.03867485
183	0x3af4c93c	0.0018675695
184	0x3d7eaea7	0.06217828
185	0x3bb6adfb	0.0055749393
186	0xbfe72587	-1.8058327
187	0xbf58dbc5	-0.8471034
188	0x3e348ae8	0.17631114
189	0xbf0c76cb	-0.54868764
190	0xbd2af52b	-0.041737717
191	0x3da1c6a2	0.07899214
192	0xbdef9a5c	-0.116993636
193	0xbcb149ae	-0.021641579
194	0xc020fb41	-2.5153353
195	0xc0175516	-2.3645682
196	0x3e8d2079	0.27563837
197	0x3e4d5d29	0.20055069
198	0x3d856cf2	0.0651492
199	0x3e94c99e	0.29060072
200	0x3e33c779	0.17556562
201	0x3d9b48aa	0.07582219
202	0xbb504d14	-0.0031784223
203	0xbeba7814	-0.36419737
204	0xbe00e4af	-0.12587236
205	0xbf265046	-0.6496624
206	0xbf07cab5	-0.5304368
207	0xbe5c6434	-0.215226
208	0x3d984b52	0.07436241
209	0x3ebcbbd2	0.36862046
210	0x3eedd795	0.4645354
211	0x3d30e7ba	0.04318974
212	0xbd8a5b06	-0.067556426
213	0xbe959274	-0.29213297
214	0x3db77567	0.089579396
215	0x3d21804f	0.039429005
216	0x3f14689b	0.57972115
217	0x3eda5920	0.42646122
218	0x3f80f888	1.0075846
219	0x3edaa7bb	0.42706093
220	0x407267e1	3.7875903
221	0x3c988c33	0.01862154
222	0x40777f42	3.8671422
223	0x3f93bba5	1.154164
224	0xbdde223d	-0.10846374
225	0xbf9a3e8c	-1.2050338
226	0xbf7614a0	-0.9612522
227	0xbf7db2ee	-0.9910115
228	0xbf396dca	-0.7243315
229	0xbe43aae0	-0.19108152
230	0x3e1cbcbb	0.1530637
231	0x3ed74960	0.42048168
232	0x3ef62164	0.4807235
233	0x3f3b3757	0.73131317
234	0x3f1d9c0e	0.61566246
235	0x3f7687f1	0.9630118
236	0x3f522712	0.82090867
237	0x3f2d0e37	0.67599815
238	0x3ee52eb7	0.44762203
239	0x3ee2948f	0.44253966
240	0x3e206431	0.1566322
241	0xbe54850c	-0.20753878
242	0xbedbf7c1	-0.4296246
243	0xbf42cd08	-0.760941
244	0xbf4443e2	-0.7666608
245	0xbf243113	-0.6413738
246	0xbeab3452	-0.33438355
247	0xbe3cab91	-0.18424822
248	0x3f4266b6	0.75937974
249	0x3c515d68	0.012778617
250	0x400aaf63	2.1669548
251	0x3f0b0c0b	0.5431525
252	0xbeb94988	-0.36188912
253	0x3ea740c5	0.32666603
254	0x3e2bc5b3	0.16774635
255	0x3dcaf0c4	0.09909204

fc1.bias f4 [32]
0	0xbe47372f	-0.19454645
1	0x3e0c688b	0.13711755
2	0xbd123050	-0.035690606
3	0x3fc481db	1.5352129
4	0xbd93dfe4	-0.07220438
5	0x3fc873e0	1.5660362
6	0xbfadb211	-1.3569967
7	0x3f4deb74	0.804374
8	0x3f22ffaf	0.6367139
9	0x3fbb2265	1.4619871
10	0xbeb1d70e	-0.34734386
11	0x3f8e678a	1.1125348
12	0xbe48c13e	-0.19604966
13	0x3e3eb52d	0.186238
14	0xbfacc0b1	-1.3496305
15	0x3f0e7682	0.5564958
16	0x3fde396b	1.7361273
17	0x3f213904	0.62977624
18	0x3f82150d	1.0162674
19	0x3e537dbf	0.20653437
20	0x3ef5ddda	0.48020822
21	0x3ce7130f	0.02820733
22	0x3dda4c7d	0.1065912
23	0xbf7f14eb	-0.99641293
24	0xbfd41de2	-1.657162
25	0xbe868780	-0.26275253
26	0x3e1800d7	0.1484407
27	0xbf83392e	-1.0251825
28	0x3fbcf7f4	1.4763169
29	0x3f8b46e9	1.0881015
30	0x3f01b619	0.50668484
31	0x3fa0a1b4	1.2549348

fa1.weight f4 [32, 2]
0	0xbd46adfc	-0.04850577
1	0xbe1e4c47	-0.15458785
2	0xbddbad0e	-0.10726367
3	0x3dac9a7e	0.084279045
4	0x3e0ee585	0.13954742
5	0x3d013400	0.03154373
6	0x3f388383	0.7207567
7	0xbecdbecb	-0.40184626
8	0x3e2385de	0.15969035
9	0x3d366b80	0.044536114
10	0xbfa9136d	-1.3209053
11	0xbd7b0e6d	-0.061293054
12	0x3eeb5cf7	0.45969364
13	0x3f3bbb92	0.73333085
14	0xbd42e260	-0.04757917
15	0xbd303148	-0.04301575
16	0x3f8fdf45	1.1240011
17	0xbe478f22	-0.19488195
18	0x3ef50578	0.47855735
19	0x3e70087e	0.2344074
20	0x3f87c1de	1.0606039
21	0xbf189694	-0.59604764
22	0xc02f4d54	-2.7390947
23	0xbfae0883	-1.3596348
24	0x3e087f27	0.13329755
25	0xbc8fc8c8	-0.017551795
26	0x3f0d2184	0.55129266
27	0xbef005ea	-0.46879512
28	0xbd9486d5	-0.0725228
29	0xbdbf3edb	-0.093381606
30	0x3dc57963	0.09642293
31	0x3db1512a	0.08658059
32	0xbe12ec18	-0.14347875
33	0xbd6821da	-0.05667291
34	0x3d99e566	0.075144574
35	0x3d95ded8	0.07317895
36	0x3cc4faa8	0.024045303
37	0xbd6f18e8	-0.05837336
38	0xbd2fb25c	-0.042894706
39	0xbd67792a	-0.056512035
40	0xbf1b433e	-0.6064948
41	0x3f3592a8	0.70926905
42	0xc00c8384	-2.195527
43	0xbe17ee7e	-0.14837071
44	0xbdece1ff	-0.11566543
45	0x3e1f2787	0.15542422
46	0x3f4cfdb2	0.8007461
47	0x3f41718d	0.7556389
48	0xbc38bd10	-0.011275545
49	0xbdbd69de	-0.09248708
50	0xbdc58726	-0.09644918
51	0xbd065564	-0.03279628
52	0x3f447e7e	0.7675551
53	0x3dd2b87e	0.10289095
54	0x3dd2c156	0.10290782
55	0xbdb14b07	-0.086568885
56	0xbe1c534c	-0.1526615
57	0xbd269728	-0.040671498
58	0x3f9dbfce	1.2324159
59	0xbed298be	-0.41132158
60	0x3f2ac185	0.6670154
61	0x3f5c5762	0.86070836
62	0x3df00cca	0.11721189
63	0x3d32ec20	0.043682218

fa1.bias f4 [32]
0	0xbf2ccf0f	-0.67503446
1	0xbe7f33a0	-0.24922037
2	0xbf17070c	-0.5899513
3	0x4005667c	2.0843801
4	0xbf1a3ed7	-0.60252136
5	0x3fbffd09	1.4999095
6	0x401d0b34	2.4538088
7	0xbf3480a5	-0.70508796
8	0x3fe149af	1.7600611
9	0x4016208b	2.3457363
10	0x400a5c9f	2.1619031
11	0x3f97daef	1.1863688
12	0xbf10a1df	-0.56496996
13	0x3ffc8ba0	1.973011
14	0xbf240c11	-0.6408091
15	0xbe4e6693	-0.20156316
16	0xbf19fa35	-0.6014741
17	0xbe3018ec	-0.17197007
18	0xbf073fa0	-0.5283146
19	0xbe0c4ddc	-0.13701576
20	0x4020192f	2.501537
21	0x3f9604f9	1.1720268
22	0xbf127ff3	-0.57226485
23	0x3fe605ae	1.7970483
24	0xbece49a6	-0.40290564
25	0xbea69d1a	-0.32541734
26	0x4012ece3	2.2957084
27	0xbec25ab5	-0.3795983
28	0xbf2d542e	-0.67706573
29	0x401447ab	2.3168743
30	0x3f3af504	0.73030114
31	0xbe61c042	-0.22045997

fca1.weight f4 [64, 64]
0	0x3e8e6fc3	0.27819642
1	0xbf04d83a	-0.51892436
2	0x3d1e9822	0.038719304
3	0x3e345cee	0.17613575
4	0x3e94fa72	0.29097325
5	0x3ee10f4d	0.43956986
6	0xbf90a3fa	-1.1300042
7	0x3e83a104	0.25708783
8	0xbd7ebe6b	-0.062193315
9	0x3eabca64	0.3355285
10	0xbe2e40c1	-0.17016889
11	0x3f9fb9f7	1.2478627
12	0x3dbabf42	0.09118511
13	0x3e5c6234	0.21521837
14	0xbeb1de6a	-0.3474
15	0x3e5c3110	0.21503091
16	0xbe81a549	-0.25321415
17	0xc057d714	-3.3725023
18	0x3eba7704	0.36418927
19	0xbf68288b	-0.90686864
20	0xc06ec513	-3.7307785
21	0x3e374c6f	0.17900251
22	0xbe5d8722	-0.2163358
23	0xbee162eb	-0.4402078
24	0xbed931f0	-0.42420912
25	0x407e5c0d	3.9743683
26	0x3ec4f4c4	0.3846799
27	0xbf39bdb3	-0.72555083
28	0x3e6e27b2	0.2325733
29	0x3db74676	0.08948986
30	0x3e79821c	0.24366039
31	0x3eb9b0e3	0.36267766
32	0xbd7582c4	-0.05993916
33	0xbdf43a5e	-0.11925195
34	0x3d8b8678	0.06812757
35	0xbda78ffc	-0.0818176
36	0x3d02dbb4	0.031947806
37	0xbe561994	-0.20908195
38	0xbe39bcb2	-0.18138388
39	0xbd2b6e9c	-0.041853532
40	0xbe900df8	-0.28135657
41	0xbe875345	-0.26430717
42	0xbe5f08d3	-0.2178071
43	0x3f78cf02	0.9719087
44	0x3d8cddde	0.06878255
45	0xbe55bf1c	-0.20873684
46	0xbd360a38	-0.04444334
47	0x3abfff06	0.0014648146
48	0x3db53eb4	0.0884985
49	0x3db0ff22	0.08642413
50	0x3d6486b5	0.05579253
51	0xbdbdbe9e	-0.09264873
52	0xbe84fe09	-0.25975063
53	0xbf2614e6	-0.6487564
54	0xbdf32e6e	-0.1187409
55	0xbe6a50b6	-0.22882351
56	0xbb63fac0	-0.003478691
57	0xbc6bdf70	-0.014396533
58	0xbe5ab32b	-0.2135741
59	0x3d8d952a	0.069132164
60	0xbd36345c	-0.044483528
61	0xbe34fa12	-0.17673519
62	0xbc555bd4	-0.013022382
63	0xbdb5c5ce	-0.08875619
64	0xbd2c3c5e	-0.042049758
65	0xbcfb8199	-0.030701445
66	0x3d38ec68	0.04514733
67	0xbe0518b5	-0.12997706
68	0x3d3a1f24	0.045439854
69	0x3c6620df	0.014045923
70	0x3dc9b24a	0.09848459
71	0x3d837aa3	0.064198755
72	0xbc922880	-0.017841578
73	0x3c914dbf	0.017737268
74	0x3d54c380	0.051944256
75	0xbce50f6e	-0.027961459
76	0x3df766cd	0.120801546
77	0xbdfe5ffb	-0.124206506
78	0xbd938041	-0.07202197
79	0xbced25c5	-0.028948674
80	0xbd220325	-0.03955378
81	0xbaba1f1a	-0.0014199943
82	0x3da8351a	0.08213253
83	0xbce6307f	-0.028099297
84	0x3dd3c1af	0.103396766
85	0xbc0d15d0	-0.008611158
86	0x3c81637a	0.015794504
87	0xbd46f834	-0.04857655
88	0xbd949d6a	-0.07256587
89	0xbd87e38f	-0.066352
90	0xbe1f960b	-0.1558458
91	0xbd9dd0ea	-0.07705863
92	0xbdfb4319	-0.12268657
93	0x3cd51588	0.026011243
94	0xbdff8cc4	-0.12478021
95	0xbdc8925e	-0.09793542
96	0x3d6f2196	0.05838164
97	0x3db91c3e	0.0903859
98	0x3dde5e3a	0.10857816
99	0xbdf8706e	-0.12130819
100	0xbd2b249c	-0.04178296
101	0x3d05534d	0.032550145
102	0xbd8278d3	-0.06370702
103	0x3dedf1d8	0.11618394
104	0x3d27622a	0.0408651
105	0xbdc060af	-0.09393441
106	0xbe018a8a	-0.12650505
107	0xbdcdc66a	-0.1004761
108	0xbd12c27c	-0.035830006
109	0x3d5c223e	0.053743593
110	0x3c85d948	0.01633896
111	0xbd4f1328	-0.05055538
112	0xbdf7090d	-0.12062273
113	0x3da66766	0.081251904
114	0xbd8d72da	-0.06906672
115	0x3d10d88f	0.035362776
116	0xbdb92131	-0.09039534
117	0x3d40222f	0.0469076
118	0x3b8384a0	0.004013613
119	0xbce81cb0	-0.028333992
120	0x3d2d533c	0.042315707
121	0x3d97b776	0.07408039
122	0xbe0a25b1	-0.1349094
123	0x3daaf055	0.08346621
124	0xbd971ed6	-0.07378928
125	0xbbd5c169	-0.0065233004
126	0x3c2e7450	0.010647848
127	0x3d8bb74a	0.06822069
128	0x3ddbd043	0.10733082
129	0xbf12a2d3	-0.572797
130	0x3d952a0a	0.07283409
131	0x3e2b4ee6	0.16729316
132	0xbe03446c	-0.1281907
133	0x3ee0ce02	0.4390717
134	0xbfbb8319	-1.4649383
135	0x3ec546fa	0.38530713
136	0x3debac2a	0.11507447
137	0x3d2049b2	0.03913278
138	0xbf827afa	-1.019378
139	0xbf6e6371	-0.93120486
140	0x3d959383	0.07303526
141	0x3f51bdce	0.81930244
142	0xbed8136e	-0.42202324
143	0x3e1c7a58	0.15281045
144	0x3ea84641	0.328661
145	0xc09a43be	-4.8207693
146	0x3e35b60a	0.17745224
147	0xbfb863f7	-1.4405507
148	0x40130c3b	2.2976215
149	0xbcc0687f	-0.023487328
150	0xbb57faec	-0.0032955958
151	0x3eea93a9	0.4581578
152	0x3e93cd1f	0.28867432
153	0xbec0cd8a	-0.37656814
154	0xbe1f1885	-0.15536697
155	0xbf084fa5	-0.5324653
156	0x3e42509f	0.18976067
157	0x3d971295	0.07376591
158	0xbeaa2222	-0.33229166
159	0xbea99002	-0.33117682
160	0x3d423df4	0.047422364
161	0xbdbc2a8b	-0.09187802
162	0xbda93390	-0.08261788
163	0xbe5812b8	-0.2110089
164	0xbc114dc0	-0.008868635
165	0xbf00247b	-0.50055665
166	0xbcc6c0cb	-0.024261853
167	0x3deb4a6e	0.11488806
168	0xbe52d4a8	-0.20588934
169	0xbe4f5684	-0.20247847
170	0xbe432207	-0.19055949
171	0x3e2eda74	0.17075521
172	0x3d563d68	0.052304655
173	0xbe2361d5	-0.15955289
174	0xbca19b10	-0.01972726
175	0x3d9e51d2	0.0773045
176	0x3dcb9690	0.09940827
177	0xbd05a750	-0.032630265
178	0x3d3f63e0	0.046726108
179	0xbc6891f0	-0.01419495
180	0xbded1dbc	-0.11577937
181	0xbf9facda	-1.2474625
182	0x3c313350	0.0108154565
183	0x3e044092	0.12915257
184	0x3c25df70	0.010124072
185	0x3d08aa30	0.03336543
186	0xbe78fed9	-0.24315967
187	0x3da123c0	0.07868147
188	0x3dd6a7e2	0.1048124
189	0xbe26d193	-0.16290884
190	0x3ebd7958	0.3700664
191	0xbd875307	-0.06607633
192	0x3de39dcf	0.11114084
193	0xbe81c6fb	-0.25347123
194	0xbd99db6e	-0.07512556
195	0x3c5fe7dc	0.013666119
196	0x3e8d455c	0.2759198
197	0x3d3ea74d	0.04654627
198	0xc08866b0	-4.262535
199	0x3e5054e4	0.20344883
200	0x3dbe968f	0.093060605
201	0x3d4a5130	0.049393833
202	0xbd5feea6	-0.054670952
203	0xbfdc0400	-1.7188721
204	0xbc5d916f	-0.013523444
205	0x3deef2c6	0.11667399
206	0xbc2dc74d	-0.010606599
207	0x3befa30a	0.007313137
208	0xbd0312d5	-0.03200038
209	0x40845af8	4.1361046
210	0xbb8215fb	-0.0039699054
211	0xbdb5b24e	-0.088718995
212	0x3fa8e458	1.3194685
213	0xbce5abae	-0.028035965
214	0x3f2d4d06	0.67695653
215	0xbe1bfb37	-0.1523255
216	0xc032063f	-2.7816312
217	0x402066bb	2.5062702
218	0xbcd27c5a	-0.025694061
219	0x3e342649	0.1759273
220	0x3cf305ef	0.029665915
221	0x3ddbf140	0.10739374
222	0x3d12e456	0.03586229
223	0xbe062862	-0.13101342
224	0x3cb30830	0.02185449
225	0xbd5d45e0	-0.054021716
226	0xbdec56bc	-0.11539981
227	0xbe621bb9	-0.22080888
228	0xbd9bc24a	-0.07605417
229	0xbf964af8	-1.1741629
230	0x3ee36b9c	0.44418037
231	0xbde82582	-0.11335279
232	0xbe37faf8	-0.1796683
233	0x3dbc7255	0.092014946
234	0xbef7b428	-0.48379636
235	0xc05671f9	-3.3507063
236	0x3c7d37a0	0.015455157
237	0xbf07b691	-0.5301295
238	0xbdc86d30	-0.09786451
239	0x3dbc74c4	0.09201959
240	0xbc19a430	-0.009377524
241	0x3cb18028	0.021667555
242	0xbcb197f8	-0.02167891
243	0xbd52ead6	-0.05149349
244	0x3e95ba6f	0.292438
245	0xc03711be	-2.860458
246	0x3b401380	0.0029308498
247	0x3f328c09	0.69744927
248	0xbd8c4b3c	-0.06850287
249	0xbd6cc804	-0.057807937
250	0x3dd93287	0.106053405
251	0x3d1f22a4	0.038851395
252	0xbd323814	-0.04351051
253	0xbee2ddd3	-0.44309863
254	0x3ed1ca0b	0.4097446
255	0xbba36000	-0.0049858093

fca1.bias f4 [64]
0	0xbe5d08a5	-0.21585329
1	0xbe0b4aaa	-0.13602701
2	0xbed2cc36	-0.41171426
3	0xbe7859d6	-0.2425302
4	0xbb219ba4	-0.002465942
5	0x3fa2c8e0	1.2717552
6	0x3f744c70	0.95429134
7	0x3fb4d9bc	1.4128947
8	0x3fa23c10	1.267458
9	0x3efbf442	0.4920979
10	0xbe8e8c48	-0.278414
11	0xbeefd403	-0.4684144
12	0x3cefdd17	0.029280229
13	0xbda2ab1e	-0.07942794
14	0xbd630d34	-0.055432513
15	0xbd97ed15	-0.07418267
16	0x3d6303fc	0.05542372
17	0x3d9c3cce	0.07628785
18	0xbed10ef9	-0.40831736
19	0x3f83aaa2	1.0286448
20	0x3d87b897	0.066270046
21	0xbde2a090	-0.11065781
22	0xbec798b1	-0.38983682
23	0xbe5d5610	-0.21614861
24	0xbed1624c	-0.40895307
25	0x3b88a7a0	0.004170373
26	0xbef66c87	-0.48129675
27	0xbea3f0f4	-0.3201977
28	0xbd483c6d	-0.04888575
29	0xbca1e3e5	-0.019761989
30	0xbe3bc8fe	-0.18338391
31	0x3f3a3fb8	0.7275348
32	0xbe9cf737	-0.3065736
33	0xbf040c2a	-0.5158106
34	0x3fd5e4e4	1.6710477
35	0xbf2c822f	-0.67386144
36	0xbd2b59cd	-0.041833688
37	0x3d49976a	0.049216665
38	0xbe6313cc	-0.2217552
39	0xbec71290	-0.3888135
40	0xbe7333e1	-0.23750259
41	0xbeefb8cd	-0.4682068
42	0xbeb066f4	-0.34453547
43	0xbe36cb87	-0.17851077
44	0xbe9ce8e7	-0.3064644
45	0xbea05355	-0.31313577
46	0x3eee0ef8	0.46495795
47	0xbe2f5614	-0.1712268
48	0xbed3c23a	-0.4135912
49	0xbf0a73bb	-0.5408284
50	0x3cbf1c76	0.023329
51	0xbe726a1d	-0.23673292
52	0xbf0641be	-0.52444065
53	0xbe2a21ac	-0.16614407
54	0xbeb8f82c	-0.3612684
55	0xbe937a18	-0.28804088
56	0x3cf51cdb	0.029920986
57	0x3e8fc3c7	0.28079054
58	0xbed7615e	-0.42066473
59	0x3f316f4f	0.6931047
60	0xbe496044	-0.19665629
61	0xbeeb99af	-0.4601569
62	0xbe5ac9c0	-0.21366024
63	0xbee4fe75	-0.44725385

fca2.weight f4 [1, 64]
0	0xbf82b708	-1.0212107
1	0xbcbfd40e	-0.023416545
2	0xbf222aa8	-0.6334634
3	0xbfa4e28f	-1.288164
4	0xc17935f8	-15.575676
5	0x402f24a5	2.7366116
6	0x4043cf87	3.0595415
7	0x40236e8c	2.5536222
8	0x3faff189	1.3745586
9	0xc1d7fae5	-26.997507
10	0xbf138472	-0.5762397
11	0xbf272d16	-0.6530317
12	0xbbffd6fc	-0.0078076106
13	0x3b90fbb7	0.004424538
14	0xbfa38395	-1.2774531
15	0xbc7956e7	-0.015218473
16	0xbb071c56	-0.0020616255
17	0xbb2daaec	-0.0026499582
18	0xbfbeaa74	-1.4895768
19	0x403887bb	2.8832843
20	0xbc7df683	-0.0155006675
21	0xbf327924	-0.69716096
22	0xbeef782f	-0.4677138
23	0xc0b1761c	-5.5456676
24	0xbe68202c	-0.22668523
25	0xbae89b94	-0.0017746561
26	0xbf66a6c8	-0.9009824
27	0xbf4f8cc8	-0.8107419
28	0x3cfb7db1	0.030699583
29	0xbac379a9	-0.0014913577
30	0xbecbf263	-0.39833364
31	0xc0f02c80	-7.505432
32	0xbf25bd1e	-0.64741695
33	0xbf0c81a1	-0.548853
34	0x402006ac	2.5004072
35	0xc0151a42	-2.3297276
36	0x3cd64639	0.026156532
37	0xc0dd0995	-6.9074197
38	0xbf4de855	-0.80432636
39	0xbfeb7094	-1.8393731
40	0xc1216b4d	-10.0886965
41	0xbf318668	-0.6934571
42	0xbf023c23	-0.5087301
43	0x3bc28f49	0.005937491
44	0xbf3e0b8b	-0.74236363
45	0xc0968155	-4.7032876
46	0xc1188d55	-9.534505
47	0xbf5e4c2b	-0.86834973
48	0xbfdaa541	-1.7081681
49	0xbf91756f	-1.1363963
50	0xbc96f6fc	-0.018428318
51	0xbf14ba2c	-0.58096576
52	0xc0163827	-2.3471773
53	0xbf914358	-1.1348677
54	0xbf4d622b	-0.8022792
55	0xbf6feb2d	-0.93718225
56	0xbc84f1a5	-0.016228506
57	0xc0cfdc7b	-6.495664
58	0xbf4ef75b	-0.80846184
59	0xc1e2e8db	-28.363699
60	0xc0ba07a9	-5.813435
61	0xbf2a1dd1	-0.66451746
62	0xbf88d15f	-1.0688895
63	0xbf04c5a0	-0.5186405
