src/Models/training/300_critic.pt (torch_old, 22090 bytes, 7 tensors)

fc1.weight f4 [32, 28]
0.04422622 -0.076524355 -0.055795327 -0.13435715 -0.121719964 -0.014742835 -0.07576796 0.13953537
0.08741657 -0.07789185 -0.080449104 -0.13897587 -0.052875873 -0.12190899 -0.05620109 -0.05187509
-0.14484827 -0.14396846 -0.13545343 0.14810547 0.1339719 -0.1527877 0.16794786 -0.15086171
-0.025089493 0.13211715 0.12590005 0.031517334 0.24206024 0.07148322 0.31187305 0.22513692
0.13558324 0.17174181 0.21399143 0.006352196 -0.017540267 -0.10223454 -0.17038578 -0.04119
-0.09691948 -0.19077025 -0.10156315 0.115589045 -0.020270346 0.096534275 -0.032086827 0.10625941
0.16141278 -0.04536376 0.31528014 0.026874913 0.03894226 0.0058658253 -0.09307874 -0.038477913
-0.05301456 -0.04435699 0.1058468 0.025914125 -0.05952246 0.008059291 0.054796536 -0.0074595893
-0.04662569 0.020455632 0.0927377 -0.14193761 0.12198194 0.09332756 -0.02488623 0.17148025
0.16919446 0.056663793 0.15787627 0.1317431 0.18781006 0.035369173 0.07157263 0.13475661
-0.14361991 -0.12204492 0.06711461 0.06619337 -0.35576037 -0.05230103 -0.39857596 -0.14394717
-0.23261476 0.05824024 0.045454595 -0.02745049 0.09429654 0.070575185 0.3058519 0.32936805
0.27358845 0.048201412 0.1370768 -0.05987618 -0.08840598 -0.12647201 -0.1911721 -0.15807724
-0.12276934 -0.29178166 -0.3999768 -0.077287965 -0.126248 0.010717809 -0.040916488 0.08847078
-0.054907028 -0.03828054 -0.3156259 -0.3450679 -0.19815578 -0.10912984 -0.19206704 -0.07333426
-0.046664227 0.035676133 0.15506457 0.31039047 0.012571337 0.18349859 0.17322975 0.104915455
0.1696088 -0.047943756 0.020881671 -0.13562709 -0.032264147 -0.1681291 -0.27430463 -0.1674945
-0.023114434 0.26858342 0.038285594 0.099135324 -0.17638811 -0.12330849 -0.004942245 -0.20414446
0.15278706 0.09609915 0.018755712 0.11286928 0.113100946 0.041996364 0.24061264 0.051900174
0.1298982 0.18671513 -0.14098576 0.096816935 0.017415302 0.103403695 -0.07084361 -0.12379071
-0.1677957 0.012985601 -0.1647956 -0.19011146 -0.11828318 0.121960826 0.10499404 -0.086629376
-0.0008185127 -0.0834295 -0.25533062 0.0053251367 -0.07899376 -0.08298918 -0.1947567 0.08492763
-0.003928817 0.13678081 0.07859019 0.25233108 0.19865869 0.0042420416 0.16525964 0.032866076
-0.107315294 0.054277714 0.012590564 0.09692985 -0.14339966 0.033349097 0.035588257 -0.03207057
0.10419257 -0.04015012 -0.16148014 0.1095494 0.06922703 0.23988548 0.22659607 0.025961226
-0.055765674 0.20440061 -0.04627726 -0.09425379 -0.038046107 -0.07739845 -0.15061271 -0.065220624
-0.052555416 0.1394751 -0.126308 -0.14937188 0.17174093 0.08004376 0.0039068055 0.22082095
0.13243912 0.12558784 0.23057155 0.2298296 0.07285461 0.014517047 -0.15934107 0.03688596
-0.18634947 -0.26947626 -0.040620625 -0.1836075 -0.17833786 0.15197293 0.1155752 -0.039740708
0.041837994 0.044961285 0.0009447492 0.19703653 0.16746189 -0.0015430157 0.10491877 0.08500757
-0.16998649 0.0031353524 0.14473133 -0.19891992 0.016458744 -0.08263317 -0.14153199 0.045364592
0.007991346 0.17500216 -0.0038907027 0.006374682 0.03611706 -0.029866628 -0.0065212916 -0.033953827
00000000: 8e26 353d cdb8 9cbd a489 64bd ec94 09be
00000010: 5148 f9bd ef8b 71bc 3b2c 9bbd 5ce2 0e3e
00000020: 7507 b33d c385 9fbd 80c2 a4bd b14f 0ebe
00000030: 5f94 58bd 6cab f9bd 1d33 66bd f97a 54bd
00000040: 1b53 14be 786c 13be 4eb4 0abe f6a8 173e
00000050: ee2f 093e 6174 1cbe 86fa 2b3e 7e7b 1abe
00000060: 7b88 cdbc b849 073e f1eb 003e 5218 013d
00000070: a4de 773e cb65 923d d3ad 9f3e 4b8a 663e
00000080: 55d6 0a3e 16dd 2f3e 9220 5b3e 1526 d03b
00000090: 9bb0 8fbc 5860 d1bd 9c79 2ebe d8b6 28bd
000000a0: b87d c6bd 4759 43be 5700 d0bd f3b9 ec3d
000000b0: ff0d a6bc c3b3 c53d 7a6d 03bd 899e d93d
000000c0: 6449 253e 5acf 39bd 666c a13e c728 dc3c
000000d0: eb81 1f3d 1c36 c03b 11a0 bebd 049b 1dbd
000000e0: cc25 59bd adaf 35bd 35c6 d83d dc49 d43c
000000f0: d3cd 73bd 1e0b 043c 5572 603d 926f f4bb
00000100: 94fa 3ebd 9292 a73c 43ed bd3d 1858 11be
00000110: abd1 f93d 8522 bf3d 35de cbbc 8598 2f3e
00000120: 5041 2d3e 4b18 683d 51aa 213e aae7 063e
00000130: 4851 403e 44df 103d ac94 923d a3fd 093e
00000140: 1911 13be b0f2 f9bd 6273 893d 6490 873d
00000150: 3926 b6be 9b39 56bd 2612 ccbe e366 13be
00000160: 9032 6ebe 518d 6e3d 992e 3a3d dadf e0bc
00000170: 8b1e c13d b989 903d 9f98 9c3e eea2 a83e
00000180: c913 8c3e d86e 453d dc5d 0c3e ba40 75bd
00000190: 320e b5bd e181 01be 9ec2 43be 00df 21be
000001a0: 7e6e fbbd 6864 95be c2c9 ccbe 2749 9ebd
000001b0: 2847 01be c099 2f3c 0c98 27bd 2b30 b53d
000001c0: 31e6 60bd 0ecc 1cbd b899 a1be bdac b0be
000001d0: 59e9 4abe 777f dfbd 39ad 44be 4630 96bd
000001e0: fd22 3fbd 2321 123d 3fc9 1e3e 80eb 9e3e
000001f0: 02f8 4d3c 0ee7 3b3e 2463 313e eadd d63d
00000200: eead 2d3e ac60 44bd 0a10 ab3c d4e1 0abe
00000210: 6927 04bd 092a 2cbe a871 8cbe ae83 2bbe
00000220: 7b5a bdbc c483 893e 5bd1 1c3d 7607 cb3d
00000230: 169f 34be 2989 fcbd 8ef2 a1bb 3f0b 51be
00000240: 3674 1c3e a2cf c43d 94a5 993c 0228 e73d
00000250: 78a1 e73d 6104 2c3d 2963 763e 4795 543d
00000260: 0904 053e 4032 3f3e 925e 10be f547 c63d
00000270: 89aa 8e3c 51c5 d33d 7416 91bd fc85 fdbd
00000280: a3d2 2bbe 8fc1 543c 2ec0 28be 94ac 42be
00000290: 743e f2bd 99c6 f93d 1e07 d73d be6a b1bd
000002a0: 7591 56ba 16dd aabd b2ba 82be 7c7e ae3b
000002b0: 7bc7 a1bd 3bf6 a9bd 4d6e 47be 8aee ad3d
000002c0: 4ebd 80bb 4510 0c3e e5f3 a03d 8a31 813e
000002d0: 2f6d 4b3e d300 8b3b d339 293e 949e 063d
000002e0: 1fc8 dbbd 4f52 5e3d a748 4e3c 2883 c63d
000002f0: 5cd7 12be 1099 083d fec4 113d 6e5c 03bd
00000300: ea62 d53d 7474 24bd 0d5b 25be 705b e03d
00000310: e7c6 8d3d 8aa4 753e cd08 683e a3ac d43c
00000320: 8c6a 64bd 654e 513e 398d 3dbd 2208 c1bd
00000330: 3cd6 1bbd 1483 9ebd 383a 1abe 6492 85bd
00000340: 5944 57bd 90d2 0e3e e256 01be f1f4 18be
00000350: dbdc 2f3e fced a33d a904 803b e31e 623e
00000360: 1f9e 073e 199a 003e f31a 6c3e 7358 6b3e
00000370: cc34 953d e9d8 6d3c 4e2a 23be bb15 173d
00000380: 65d2 3ebe cbf8 89be d061 26bd 9b03 3cbe
00000390: 339e 36be cb9e 1b3e b1b2 ec3d 27c7 22bd
000003a0: 515e 2b3d 5329 383d 0ca9 773a f2c3 493e
000003b0: 217b 2b3e 043f caba a7df d63d 7318 ae3d
000003c0: f010 2ebe 7c7a 4d3b 7334 143e aab1 4bbe
000003d0: 7dd4 863c 943b a9bd c3ed 10be 39d0 393d
000003e0: 22ee 023c c433 333e 29fb 7ebb b5e2 d03b
000003f0: 7bef 133d dcaa f4bc 8fb0 d5bb 2b13 0bbd

fc1.bias f4 [32]
-0.08942519 -0.03151225 -0.14029591 0.22491284 0.016874947 -0.15981238 0.20161887 0.115720704
0.08652922 0.1030962 -0.1437974 0.17754492 -0.020512467 -0.024678322 -0.0060842866 -0.043961946
0.06594928 0.043470122 0.13054639 0.092524365 0.18464364 -0.15875193 0.15363573 -0.15999609
0.04900147 -0.060121115 0.17547433 -0.08872909 0.19858836 -0.0628222 -0.06293121 -0.17600316
00000000: 8e24 b7bd fd12 01bd bba9 0fbe 8d4f 663e
00000010: 543d 8a3c dba5 23be 2d75 4e3e fafe ec3d
00000020: 3b36 b13d 1a24 d33d a03f 13be 56ce 353e
00000030: c309 a8bc 312a cabc b25e c7bb 7111 34bd
00000040: 6b10 873d ba0d 323d f4ad 053e 6a7d bd3d
00000050: 3913 3d3e de8f 22be af52 1d3e 04d6 23be
00000060: c4b5 483d 8f41 76bd 8baf 333e 99b7 b5bd
00000070: bf5a 4b3e eda8 80bd 14e2 80bd 2c3a 34be

fa1.weight f4 [32, 2]
0.23894544 -0.1136511 0.06960088 -0.07207609 0.11429221 0.21468487 0.0102731725 -0.1297385
0.17530264 0.056500938 0.12264123 0.055506803 -0.11025139 -0.1144583 -0.08350595 -0.10990579
0.10548253 -0.023623869 0.018599207 -0.051290307 -0.10884137 0.1817679 0.24883795 0.22758226
-0.0016718863 -0.114158995 -0.036381945 0.113450214 0.03184277 0.17414467 -0.11556468 0.07366485
0.037073735 0.09831026 -0.10854602 0.08029387 0.08005385 -0.12823944 0.025636867 0.0014365762
-0.019785952 0.015185277 -0.12087526 -0.1398469 0.12830251 0.049310647 0.051699948 -0.051325347
-0.021628395 -0.01968664 0.063222826 0.030386655 0.18329245 0.1805395 0.11751347 0.16226296
-0.040888593 -0.14343297 -0.075347714 -0.14811625 0.1951142 -0.085024886 0.0355424 -0.15145817
00000000: 1dae 743e e8c1 e8bd e88a 8e3d a19c 93bd
00000010: 0912 ea3d 5ad6 5b3e cf50 283c 2bda 04be
00000020: 8982 333e 876d 673d 532b fb3d 1a5b 633d
00000030: 7bcb e1bd 1d69 eabd 2b05 abbd 4916 e1bd
00000040: 3a07 d83d d886 c1bc 5d5d 983c c915 52bd
00000050: 39e8 debd 5d21 3a3e 60cf 7e3e 530b 693e
00000060: 3223 dbba 31cc e9bd 3c05 15bd 9658 e83d
00000070: 906d 023d fb52 323e 2dad ecbd 99dd 963d
00000080: a1da 173d e456 c93d 604d debd 1d71 a43d
00000090: 46f3 a33d 3351 03be 6804 d23c 804b bc3a
000000a0: 2616 a2bc abcb 783c 738d f7bd 0734 0fbe
000000b0: bc61 033e f6f9 493d 53c3 533d 873a 52bd
000000c0: 082e b1bc e045 a1bc f87a 813d 6fed f83c
000000d0: 04b1 3b3e 59df 383e e7aa f03d 4328 263e
000000e0: cc7a 27bd 18e0 12be e74f 9abd c9ab 17be
000000f0: 04cc 473e 8721 aebd e894 113d da17 1bbe

fa1.bias f4 [32]
0.16200389 0.4687052 0.090027295 -0.014259133 0.29448757 0.6198449 -0.5335073 -0.47177142
0.5491925 0.56015754 0.5657165 0.009092917 0.2529722 -0.6084955 -0.26374158 0.3211715
0.587184 0.17862159 -0.05199641 -0.012128353 0.34614232 0.18493363 0.33119652 0.6423675
-0.14718056 -0.4671653 0.29945412 0.09124597 -0.052331865 -0.21326616 0.1955793 -0.14630894
00000000: 59e4 253e 21fa ef3e 3b60 b83d 239f 69bc
00000010: 13c7 963e 28ae 1e3f ef93 08bf 068c f1be
00000020: e197 0c3f 7c66 0f3f ccd2 103f 75fa 143c
00000030: 9285 813e 5cc6 1bbf 2309 87be 9770 a43e
00000040: b151 163f 94e8 363e 30fa 54bd 00b6 46bc
00000050: 9139 b13e 3e5f 3d3e 9792 a93e 3272 243f
00000060: 80b6 16be 4a30 efbe 0d52 993e 2bdf ba3d
00000070: f059 56bd 7262 5abe f145 483e 03d2 15be

fca1.weight f4 [64, 64]
-0.08389256 0.086706795 0.10989779 0.3582276 0.17544888 -0.06716879 0.05620052 0.07570551
-0.073657416 0.14477496 0.0050333724 0.051933117 -0.040771134 0.11563039 0.109116785 0.28008023
0.023628196 0.47810784 0.184691 0.26518834 -0.08503693 -0.051153 0.58959174 -0.047727555
0.110857874 0.1304871 0.5396161 0.08688966 -0.054574035 -0.11157759 0.09674081 -0.12763064
0.055413716 -0.024538416 0.022372976 -0.028856812 0.1441193 0.02654125 -0.022576168 0.0801447
0.024094444 0.0042402693 -0.07765137 0.09049376 0.085832804 -0.12265721 -0.026714414 0.038581345
0.062625945 -0.068243854 -0.04834558 -0.09583986 0.12903558 0.012192336 -0.042425174 0.11144413
-0.062647596 -0.098261595 -0.006701227 0.11016972 -0.026793566 -0.07341719 0.10488155 -0.029125627
-0.0076725855 -0.05670747 0.10620051 0.41265327 0.1574453 0.004663702 0.14082524 -0.06433724
0.120055996 0.05426115 0.092455775 -0.017723404 -0.019524748 -0.017161885 -0.014985203 0.24472138
0.18571173 0.40426645 0.17116615 0.30704677 0.13613644 -0.077309996 0.51328385 -0.12474115
-0.023178905 0.12805039 0.4284133 0.03740793 0.1120471 -0.08092196 0.2044218 -0.0567691
-0.057599045 0.014024046 0.05883551 0.099771 -0.009914126 0.0005604437 -0.05027637 -0.110525444
-0.009747836 0.12049011 0.07414849 0.12941472 0.13443537 -0.102825 -0.020099357 0.012467823
0.03409655 -0.046033956 -0.013505161 0.015857056 -0.031114118 0.11049549 0.02171047 0.042675678
0.038669273 -0.09537536 -0.06596188 0.13145246 0.020509437 -0.005574748 0.007322627 -0.0043049008
-0.04950495 -0.0196769 0.06632435 0.5418911 0.37785652 0.12841018 -0.051804148 0.023431685
0.17608956 -0.05106357 -0.09536935 -0.100888275 0.061339557 0.037931975 0.016535437 0.2796739
0.17290331 0.5067467 0.31536433 0.27656314 0.09438949 0.013737324 0.7193142 -0.05693768
-0.091121346 0.35501266 0.6911106 -0.11460081 0.0038324099 0.11081627 0.10070128 -0.17107354
-0.02018715 0.022797352 0.14001381 -0.017786656 0.029488415 -0.042538654 0.06926711 0.08875358
-0.004048809 0.049081914 -0.11634602 -0.05341006 0.118351996 0.06084409 -0.008044403 0.010272597
-0.081353635 -0.04845653 0.07371876 0.028580144 0.05767955 -0.021459395 0.07098852 -0.09333838
0.018965766 -0.07070392 -0.014208573 -0.0023286038 -0.10739778 -0.056667984 0.105319254 0.11593099
0.06808679 -0.08376448 -0.12075788 0.017995283 0.08450028 -0.024155244 -0.008147374 -0.06040965
-0.024484172 -0.092991635 -0.07480906 0.00031538308 0.09216653 -0.030481085 -0.06717056 -0.0695856
-0.09556818 -0.12247346 0.0476588 0.039352614 0.09755255 0.04745753 -0.042297617 0.05030138
-0.10830262 0.013762797 0.071168974 -0.05594629 -0.09848677 0.0534987 -0.040917307 0.11478885
0.018741488 -0.041746497 0.050055623 0.04731366 -0.030244395 -0.021040827 0.10448705 0.064595
-0.10620567 -0.11829506 -0.111349165 0.08116044 0.039740533 0.056394607 0.010974392 -0.074924976
0.048362836 0.036959425 -0.102221996 0.010552093 0.03360161 -0.075579956 0.071952984 -0.050104275
0.027609691 0.0743673 -0.008289605 -0.0046693236 0.07863963 -0.10802469 -0.07377657 0.044857666
00000000: ddcf abbd 5593 b13d 1812 e13d 9c69 b73e
00000010: dfa8 333e ca8f 89bd 8432 663d 7e0b 9b3d
00000020: b3d9 96bd e33f 143e fdee a43b d2b7 543d
00000030: a2ff 26bd a0cf ec3d 9f78 df3d ad66 8f3e
00000040: eb8f c13c 8dca f43e a31f 3d3e c4c6 873e
00000050: d827 aebd cf85 51bd 7cef 163f f87d 43bd
00000060: 7409 e33d 699e 053e 4824 0a3f 35f3 b13d
00000070: 0689 5fbd cb82 e4bd 0c20 c63d 9bb1 02be
00000080: 7ef9 623d ca04 c9bc 8847 b73c 1f65 ecbc
00000090: 0394 133e 096d d93c a8f1 b8bc e822 a43d
000000a0: b661 c53c f5f1 8a3b ae07 9fbd cb54 b93d
000000b0: 1cc9 af3d b433 fbbd 30d8 dabc 7907 1e3d
000000c0: 0842 803d 6fc3 8bbd 0406 46bd b047 c4bd
000000d0: e721 043e 5dc2 473c 05c6 2dbd d23c e43d
000000e0: 624d 80bd 603d c9bd f795 dbbb aaa0 e13d
000000f0: 2e7e dbbc c05b 96bd 23cc d63d de98 eebc
00000100: 506a fbbb 1846 68bd a77f d93d 4a47 d33e
00000110: 5739 213e f8d1 983b 7e34 103e 3ec3 83bd
00000120: ebdf f53d f140 5e3d 7459 bd3d ac30 91bc
00000130: 5df2 9fbc 1597 8cbc 7f84 75bc 3e98 7a3e
00000140: 372b 3e3e 03fc ce3e 2e46 2f3e 3c35 9d3e
00000150: 5a67 0b3e b454 9ebd 9266 033f 4a78 ffbd
00000160: b0e1 bdbc a41f 033e fd58 db3e 0f39 193d
00000170: f378 e53d 6aba a5bd f353 513e b786 68bd
00000180: faec 6bbd 1dc5 653c 81fd 703d bd54 cc3d
00000190: dc6e 22bc bdea 123a 98ee 4dbd 2a5b e2bd
000001a0: 63b5 1fbc 85c3 f63d 2adb 973d 4b85 043e
000001b0: 6da9 093e ea95 d2bd 68a7 a4bc d745 4c3c
000001c0: d3a8 0b3d 1a8e 3cbd c044 5dbc a8e6 813c
000001d0: 09e3 febc 764b e23d 28da b13c b1cc 2e3d
000001e0: ac63 1e3d 2854 c3bd 0617 87bd 799b 063e
000001f0: 6803 a83c 60ac b6bb a6f2 ef3b 2010 8dbb
00000200: b4c5 4abd 7331 a1bc 10d5 873d 60b9 0a3f
00000210: 6976 c13e f57d 033e 9630 54bd cef3 bf3c
00000220: d250 343e 0928 51bd 0151 c3bd 839e cebd
00000230: 303f 7b3d 8f5e 1b3d 5375 873c 6b31 8f3e
00000240: 910d 313e 27ba 013f 6f77 a13e af99 8d3e
00000250: 474f c13d 8312 613c fa24 383f 7c37 69bd
00000260: d49d babd 38c4 b53e a0ec 303f d4b3 eabd
00000270: 2b29 7b3b a4f3 e23d 793c ce3d e72d 2fbe
00000280: 865f a5bc 83c1 ba3c c85f 0f3e 52b5 91bc
00000290: b091 f13c 033d 2ebd eadb 8d3d 70c4 b53d
000002a0: dfab 84bb 1e0a 493d d246 eebd 82c4 5abd
000002b0: 8862 f23d a737 793d accc 03bc 654e 283c
000002c0: bc9c a6bd 5b7a 46bd dcf9 963d e820 ea3c
000002d0: 6441 6c3d 9dcb afbc 6e62 913d 3128 bfbd
000002e0: 185e 9b3c 38cd 90bd 13cb 68bc 7d9b 18bb
000002f0: 5ef3 dbbd b01c 68bd 9fb1 d73d 3a6d ed3d
00000300: 1671 8b3d b68c abbd e84f f7bd d86a 933c
00000310: 7c0e ad3d 38e1 c5bc 907c 05bc 1c70 77bd
00000320: 0893 c8bc 6672 bebd 7e35 99bd 005a a539
00000330: cec1 bc3d 78b3 f9bc b890 89bd e582 8ebd
00000340: 40b9 c3bd 5ed3 fabd e035 433d 3530 213d
00000350: a2c9 c73d d462 423d 4440 2dbd d208 4e3d
00000360: c4cd ddbd 5b7d 613c 0ac1 913d f027 65bd
00000370: 6fb3 c9bd 7421 5b3d e898 27bd 6b16 eb3d
00000380: c087 993c 60fe 2abd 2007 4d3d f8cb 413d
00000390: 18c3 f7bc d05d acbc 4efd d53d 624a 843d
000003a0: 5c82 d9bd ae44 f2bd 080b e4bd 7237 a63d
000003b0: f8c6 223d 08fe 663d f0cd 333c 4472 99bd
000003c0: 1c18 463d c462 173d c459 d1bd b0e2 2c3c
000003d0: d8a1 093d aac9 9abd 165c 933d 243a 4dbd
000003e0: b82d e23c e24d 983d 20d1 07bc 2001 99bb
000003f0: d00d a13d 0c3c ddbd 2c18 97bd acbc 373d

fca1.bias f4 [64]
-0.0047468105 0.07493006 0.049288426 0.08143109 -0.009285908 0.09471506 0.065865256 -0.050334506
0.04772015 0.10678102 -0.08285843 -0.0801573 -0.12268567 0.06520096 0.03279283 0.10806624
-0.05456834 -0.07729413 -0.02222303 0.055663045 0.0536818 0.03280487 0.13817513 0.09431507
-0.021479473 0.035954554 0.13076992 0.11367113 0.01435059 -0.07142858 -0.060707085 0.0334995
0.11006913 -0.029642655 -0.03641521 0.042726755 -0.09894074 -0.077247225 0.028508615 0.026178176
0.102274 -0.020128181 0.077583455 -0.10394283 0.03835461 -0.016776383 0.010581321 -0.09217083
0.07344733 -0.035446335 0.05659042 0.06125524 -0.06433731 0.02648151 0.05360974 0.12229807
-0.06550245 0.00694292 0.043235824 0.06855516 0.06955441 0.01763306 0.014690643 0.025400078
00000000: 228b 9bbb ee74 993d a9e2 493d 58c5 a63d
00000010: ec23 18bc f8f9 c13d 5de4 863d 8e2b 4ebd
00000020: 3476 433d 02b0 da3d aeb1 a9bd 8329 a4bd
00000030: a042 fbbd 1588 853d c651 063d d551 dd3d
00000040: 0d83 5fbd 634c 9ebd 120d b6bc effe 633d
00000050: 72e1 5b3d 665e 063d c87d 0d3e 4228 c13d
00000060: b8f5 afbc 1545 133d 8de8 053e 69cc e83d
00000070: bd1e 6b3c 2649 92bd fea7 78bd c636 093d
00000080: ed6b e13d 27d5 f2bc 1e28 15bd 4002 2f3d
00000090: 71a1 cabd cb33 9ebd e68a e93c 9d73 d63c
000000a0: 0875 d13d dbe3 a4bc 13e4 9e3d fadf d4bd
000000b0: b919 1d3d a06e 89bc 475d 2d3c 0fc4 bcbd
000000c0: 8e6b 963d 2d30 11bd 5bcb 673d c6e6 7a3d
000000d0: 48c3 83bd c0ef d83c e395 5b3d 6977 fa3d
000000e0: 2626 86bd 6f81 e33b 0c18 313d a666 8c3d
000000f0: 8b72 8e3d 3573 903c 06b1 703c d313 d03c

fca2.weight f4 [1, 64]
-0.13445367 -0.08919495 -0.23683813 0.0029853443 -0.45577642 -0.43191633 -0.2236882 -0.12486054
-0.2039865 -0.4308395 -0.0021915662 -0.1479346 -0.26513663 -0.19969755 -0.12809694 -0.00408578
-0.3685929 -0.21422371 -0.30932397 0.00595549 -0.26636514 -0.22617687 -0.25531048 -0.22901295
-0.0006639328 -0.18641143 -0.17003597 -0.24445066 -0.6414442 0.019858738 -0.3830931 -0.26299256
-0.1675721 -0.34438336 -0.13921808 -0.25189754 -0.16576408 -0.22084878 -0.2001198 -0.20143086
-0.1357931 -0.10409681 -0.65593785 -0.21765313 -0.14511088 -0.37602478 -0.11160901 -0.004602623
-0.12175941 -0.40502757 -0.34898862 -0.14840221 0.002005423 -0.14365987 -0.108194135 -0.35698292
-0.23272851 -0.19608057 -0.33694834 -0.11706702 -0.10829089 -0.24728233 -0.35391137 -0.102135345
00000000: 39ae 09be d8ab b6bd b285 72be c4a5 433b
00000010: 875b e9be 2324 ddbe 850e 65be e2b6 ffbd
00000020: d6e1 50be ff96 dcbe 61a0 0fbb 2b7c 17be
00000030: fdbf 87be 847d 4cbe d82b 03be 02e2 85bb
00000040: 35b8 bcbe 765d 5bbe b65f 9ebe 4526 c33b
00000050: 0361 88be e99a 67be 0eb8 82be 5f82 6abe
00000060: c70b 2eba a3e2 3ebe e91d 2ebe 4651 7abe
00000070: b035 24bf cbae a23c c724 c4be f6a6 86be
00000080: 0598 2bbe 0453 b0be 2f8f 0ebe b7f8 80be
00000090: 0fbe 29be 2f26 62be 34ec 4cbe e443 4ebe
000000a0: 590d 0bbe b530 d5bd 8beb 27bf 76e0 5ebe
000000b0: f297 14be 5286 c0be 4493 e4bd 9ad1 96bb
000000c0: ff5c f9bd c65f cfbe a3ae b2be c0f6 17be
000000d0: 6a6d 033b 931b 13be e394 ddbd 77c6 b6be
000000e0: 6250 6ebe 58c9 48be 7e84 acbe d5c0 efbd
000000f0: 9dc7 ddbd 9437 7dbe df33 b5be 562c d1bd
