src/Models/training/3250_actor.pt (torch_old, 25545 bytes, 6 tensors)

fa1.weight f4 [64, 28]
0	0x3e6da1c7	0.23206244
1	0x3e5797ce	0.21054003
2	0x3eea9559	0.45817068
3	0x3c587cd8	0.013213359
4	0x3ef4c931	0.47809747
5	0x3f84a783	1.036362
6	0x3f310024	0.6914084
7	0x3d726514	0.059178427
8	0xbeacaced	-0.33725682
9	0xbe650de0	-0.22368574
10	0xbdc8908e	-0.097931966
11	0xbedb0396	-0.42776173
12	0xbf1e4560	-0.6182461
13	0xbe0b2c75	-0.13591178
14	0xbf438277	-0.7637095
15	0xbec1514b	-0.37757334
16	0xbdb0d37d	-0.08634088
17	0xbe0f895c	-0.14017242
18	0x3ce72335	0.02821503
19	0xbc26bb59	-0.010176503
20	0x3d0ef8c3	0.034905206
21	0x3eddce27	0.43321344
22	0x3f163acf	0.58683485
23	0x3e3e49aa	0.18582788
24	0xc096151a	-4.690076
25	0xbd55474a	-0.05206994
26	0x3ff835b5	1.939139
27	0x3e4c2906	0.19937524
28	0xbe093f38	-0.13403022
29	0x3d795acf	0.060877617
30	0xbdb3d1cc	-0.0878025
31	0xbdd217e6	-0.102584645
32	0x3d9485fa	0.072521165
33	0xbe119027	-0.14215146
34	0x3d70003f	0.058593985
35	0xbe0c11e3	-0.13678698
36	0x3cb05ef9	0.021529661
37	0xbd90a1df	-0.070621245
38	0x3d747cb3	0.059689235
39	0xbd81e462	-0.06342389
40	0xbdcab928	-0.09898597
41	0xbe28c5a3	-0.16481642
42	0xbdbcf994	-0.09227291
43	0xbd471f45	-0.048613805
44	0x3d7762e5	0.060397048
45	0x3d738e6a	0.05946199
46	0x3d8737af	0.06602418
47	0xbd756afc	-0.05991648
48	0x3da1fb55	0.07909266
49	0xbe251450	-0.1612103
50	0xbdedb64d	-0.11607037
51	0x3d01f01a	0.03172312
52	0xbda7fe6a	-0.082028225
53	0x3d864196	0.06555478
54	0xbe19779e	-0.14987037
55	0xbe228bde	-0.15873668
56	0x3d09ef01	0.033675198
57	0xbe015baa	-0.12632623
58	0x3cffac04	0.031209953
59	0xbe038a43	-0.12845711
60	0xbd9b2d1f	-0.075769655
61	0x3caba7ed	0.020954097
62	0x3d40e967	0.04709759
63	0xbe260681	-0.16213419
64	0x3b5148dd	0.00319343
65	0x3dacdc86	0.08440499
66	0xbdd874d3	-0.105691575
67	0xbdc22da0	-0.094813585
68	0xbdfcf0ca	-0.12350614
69	0xbda798da	-0.08183451
70	0xbdecfacc	-0.11571273
71	0xbc6a149a	-0.014287138
72	0x3d94eb8a	0.07271488
73	0xbdf40b6a	-0.119162396
74	0x3daec4d0	0.08533633
75	0xbdc43cfa	-0.09581943
76	0xbcd6b782	-0.02621055
77	0xbbd7f003	-0.006589891
78	0x3ccbf979	0.024899231
79	0xbdd58ea1	-0.10427595
80	0xbc868fb6	-0.016425949
81	0x3ca195c5	0.019724736
82	0xbaa73f02	-0.0012759867
83	0xbdae1cd7	-0.085015945
84	0xbe0ab63a	-0.13546076
85	0xbe56abca	-0.2096397
86	0xbe46c184	-0.19409758
87	0xbe307a51	-0.1723416
88	0xbe379a8f	-0.17930053
89	0xbe27893a	-0.16360942
90	0xbda46487	-0.080269866
91	0xbd796e57	-0.060896244
92	0xbbac5b9e	-0.005259945
93	0xbc7fb3d4	-0.015606839
94	0xbd3f011e	-0.046631925
95	0xbe2d45ff	-0.16921233
96	0xbe7f5614	-0.2493518
97	0xbe7ee4cc	-0.24891967
98	0xbe8b3722	-0.271905
99	0xbe88ba68	-0.26704717
100	0xbe807919	-0.2509239
101	0xbe52bbf6	-0.20579514
102	0xbe665b77	-0.22495829
103	0xbe3573c6	-0.17719945
104	0xbef3ec2a	-0.47641116
105	0xbeaa09dc	-0.33210647
106	0xbe3521bd	-0.17688651
107	0xbe0255aa	-0.12727991
108	0xbef8ce2e	-0.48594803
109	0x3d8bfe5b	0.06835624
110	0xbf89e349	-1.0772487
111	0xbdfbd3a1	-0.122962244
112	0x3d7134d8	0.058888286
113	0xbdb9f1f2	-0.090793505
114	0xbd417a44	-0.047235742
115	0xbc6e1680	-0.014531732
116	0x3df39a22	0.11894633
117	0x3ccf3d88	0.025297895
118	0xbdb9081e	-0.09034751
119	0x3d3c76b8	0.046011657
120	0xbdf35086	-0.11880593
121	0xbde2487b	-0.11048981
122	0xbde939d9	-0.11387987
123	0xbd10b440	-0.03532815
124	0xbda85843	-0.082199596
125	0xbde7fa2a	-0.11327012
126	0xbd6444d4	-0.055729702
127	0x3dc249ce	0.094867334
128	0xbd461f68	-0.048369795
129	0xbd70d530	-0.05879706
130	0x3b4e49c0	0.0031477064
131	0x3df98ada	0.12184687
132	0xbd045810	-0.032310545
133	0xbd43a88a	-0.047768153
134	0x3c9328c0	0.017963767
135	0xbdeea0c4	-0.11651757
136	0x3cf6bf30	0.030120462
137	0xbd4cb148	-0.049973756
138	0x3d52a5a0	0.051427484
139	0xbcad4dcf	-0.021155266
140	0x3c3ea35d	0.0116356285
141	0x3d2310ae	0.03981083
142	0x3da28026	0.079345986
143	0xbdd72cb2	-0.10506572
144	0xbe105b8e	-0.14097425
145	0x3ac71f45	0.0015191814
146	0x3d23acef	0.039959844
147	0x3d7f9c64	0.062405005
148	0x3b452373	0.0030080944
149	0x3c3a1b32	0.011359023
150	0xbdc2e921	-0.09517122
151	0x3d380020	0.044921994
152	0x3d264cd1	0.0406006
153	0xbe16c04c	-0.14721793
154	0xbdafe1f9	-0.08588023
155	0x3d8e38ac	0.06944403
156	0x3b9dadc2	0.0048119733
157	0xbd7ffa24	-0.062494412
158	0xbe163f63	-0.14672618
159	0x3d8612b6	0.065465376
160	0xbdf4a7ab	-0.119460426
161	0xbe112e7f	-0.14177893
162	0x3a36a477	0.0006967256
163	0x3d35d56e	0.044392996
164	0x3d8f6d46	0.07003264
165	0x3c2dea0f	0.010614886
166	0xbbf7301d	-0.0075435773
167	0xbd879187	-0.06619554
168	0xbe0d5dec	-0.1380536
169	0xbe117c9f	-0.14207695
170	0xbe1ccb31	-0.15311886
171	0xbd8c350b	-0.06846055
172	0xbdbe071d	-0.092787005
173	0xbe19e8e6	-0.1503025
174	0xbd544680	-0.051825047
175	0x3c3b20ea	0.011421422
176	0xbcc1c040	-0.023651242
177	0x3c93ab39	0.018025981
178	0xbe0683fe	-0.13136289
179	0x3d8416e4	0.064496785
180	0x3b6048c2	0.0034223055
181	0xbdff522c	-0.12466845
182	0xbe091c10	-0.13389611
183	0x3c865136	0.016396146
184	0x3aab7525	0.0013081176
185	0xbdacbd46	-0.084345385
186	0xbdcd12ba	-0.100133374
187	0xbd3888d8	-0.04505238
188	0xbdc84c0e	-0.09780131
189	0x3cb39f04	0.02192641
190	0xbe234376	-0.15943703
191	0xbd8eb1c5	-0.069675006
192	0x3bc2e921	0.0059482013
193	0x3d944f4a	0.07241686
194	0x3dfdbbeb	0.12389358
195	0xbcdc58ee	-0.026897874
196	0xbe0dfa2c	-0.13864964
197	0xbdcf7fd4	-0.10131803
198	0x3d93e1e9	0.07220823
199	0xbdef48a6	-0.116837785
200	0xbdf79995	-0.1208984
201	0x3c248f7f	0.010043978
202	0xbc40781f	-0.011747389
203	0x3daa502c	0.08316073
204	0x3d4dd60a	0.05025295
205	0xbda9c38c	-0.08289251
206	0xbe0e63a5	-0.13905199
207	0xbdbfe796	-0.093703434
208	0xbc1eb762	-0.009687277
209	0xbc4a112f	-0.012333198
210	0x3d9e78e2	0.077379
211	0xbd811171	-0.06302155
212	0xbdd3bdc7	-0.103389315
213	0xbddfa0c9	-0.10919339
214	0xbd8831af	-0.066501014
215	0x3c5aa755	0.013345559
216	0x3da44547	0.08021026
217	0x3d0df644	0.034658685
218	0xbe0f2add	-0.13981195
219	0xbdca5f4f	-0.0988146
220	0xbde0d17a	-0.109774545
221	0xbd3f33e6	-0.046680354
222	0xbd3bd0b3	-0.045853328
223	0xbd4ad480	-0.049519062
224	0xbda5df70	-0.08099258
225	0xbdb14d42	-0.08657314
226	0xbdf167a0	-0.11787343
227	0x3d33c614	0.043890074
228	0xbc7328da	-0.014841283
229	0x3ba162fd	0.0049251304
230	0xbe1d1d39	-0.15343179
231	0xbdd0fea5	-0.102048196
232	0xbdc29719	-0.09501476
233	0xbc9852a5	-0.018594095
234	0xbc449ea2	-0.012000712
235	0xbb6457d5	-0.003484239
236	0xbe186dfd	-0.14885707
237	0xbc8c062b	-0.017092785
238	0x3c89bc39	0.016813384
239	0xbdce37b2	-0.10069217
240	0xbe19585e	-0.14975116
241	0x3c66d48f	0.014088764
242	0xbd258598	-0.040410608
243	0xbd66019f	-0.05615389
244	0x3c53256f	0.012887343
245	0xbdf4809b	-0.11938592
246	0xbba9f26c	-0.0051863696
247	0x3c7e8323	0.015534195
248	0x3dab9465	0.083779134
249	0x3c8fee2e	0.017569628
250	0xbd1f20db	-0.038849693
251	0x3ada2a55	0.0016644696
252	0xbd9f28ab	-0.07771429
253	0x3cf05247	0.029336108
254	0xbe2c4046	-0.16821393
255	0x3d89b081	0.067231186

fa1.bias f4 [64]
0	0x3e128993	0.14310293
1	0xbd5ed1c1	-0.054399256
2	0x3b87c837	0.0041437405
3	0xbdbcbb14	-0.0921537
4	0x3d5ff744	0.05467917
5	0xbe561b41	-0.20908834
6	0x3dc830b5	0.09774915
7	0xbcf42aab	-0.029805502
8	0xbde94591	-0.11390222
9	0xbe4c1ca1	-0.19932796
10	0x3c94a152	0.01814333
11	0x3cc23958	0.023708984
12	0xbe46a875	-0.19400199
13	0xbe04229c	-0.12903827
14	0x3e988488	0.29788613
15	0xbe1dbd62	-0.15404275
16	0x3d325eb3	0.043547343
17	0x3db88031	0.090088256
18	0x3d6044da	0.054753162
19	0x3f0967d8	0.5367408
20	0x3f079fee	0.5297841
21	0x3d9f24c3	0.077706836
22	0xbc438949	-0.011934587
23	0xbde307e4	-0.110854894
24	0xbe4e8aba	-0.20170107
25	0xbe1c2720	-0.152493
26	0x3eda10bc	0.42590892
27	0x3d0f03cd	0.034915734
28	0x3dbbfbab	0.09178861
29	0x3d272f62	0.040816672
30	0xbe541f6f	-0.20715116
31	0xbd3e841d	-0.04651271
32	0xbe4c6ea9	-0.19964088
33	0x3e02ee58	0.12786233
34	0xbb71a238	-0.0036870372
35	0xbd036333	-0.032077026
36	0xbd9485fa	-0.072521165
37	0x3e0df644	0.13863474
38	0xbe15ec5b	-0.14640944
39	0xbd4f86d4	-0.05066569
40	0x3d930341	0.07178355
41	0xbe88126f	-0.26576564
42	0xbe339f04	-0.17541128
43	0xbdfb9139	-0.122835584
44	0xbdf474e3	-0.11936357
45	0x3cdd146f	0.026987283
46	0xbf25e265	-0.64798576
47	0xbdf24261	-0.11829067
48	0xbd8a3551	-0.067484505
49	0xbc439cd2	-0.011939244
50	0xbe1cea71	-0.15323807
51	0x3d56f21a	0.05247698
52	0x3f6e0f10	0.92991734
53	0xbe389c60	-0.18028402
54	0xbdaf2e48	-0.08553749
55	0xbdb2723b	-0.08713194
56	0x3d30a162	0.043122657
57	0x3c740b6a	0.014895299
58	0xbe049f9c	-0.12951511
59	0x3d111edf	0.03542983
60	0xbc02da7b	-0.00798666
61	0xbe00b799	-0.12570037
62	0xbd7c0a51	-0.061533276
63	0x3d58edec	0.052961275

fa2.weight f4 [64, 64]
0	0x3f7227c0	0.94591904
1	0xbd89ef01	-0.067350395
2	0x3e09c409	0.13453688
3	0xbf8a9ae1	-1.0828515
4	0x3dc4c798	0.09608382
5	0x3decb864	0.11558607
6	0x3dee528e	0.1163684
7	0x3d8e9285	0.0696154
8	0xbddeed19	-0.108850665
9	0x3e49078e	0.19631788
10	0x3c92dc30	0.01792726
11	0xbc32b4a3	-0.010907325
12	0xbe1067c9	-0.14102091
13	0x3e124f90	0.14288163
14	0xc034419a	-2.816504
15	0x3d62504b	0.055252355
16	0x3c8ab252	0.016930733
17	0xbfa4c925	-1.2873884
18	0x3da79cc2	0.08184196
19	0xbf5aa345	-0.8540538
20	0x3f9e387a	1.2360985
21	0xbf9bc190	-1.2168446
22	0x3c29cf44	0.010364357
23	0xbc533127	-0.012890137
24	0x3e1a7a3e	0.15085694
25	0xbd1408f9	-0.03614137
26	0x3e8beb5f	0.2732801
27	0xbd4974ee	-0.04918378
28	0x3e5a3225	0.21308191
29	0xbf0f712e	-0.56032073
30	0x3e321c4b	0.17393605
31	0xbdecc034	-0.11560097
32	0x3dda3ddd	0.10656331
33	0xbe27e8da	-0.1639742
34	0x403d8634	2.961316
35	0x3e186245	0.14881237
36	0x3e26ecf9	0.16301335
37	0xbd0a8b41	-0.03382421
38	0x3fe3e397	1.780383
39	0xbc19ef90	-0.009395495
40	0x3d032c83	0.03202487
41	0x3fa4aebf	1.2865828
42	0x3d7858fe	0.060631745
43	0xbd39c159	-0.045350406
44	0x3d929db0	0.07158983
45	0x3919e116	0.00014675068
46	0xbebf6a8d	-0.3738598
47	0x3dcc6ea9	0.09982044
48	0x3da66441	0.08124591
49	0x3c910f3f	0.017707465
50	0x3c4611bc	0.012089189
51	0x3da8f09b	0.08249017
52	0xbf01760d	-0.50570756
53	0xbcfc21c1	-0.030777814
54	0xbc08ba68	-0.008345224
55	0xbeb3740c	-0.35049474
56	0x3daea1a8	0.08526927
57	0xbcad847f	-0.021181343
58	0x3dc5b013	0.09652724
59	0xbd64156d	-0.055684496
60	0x3e5659c1	0.20932676
61	0x3dc0687f	0.09394931
62	0x3d179724	0.037009373
63	0x3e4cd821	0.20004322
64	0xbf0327f9	-0.5123287
65	0x3dba6182	0.091006294
66	0x3daacd2d	0.083399154
67	0xbf9b2937	-1.2121953
68	0xbdc202a8	-0.09473163
69	0x3c350665	0.011048888
70	0x3dac3876	0.084092066
71	0x3d94dbea	0.07268508
72	0x3d3af20a	0.045640983
73	0x3e30fb3a	0.17283335
74	0x3debd5d3	0.11515393
75	0x3d5c7447	0.05382183
76	0x3da5445c	0.08069679
77	0xbd9a5647	-0.07535987
78	0x3fc5578b	1.5417341
79	0x3e0d4e4c	0.13799399
80	0xbd24609f	-0.040131208
81	0x3fb967fe	1.4484861
82	0x3c947a42	0.018124703
83	0x3f42d476	0.7610544
84	0x40114124	2.2696009
85	0xbf7a7028	-0.97827387
86	0x3ca2babe	0.019864436
87	0xbdb5dd3e	-0.08880089
88	0xbccc7899	-0.02495985
89	0x3daa09dc	0.08302662
90	0xbfb8c43e	-1.4434888
91	0x3ca723aa	0.020402748
92	0x3d25cfd0	0.04048139
93	0xbf7069b7	-0.9391131
94	0x3e23b0d7	0.15985428
95	0xbc5822cb	-0.013191889
96	0xbd0c64d2	-0.034275837
97	0xbe4b7d88	-0.19872105
98	0xbdc6b1e4	-0.09701899
99	0xbd93a369	-0.072089024
100	0x3e24686f	0.16055463
101	0x3c5e1640	0.0135551095
102	0x3f10d9ed	0.5658253
103	0x3c52dbb0	0.01286976
104	0xbd7e7b53	-0.06212933
105	0x3f4f9744	0.8109019
106	0x3d7f13ac	0.06227462
107	0x3d237256	0.03990396
108	0x3e303fb9	0.17211808
109	0x3e048444	0.1294108
110	0x3e8c288e	0.2737469
111	0xbd4cc499	-0.049992178
112	0xbc7a5ca0	-0.015280873
113	0xbd8f889e	-0.070084795
114	0xbddbc47e	-0.10730837
115	0x3e389c60	0.18028402
116	0xbe9be886	-0.3045084
117	0xbd80b705	-0.06284908
118	0x3d1fd873	0.03902478
119	0xbe54daf0	-0.20786643
120	0x3dc2e921	0.09517122
121	0xbd116917	-0.035500612
122	0x3e04788c	0.1293661
123	0xbd48a9ce	-0.048990063
124	0x3e5340c7	0.2063018
125	0x3c458903	0.012056592
126	0xbdbcda54	-0.0922133
127	0x3e315512	0.17317608
128	0xbe9759a3	-0.29560575
129	0xbcc1e750	-0.023669869
130	0x3d9e2eaa	0.07723744
131	0xbfa523f0	-1.2901592
132	0x3da9bfa4	0.08288506
133	0x3e416280	0.18885231
134	0x3c936101	0.017990591
135	0x3e10c507	0.1413766
136	0xbe089f10	-0.13341928
137	0x3df3ec2a	0.11910279
138	0x3e07e38f	0.132704
139	0xbb52e6ee	-0.0032181102
140	0xbdcb025c	-0.099125594
141	0x3d708cdf	0.058728095
142	0xbf16b53d	-0.588703
143	0x3d4b74a8	0.0496718
144	0x3e28351a	0.16426507
145	0xbd0b114c	-0.033952042
146	0xbba0e9e4	-0.0049106944
147	0x3ccac8ea	0.024754006
148	0xbf0ff6b5	-0.5623582
149	0xbf6a919a	-0.9162842
150	0xbd8a0e41	-0.06741
151	0xbc2b0bad	-0.010439795
152	0x3ea7b167	0.32752535
153	0x3d5a12e4	0.05324067
154	0x3e701c2f	0.23448251
155	0xbd460dd4	-0.04835303
156	0x3e2e5388	0.17024052
157	0xbf806979	-1.0032188
158	0x3d95f52b	0.07322153
159	0xbd981fdd	-0.074279524
160	0xbd26be19	-0.040708635
161	0x3e81988d	0.253117
162	0x3e862e0e	0.26207012
163	0x3dc6d8f4	0.09709349
164	0x3dba750a	0.09104355
165	0xbc26b649	-0.010175296
166	0x3f90b43d	1.1305004
167	0xbdfa2272	-0.12213601
168	0xbc301c91	-0.010748998
169	0x3f05dfed	0.5229481
170	0x3d21a17d	0.039460648
171	0xbd7693dd	-0.060199607
172	0x3c21a17d	0.009865162
173	0x3df1b1d8	0.11801499
174	0x3e707e1a	0.23485604
175	0x3e286013	0.164429
176	0x3d942451	0.07233489
177	0xbcd0d795	-0.025493423
178	0x3dde9340	0.108679295
179	0x3e31418a	0.17310157
180	0xbee74d93	-0.45176372
181	0xbca14b8d	-0.019689346
182	0xbccff11c	-0.025383525
183	0xbe1e2eaa	-0.15447488
184	0x3e1b09f7	0.1514052
185	0x3b217e55	0.002464195
186	0xbdce9d43	-0.10088589
187	0xbc3b1d02	-0.01142049
188	0x3d4788bd	0.04871439
189	0xbceefe6e	-0.029174056
190	0x3d7ae940	0.0612576
191	0x3e06c27e	0.1316013
192	0xbe9ac1d6	-0.3022601
193	0xbddd7de7	-0.108150296
194	0x3d5b0ce5	0.053479094
195	0xbdc92ab6	-0.098225996
196	0xb849d000	-4.811585e-05
197	0xbd56e27a	-0.05246208
198	0x3c6bdda4	0.014396105
199	0x3d954d32	0.072901145
200	0xbdbb0c9c	-0.091332644
201	0x3d80ea61	0.06294704
202	0xbd8d0be4	-0.068870336
203	0xbd685f19	-0.056731317
204	0x3e1ca99c	0.15299076
205	0xbd331a34	-0.04372616
206	0xbe3400fc	-0.175785
207	0x3db5b62e	0.08872639
208	0x3d7088f7	0.05872437
209	0xbd4be703	-0.049780857
210	0x3e02e24b	0.12781636
211	0xbda2b5a1	-0.07944799
212	0xbd89873b	-0.06715246
213	0xbdfda863	-0.12385633
214	0xbe143faa	-0.14477411
215	0xbd54fe18	-0.052000135
216	0xbd69d054	-0.057083443
217	0x3da15745	0.078779735
218	0xbe8fbae0	-0.28072262
219	0xbd9d3c79	-0.0767755
220	0x3d23a137	0.03994867
221	0xbe34375d	-0.17599244
222	0x3dbacee2	0.09121491
223	0x3d29f654	0.041494682
224	0x3dc95996	0.0983154
225	0xbd95a726	-0.07307272
226	0xbdf3f703	-0.11912348
227	0x3d2c8e66	0.04212799
228	0x3d8101d1	0.062991746
229	0xbcdc705e	-0.02690905
230	0xbd139f81	-0.036040787
231	0x3d2b5274	0.04182668
232	0xbd8a6fe9	-0.067596264
233	0xbe1b2167	-0.1514946
234	0x3debaec3	0.115079425
235	0x3d304b71	0.043040697
236	0x3e0dbbac	0.13841122
237	0x3d036333	0.032077026
238	0xbca72aca	-0.020406146
239	0x3d0e09cc	0.03467731
240	0xbd9d53e9	-0.0768202
241	0xbc997f6e	-0.018737521
242	0x3d7a9738	0.06117937
243	0xbad5c551	-0.0016309415
244	0xbd345ebc	-0.04403566
245	0xbd94ff12	-0.07275213
246	0xbd159383	-0.03651763
247	0xbdc4834a	-0.09595354
248	0xbc48349d	-0.012219575
249	0x3e013c6a	0.12620702
250	0xbd6adbd3	-0.057338547
251	0x3dd8edec	0.10592255
252	0x3de3e2a5	0.111272134
253	0xbc4e56f3	-0.0125939725
254	0x3c32acd3	0.010905462
255	0xbd319f4a	-0.0433648

fa2.bias f4 [64]
0	0xbfe35e4d	-1.7763153
1	0xbf77bfdd	-0.96777135
2	0x3e4e425c	0.20142502
3	0xbbe56d38	-0.0070015453
4	0xbf864bda	-1.0491898
5	0xbee76001	-0.45190433
6	0xbd2b1639	-0.04176924
7	0xbf2a9e4c	-0.6664779
8	0x3f214ddb	0.63009423
9	0x3e4aa31e	0.19788787
10	0xbfc3a0ba	-1.5283425
11	0xc02eb612	-2.7298627
12	0xbeab2992	-0.33430153
13	0xbef66114	-0.4812094
14	0xbe4277d9	-0.18991031
15	0xbfa8cb7b	-1.3187097
16	0xbdb9ec51	-0.09078277
17	0xbf2be66e	-0.6714848
18	0x3e4ed92e	0.20200035
19	0xbe72e31a	-0.23719445
20	0xbfadebba	-1.3587563
21	0xbf9445df	-1.1583823
22	0x400f9597	2.2435052
23	0x3ce93285	0.028466472
24	0xbeec3cba	-0.4614008
25	0xbfb613ee	-1.4224832
26	0xbfddfdba	-1.7343056
27	0xbdb91352	-0.09036888
28	0x3f492409	0.7857061
29	0xbf29fe24	-0.6640341
30	0xbfcc3fc9	-1.5956966
31	0xbed7ee75	-0.42174116
32	0x3cae9f43	0.021316176
33	0xbfd7c8f3	-1.68582
34	0x3fb8a6db	1.442592
35	0xbcf84fd6	-0.030311506
36	0xbfb9e8df	-1.4524192
37	0xbc67fb41	-0.014159025
38	0xbf9f47eb	-1.2443823
39	0xbf4a0d47	-0.7892651
40	0xbe89c7f1	-0.26910356
41	0x3e035827	0.12826596
42	0xbd090c70	-0.033459127
43	0xbfa80068	-1.3125124
44	0xbfae55e4	-1.3619962
45	0xbf2450ff	-0.6418609
46	0x3f95886a	1.1682255
47	0xbf02848b	-0.50983495
48	0xbdffea84	-0.12495902
49	0xbf3e2a45	-0.7428325
50	0xbf9191b1	-1.1372586
51	0xbfe78c4f	-1.8089694
52	0xbf00df72	-0.5034095
53	0x3eecded3	0.4626375
54	0xbdcf4153	-0.101198815
55	0xbfca12a9	-1.5786945
56	0x3e960887	0.2930338
57	0x3fe9196e	1.8210886
58	0xbf62bdac	-0.88570666
59	0xbf053d32	-0.520465
60	0xbfae8650	-1.3634739
61	0xbfa8e4e3	-1.3194851
62	0x3f0758a4	0.5286963
63	0xbea7c3d2	-0.32766587

fa3.weight f4 [2, 64]
0	0xc0575088	-3.3642902
1	0xc0874ca9	-4.228108
2	0x409994a3	4.799394
3	0x3d792605	0.060827274
4	0x403616c6	2.84514
5	0xc004d2ba	-2.0753617
6	0x405c7cb5	3.4451115
7	0xc037aa2f	-2.8697622
8	0x3f5df332	0.8669921
9	0x3f265d4d	0.64986116
10	0x408a7ba1	4.3275914
11	0xbff95c3f	-1.9481276
12	0xc061bf55	-3.527303
13	0xbf8caa3b	-1.098945
14	0x401c1398	2.438696
15	0x3f50cbdd	0.8156107
16	0xbdbb28ba	-0.09138627
17	0xbf86ab0e	-1.0520952
18	0xc06d9571	-3.7122462
19	0x4095fa26	4.6867857
20	0x40b96398	5.7934074
21	0xc091b944	-4.5538654
22	0xc01e46cc	-2.473071
23	0x405e8a15	3.4771779
24	0x3f72d832	0.9486114
25	0xbe69f172	-0.2284601
26	0xc029a98e	-2.6509738
27	0x3f4c3f72	0.7978431
28	0x40b52eec	5.661978
29	0x40920d28	4.564106
30	0xc05cf147	-3.4522264
31	0x4096d1c4	4.713106
32	0x40bb3734	5.8504887
33	0xc0271bd9	-2.6110747
34	0x4073c084	3.8086252
35	0x3cc26100	0.023727894
36	0xc0aca9be	-5.3957205
37	0xc089aec6	-4.3025846
38	0xbba8e8cb	-0.005154704
39	0xbf5b3bc5	-0.85638076
40	0xbe2efb80	-0.17088127
41	0xc07be159	-3.9356291
42	0xbdc28391	-0.094977506
43	0x40827dc9	4.0778546
44	0x3db3a8ae	0.087724075
45	0xbf5340c7	-0.8252072
46	0x3f840c68	1.0316286
47	0xbea2babe	-0.31783098
48	0xbcd0ac9d	-0.025472933
49	0x40c3b82a	6.116231
50	0xc092f0b9	-4.591885
51	0xc0275c5b	-2.615012
52	0x4085e621	4.184342
53	0x409289f6	4.579341
54	0x3c1b7758	0.009488903
55	0x3fa7601b	1.3076204
56	0xbf49c33a	-0.7881352
57	0x40871f11	4.2225423
58	0xc07eec9c	-3.9831915
59	0xc00acc41	-2.1687167
60	0xbe9b060f	-0.3027806
61	0xc008c620	-2.1370926
62	0x3fe39208	1.777894
63	0x40c35e51	6.105263
64	0x3e9c61d0	0.30543375
65	0x3f54aa7f	0.83072656
66	0x3e0587d7	0.130401
67	0x3d173d4c	0.03692369
68	0x3fb3236d	1.3995186
69	0xbf31e3b1	-0.69488055
70	0xbf34267d	-0.7037123
71	0xbfd54c38	-1.6663885
72	0xbf521bec	-0.82073855
73	0x400a7de0	2.1639328
74	0xc01ea3da	-2.4787507
75	0xbf7ed002	-0.99536145
76	0x3f8f0534	1.1173463
77	0xbf888f6f	-1.0668772
78	0xbcb34144	-0.021881707
79	0x3fe9062e	1.8205011
80	0xbb0b5662	-0.0021261205
81	0x40765d2c	3.8494368
82	0x3f18b950	0.59657764
83	0xbf92fa46	-1.1482627
84	0x40142a6e	2.3150897
85	0xc093470c	-4.6024227
86	0x3eb44ff4	0.3521725
87	0xbf997566	-1.1988952
88	0xbf95ce7f	-1.1703643
89	0x401d53e8	2.4582462
90	0xc034a3df	-2.822502
91	0xbea6b9bb	-0.32563576
92	0x3f7b8bb6	0.98260057
93	0xbe2016f4	-0.15633756
94	0xc01c5218	-2.4425106
95	0x3d9be506	0.07612042
96	0xbf926754	-1.1437783
97	0xc1089357	-8.535972
98	0x3fd12cfe	1.6341856
99	0xbae6d565	-0.0017611204
100	0xbfbfd130	-1.4985714
101	0xbe1e62b9	-0.15467347
102	0xbfd1028d	-1.6328903
103	0x405c7fff	3.4453123
104	0xbb9754bc	-0.0046182554
105	0x3f80d485	1.0064856
106	0xbca093f4	-0.0196018
107	0xbf75276d	-0.95763284
108	0xbec73452	-0.38907105
109	0x4018a895	2.3852894
110	0x3ed50ea4	0.41612732
111	0xbfc156c8	-1.5104609
112	0xb9310ec2	-0.00016885533
113	0xbf0fd2d6	-0.56181085
114	0xbf414868	-0.7550111
115	0xbf2d85ab	-0.67782086
116	0x3f2d9bef	0.6781606
117	0xbe2b5a83	-0.16733746
118	0xbbbf8206	-0.0058443574
119	0xbfd08d5c	-1.629314
120	0x402176b3	2.5228698
121	0x3f6b48f1	0.91908175
122	0x3ffdfa6b	1.9842046
123	0x402519c1	2.579697
124	0xc0227856	-2.5385947
125	0xc039b1b9	-2.9014723
126	0x40742e93	3.8153427
127	0xbcf29851	-0.029613646

fa3.bias f4 [2]
0	0x405603d8	3.3439846
1	0xbd051508	-0.03249076
