src/Models/training/350_critic.pt (torch_old, 22090 bytes, 7 tensors)

fc1.weight f4 [32, 28]
0	0xbdfa171b	-0.12211438
1	0xbd88967a	-0.06669326
2	0xbbfdf7d6	-0.0077504916
3	0xbdd5348a	-0.10410412
4	0xbe174bfa	-0.14775077
5	0xbd59e06b	-0.053192537
6	0x3d6afbfe	0.057369225
7	0x3e4545f7	0.1926497
8	0x3d9a89d9	0.075458236
9	0xbdd8f4cc	-0.10593566
10	0xbd96c5f4	-0.07361975
11	0x3e1a3587	0.15059482
12	0xbd89c402	-0.06726839
13	0xbd8654f8	-0.06559175
14	0x3df8b98e	0.12144767
15	0xbe310b3a	-0.17289439
16	0xbc9e1e43	-0.01930154
17	0x3e00f00e	0.12591574
18	0xbca6c57e	-0.020357843
19	0x3d6ff8b4	0.05858679
20	0x3b7e7fe0	0.0038833544
21	0xbe5c12b1	-0.21491505
22	0x3e113fea	0.14184538
23	0xbcd5ea4a	-0.026112694
24	0x3f224c7e	0.6339797
25	0x3f391f6a	0.7231356
26	0x3d1da2e8	0.038485438
27	0x3d9f3580	0.07773876
28	0x3e15bf92	0.1462386
29	0x3e862e5c	0.26207244
30	0x3d926e9a	0.07150002
31	0x3d816c9d	0.063195445
32	0xbdc24a1c	-0.094867915
33	0x3e1e5a25	0.15464075
34	0x3c0e30e8	0.008678652
35	0x3aaacbfb	0.0013030762
36	0x3d85345d	0.06504128
37	0x3e3d10d5	0.18463452
38	0x3e3b61f9	0.18299092
39	0x3d72f9f9	0.059320424
40	0x3df8dba0	0.12151265
41	0xbc4e39ea	-0.01258705
42	0x3dd97037	0.106171064
43	0xbe17f0a5	-0.14837892
44	0xbb8eb569	-0.004355122
45	0xbe20a4ba	-0.15687838
46	0xbaf9c84f	-0.0019056889
47	0x3d96cbdf	0.07363104
48	0x3bf6cecb	0.007531976
49	0x3decdc19	0.11565418
50	0x3c728f65	0.014804696
51	0x3c2aecd7	0.010432444
52	0x3f711e5f	0.9418697
53	0x3ee60667	0.4492676
54	0x3f2833d0	0.6570406
55	0x3cd52918	0.026020572
56	0xbd80ebb6	-0.06294958
57	0x3e3442ba	0.17603579
58	0x3ad4c620	0.0016233362
59	0x3dfe597e	0.12419413
60	0xbc98a950	-0.018635422
61	0x3e39d344	0.18146998
62	0x3dc0642e	0.09394108
63	0x3e377f1f	0.17919587
64	0xbdfad320	-0.122473
65	0x3d6262ab	0.05526988
66	0xbd2ee36c	-0.042697355
67	0x3d513e20	0.051084638
68	0x3dbeef6b	0.09323009
69	0x3d85ea86	0.065388724
70	0x3d7a5fbd	0.06112646
71	0x3dbbfa38	0.09178585
72	0x3e22329e	0.15839621
73	0x3de59446	0.112099215
74	0x3dd75aa6	0.10515337
75	0x3e516bf1	0.20451333
76	0xbd378a33	-0.04480953
77	0x3e401887	0.18759356
78	0x3e354ecb	0.17705838
79	0x3d8549f1	0.06508244
80	0x3f9f82b6	1.2461765
81	0x3eab02b9	0.33400515
82	0x3f14cf43	0.58128756
83	0x3e4995a6	0.19685993
84	0x3df356ec	0.118818134
85	0xbe950dec	-0.29112184
86	0xbe7e7145	-0.24847896
87	0xbe40b8a5	-0.18820436
88	0xbda6cd37	-0.081446104
89	0x3e11dfad	0.14245482
90	0xbe17a18d	-0.1480772
91	0xbda88bef	-0.08229815
92	0x3d8e17df	0.06938147
93	0x3dbd55cb	0.09244879
94	0xbd799cd3	-0.060940575
95	0x3d91d83a	0.0712132
96	0xba5b0804	-0.00083553814
97	0x3e320e02	0.17388156
98	0x3cccdb34	0.025006868
99	0x3de7e858	0.11323613
100	0x3de7fc9d	0.11327479
101	0x3df986d9	0.12183923
102	0x3e00e292	0.1258643
103	0x3d858586	0.06519608
104	0x3d47f680	0.048819065
105	0x3dd5b4f6	0.10434906
106	0x3e5625c5	0.20912845
107	0x3d5c0233	0.053713035
108	0xbf08da96	-0.53458536
109	0x3e1dff18	0.15429342
110	0x3d9fc04b	0.07800349
111	0xbe987de6	-0.29783553
112	0x3db5debf	0.08880376
113	0xbdc8c01c	-0.09802267
114	0x3c1b51da	0.009479964
115	0xbd07bf10	-0.033141196
116	0xbcd8caff	-0.026463984
117	0xbb154d75	-0.0022781764
118	0xbde8dc19	-0.11370105
119	0xbd5b642b	-0.053562324
120	0x3dbb51d8	0.0914647
121	0x3d1b4f6a	0.037917532
122	0x3d9dc2e2	0.077031866
123	0xbdb65929	-0.08903725
124	0xbe03fb7b	-0.12888901
125	0x3d06e99b	0.032937627
126	0xbb880873	-0.004151398
127	0x3d635b41	0.05550695
128	0xbd15eacb	-0.03660087
129	0x3da09382	0.07840635
130	0x3a3ac88a	0.00071252196
131	0xbe42b845	-0.19015606
132	0x3d530462	0.05151785
133	0xbe289da5	-0.16466387
134	0xbcd9f1a3	-0.02660448
135	0xbdf83ef8	-0.12121385
136	0xbd8070c9	-0.06271512
137	0x3f0f8202	0.5605775
138	0xbf9e6bdc	-1.2376666
139	0xbe5941ac	-0.21216458
140	0xbdfecdd9	-0.12441606
141	0xbb608640	-0.0034259707
142	0x3b806e60	0.0039194077
143	0x3d2af1d4	0.04173453
144	0xbe285eee	-0.16442463
145	0xbdbcfae6	-0.092275426
146	0xbe0a80f5	-0.13525756
147	0xbdc3073d	-0.09522865
148	0xbca71028	-0.020393446
149	0xbd05f0a0	-0.03270018
150	0x3dd121e6	0.10211544
151	0xbdc165bd	-0.09443233
152	0x3cb9ba18	0.022671744
153	0xbe328c8d	-0.17436428
154	0xbd78e987	-0.060769584
155	0x3d45b978	0.04827258
156	0x3cec24f0	0.028826207
157	0x3daedc40	0.08538103
158	0xbe104e1e	-0.140923
159	0xbde741f0	-0.112918735
160	0xbdcc0531	-0.09961928
161	0x3deb6d52	0.114954606
162	0xbd652ad0	-0.055949032
163	0xbd82ec74	-0.06392756
164	0xbc837f00	-0.01605177
165	0x3e32e661	0.17470695
166	0xbd910110	-0.07080281
167	0xbbe75960	-0.007060215
168	0xbc53c8f5	-0.01292633
169	0xbd4603f0	-0.0483436
170	0xbd1b2e2d	-0.037885834
171	0x3e2d7a63	0.16941218
172	0x3e2f3522	0.17110112
173	0xbdd073cd	-0.10178337
174	0xbd8ad67f	-0.06779193
175	0xbe01f6c7	-0.12691794
176	0x3e296b91	0.1654494
177	0xbc6458ac	-0.013937157
178	0x3d5cbe9a	0.05389271
179	0x3de3704c	0.11105403
180	0x3e2beec5	0.16790302
181	0xbe20ac99	-0.15690841
182	0xbe2521f6	-0.16126236
183	0x3e136e54	0.14397556
184	0xbe3b3da9	-0.1828524
185	0x3d67d6f2	0.056601472
186	0x3e047ec3	0.12938981
187	0xbe03f2da	-0.1288561
188	0xbed09ee9	-0.4074624
189	0xbdcf0734	-0.10108796
190	0xbe28ffd7	-0.16503845
191	0xbde1be4d	-0.11022625
192	0x3ee48aac	0.44637048
193	0x3f273a00	0.65322876
194	0xbe6c09da	-0.23050633
195	0x3eef8b39	0.46785906
196	0x3d57fe57	0.05273279
197	0x3b800b58	0.0039076023
198	0xbc9c07d2	-0.019046698
199	0x3d950337	0.07276004
200	0xbc40087b	-0.011720772
201	0xbd5c3875	-0.05376478
202	0xbdaef53c	-0.085428685
203	0xbd7c2f7b	-0.06156872
204	0xbd4e9e88	-0.050444156
205	0xbd83457c	-0.064097375
206	0x3cdec010	0.027191192
207	0x3dd7f9dc	0.10545704
208	0xbc0a5201	-0.008442403
209	0x3d9301c8	0.07178074
210	0x3d7f0c23	0.062267434
211	0x3d8a33e8	0.067481816
212	0x3cdac22c	0.026703916
213	0x3cec4493	0.028841292
214	0xbcf51b3f	-0.029920219
215	0xbdefa263	-0.11700895
216	0xbd0fb365	-0.035083193
217	0xbe1996a3	-0.1499887
218	0xbda99572	-0.082804576
219	0xbde24c9c	-0.11049768
220	0x3f015641	0.5052224
221	0x3ea96890	0.33087587
222	0x3f3bef79	0.7341228
223	0xbdaa23e4	-0.08307627
224	0xbdc1ed50	-0.09469092
225	0x3c59cda4	0.013293657
226	0xbdf397e3	-0.118942045
227	0x3e2a31d2	0.16620567
228	0x3e35ce06	0.17754373
229	0x3de596b9	0.11210389
230	0x3e48593d	0.19565292
231	0xbd844a5f	-0.06459498
232	0xbd160491	-0.03662545
233	0xbddb2f1e	-0.10702346
234	0xbd8ddce5	-0.06926898
235	0x3bb13a36	0.0054085506
236	0x3d4a1c50	0.049343407
237	0x3de60799	0.11231918
238	0x3d33b66a	0.043875135
239	0x3d8b765f	0.06809687
240	0xbd6c9fea	-0.057769693
241	0x3e06ef0d	0.13177128
242	0x3e07a959	0.13248195
243	0x3e2255ad	0.15852995
244	0xbcc02ef9	-0.023459898
245	0x3e420f77	0.18951212
246	0x3e0c4958	0.13699853
247	0x3e2f8692	0.17141178
248	0x3f98157d	1.1881558
249	0x3eb8d201	0.3609772
250	0x3f1c67e9	0.61096054
251	0x3e9d2580	0.30692673
252	0xba4c1cab	-0.0007786254
253	0xbdd23c45	-0.10265402
254	0xbe337b39	-0.17527474
255	0x3ce5f437	0.028070552

fc1.bias f4 [32]
0	0x3ea0a6cf	0.31377265
1	0x3e970581	0.29496387
2	0x3d933c25	0.07189206
3	0xbe0e95c3	-0.13924317
4	0x3dcfe6ec	0.10151467
5	0x3e0268c1	0.12735273
6	0x3ded53e1	0.11588264
7	0x3dc73fee	0.097289905
8	0x3e94dd08	0.29074883
9	0xbc972fa4	-0.018455334
10	0x3e1af229	0.1513144
11	0xbdea14fb	-0.11429783
12	0x3e9d1fa5	0.30688205
13	0x39d22ed6	0.00040089217
14	0x3d3064a0	0.043064713
15	0xbe2fac57	-0.17155586
16	0xbdd4eee7	-0.103971295
17	0xbe10a67f	-0.14126013
18	0x3d879ed9	0.06622095
19	0xbe58e557	-0.21181236
20	0x3e4d07f0	0.20022559
21	0x3e948217	0.290055
22	0xbda02ddf	-0.07821249
23	0xbca1578c	-0.019695066
24	0xbce7be22	-0.028288905
25	0x3e2bf2b6	0.16791806
26	0xbe0f3906	-0.13986596
27	0x3d9cc1bf	0.07654142
28	0xbe028cb7	-0.12748991
29	0x3e44ecf3	0.19231014
30	0xbdbdfc9f	-0.09276699
31	0x3e56bbe9	0.2097012

fa1.weight f4 [32, 2]
0	0x3d46e0f4	0.048554376
1	0x3d08f610	0.03343779
2	0xbd1b1fbc	-0.03787206
3	0x3e050d31	0.12993313
4	0x3f170103	0.5898592
5	0x3f534f22	0.8254262
6	0x3df9f9c6	0.122058436
7	0xbca75598	-0.020426556
8	0x3e1e1129	0.15436234
9	0x3c8bf68b	0.017085334
10	0x3d967c22	0.07347895
11	0xbdd9c28a	-0.106328085
12	0x3e613986	0.219946
13	0x3f42ef00	0.76145935
14	0x3c9668a8	0.01836045
15	0xbde1eabb	-0.110310994
16	0x3c94f650	0.018183857
17	0xbd889f5e	-0.06671022
18	0xbe8e2398	-0.2776153
19	0x3e8553ba	0.2604044
20	0xbe1eea72	-0.15519121
21	0xbc1b81e0	-0.009491414
22	0xbec76ad5	-0.38948694
23	0xbdc35f18	-0.09539622
24	0x3d5c236d	0.053744722
25	0x3f0d60e8	0.5522599
26	0x3e338042	0.17529395
27	0x3f74ee9d	0.95676595
28	0x3eb501d0	0.35352945
29	0x3f46262b	0.7740199
30	0x3e1341c1	0.14380552
31	0xbe20178b	-0.15633981
32	0xbe2e67dd	-0.17031808
33	0xbbe64f3b	-0.007028488
34	0xbe1eb829	-0.15499939
35	0xbc6507b0	-0.013978884
36	0x3bc67a22	0.00605704
37	0xbd1a29a9	-0.037637386
38	0xbd84fefb	-0.06493946
39	0xbc833538	-0.016016588
40	0x3d951f37	0.072813444
41	0x3f251fff	0.6450195
42	0xbe340d24	-0.17583138
43	0x3d642924	0.055703297
44	0x3a9a758d	0.00117843
45	0x3f3c4f3e	0.73558414
46	0x3e26f6f3	0.16305141
47	0xbdaddcc5	-0.08489374
48	0x3ca65ad8	0.02030699
49	0x3c9b8d08	0.018988147
50	0xbd07e624	-0.033178464
51	0x3ec9eca9	0.3943837
52	0xbc77a689	-0.015115389
53	0x3ef10bd8	0.4707935
54	0xbec293ce	-0.3800339
55	0xbd8d3bbd	-0.0689616
56	0x3e3711aa	0.17877832
57	0x3f698bb1	0.9122878
58	0xbdb56199	-0.08856506
59	0x3ee2dde8	0.44309926
60	0xbd643b20	-0.05572045
61	0xbdb545c0	-0.088511944
62	0xbe636e80	-0.22210121
63	0x3f329693	0.6976101

fa1.bias f4 [32]
0	0xbee1862d	-0.4404768
1	0xbeb40494	-0.35159743
2	0x3da9d59f	0.08292698
3	0xbe73c046	-0.23803815
4	0xbf1065f5	-0.56405574
5	0xbe96c164	-0.2944442
6	0x3f5fdbcf	0.87444776
7	0xbdde3ec0	-0.10851812
8	0xbe02b424	-0.1276403
9	0x3ec30d77	0.3809621
10	0xbe6a17b8	-0.2286061
11	0x3ebb8ba1	0.36629966
12	0x3f4f495a	0.809713
13	0x3efdf109	0.49597958
14	0x3e57ea33	0.21085434
15	0xbeba9062	-0.3643828
16	0x3e6510c9	0.22369684
17	0xbebc9e77	-0.3683965
18	0xbd0a798c	-0.033807322
19	0xbe3c2d44	-0.18376642
20	0x3db8e5a4	0.090281755
21	0xbe052ba0	-0.13004923
22	0x3f3cf742	0.73814785
23	0xbf16a976	-0.58852327
24	0xbed87401	-0.42276004
25	0x3efa2631	0.48857263
26	0x3eacaccf	0.33725592
27	0x3ea2fbc4	0.31832707
28	0x3f18f61e	0.59750545
29	0x3f0bc47e	0.545967
30	0xbdd01d00	-0.10161781
31	0x3e7cff05	0.24706657

fca1.weight f4 [64, 64]
0	0x3e192b60	0.14957952
1	0x3caa818c	0.020813726
2	0x3d692ef2	0.056929536
3	0x3d733b75	0.059382875
4	0x3ef41b30	0.47676992
5	0xbdf5f13e	-0.12008904
6	0x3e5039fe	0.20334622
7	0x3f025b8c	0.5092094
8	0x3d0c953f	0.03432202
9	0x3ef25a6d	0.47334614
10	0xbbd8e2ad	-0.0066188187
11	0xbb4dbd88	-0.0031393487
12	0xbd9c8b8b	-0.07643803
13	0xbd5eb065	-0.05436744
14	0x3ebeb0ea	0.3724435
15	0x3f1befca	0.60912764
16	0xbe953728	-0.29143643
17	0xbf1676c3	-0.58774966
18	0x3e7fdfe4	0.24987751
19	0x3de5f7c0	0.11228895
20	0x3e6b2774	0.22964269
21	0x3c6aa40a	0.0143213365
22	0x3d0ca932	0.034341045
23	0x3e622888	0.22085774
24	0x3e73072e	0.23733208
25	0x3efca5c7	0.49345228
26	0xbddf0d64	-0.10891226
27	0x3ec1f83f	0.3788471
28	0xbd4e18c8	-0.050316602
29	0x3d14b2ca	0.03630332
30	0x3e5b3e89	0.21410574
31	0xbcc941e8	-0.02456756
32	0xbd2989ec	-0.0413913
33	0x3ddccea2	0.107815996
34	0xbe89874e	-0.26861042
35	0xbcb77d20	-0.022398531
36	0x3d902cae	0.07039772
37	0x3deb483e	0.114883885
38	0xbd83f3b9	-0.06442971
39	0xbdcf22a2	-0.101140276
40	0xbdeb423c	-0.114872426
41	0x3bb599f1	0.005542033
42	0x3dc85278	0.09781355
43	0x3c3f512a	0.011677066
44	0x3cefc0b5	0.029266695
45	0xbd8524e0	-0.06501174
46	0xbe1be12e	-0.15222618
47	0xbc83c0f4	-0.016083218
48	0x3d43f3f9	0.047840092
49	0xbdbd449c	-0.09241602
50	0x3e0056db	0.12533133
51	0xbddea218	-0.10870761
52	0xbd63fe05	-0.055662174
53	0xbc67c030	-0.014144942
54	0x3dadbbfa	0.08483119
55	0x3d55237c	0.052035794
56	0x3da93192	0.08261408
57	0xbdb7d9d7	-0.089770965
58	0xbb874e09	-0.0041291756
59	0x3e135b01	0.14390184
60	0x3db17060	0.08664012
61	0xbcbbafae	-0.022910919
62	0x3ce0ea48	0.027455464
63	0x3df02f2c	0.11727747
64	0x3e09b7f2	0.13449076
65	0xba6da77b	-0.0009065789
66	0x3c020b70	0.007937297
67	0x3e1b9932	0.15195158
68	0x3f25d41b	0.6477677
69	0x3d4957a8	0.04915586
70	0x3e29a6ec	0.16567582
71	0x3ef93648	0.48674226
72	0xbda93d5d	-0.08263657
73	0x3ecc5b69	0.3991349
74	0xbdbeb9df	-0.09312796
75	0x3e23a446	0.15980634
76	0x3cc6e46f	0.024278848
77	0xbbfbd40a	-0.007685189
78	0x3ec6872b	0.38775
79	0x3f1a586f	0.6029119
80	0xbe51ce23	-0.20488791
81	0xbf19d254	-0.6008656
82	0x3e9c31a9	0.30506638
83	0x3e25b7a4	0.16183335
84	0x3e4d29ba	0.20035449
85	0x3d29bb5e	0.041438453
86	0x3d9dd16a	0.07705958
87	0x3e8b7ef6	0.272453
88	0x3ea0a843	0.31378374
89	0x3f1efe61	0.621069
90	0xbddbd036	-0.107330725
91	0x3ef8cfb3	0.48595962
92	0x3ded9a74	0.11601725
93	0xbd46bc0d	-0.048519183
94	0x3df62112	0.120180264
95	0xbd7571c5	-0.059922952
96	0x3dd793a0	0.10526204
97	0xbcfab418	-0.030603454
98	0xbddec2c0	-0.10876989
99	0xbd7bd038	-0.06147787
100	0x3d32afd8	0.04362473
101	0x3c707957	0.014677367
102	0xbda5b9e3	-0.08092096
103	0x3db7b6f8	0.089704454
104	0xbd81dd4a	-0.06341036
105	0x3e40370e	0.18771002
106	0x3dfc7b9a	0.123282626
107	0x3d7a7fd9	0.06115708
108	0x3e1ca058	0.15295541
109	0x3ddc3240	0.10751772
110	0xbdca0484	-0.098641425
111	0xbdbc0886	-0.09181313
112	0xbcc739db	-0.02431958
113	0x3d9e9ef0	0.07745159
114	0x3d959d40	0.07305384
115	0xbd4c2ed0	-0.04984933
116	0xbe2184ab	-0.15773265
117	0xbd807a58	-0.06273335
118	0x3d570b29	0.052500878
119	0xbde57cce	-0.11205445
120	0xbcbda9f8	-0.023152336
121	0xbd39bde4	-0.04534711
122	0x3d32b469	0.043629084
123	0x3ddfb236	0.10922663
124	0x3df9f046	0.12204032
125	0x3d644fae	0.05574005
126	0xbdaa0282	-0.083012596
127	0x3dd882e2	0.10571839
128	0x3e49c718	0.19704854
129	0x3d4fcf97	0.050735082
130	0xbd1dabcd	-0.03849392
131	0x3e0b2ad4	0.13590556
132	0x3f09a404	0.53765893
133	0xbdf520c3	-0.119691394
134	0x3e4d6579	0.2005824
135	0x3ea9ff67	0.3320267
136	0xbd6045bf	-0.054754015
137	0x3ea712c2	0.326315
138	0xbda7a879	-0.081864305
139	0xba944cda	-0.0011314407
140	0x3dae86f9	0.08521838
141	0x3d9ff2fd	0.07810018
142	0x3ef3b4b9	0.47598818
143	0x3efe908a	0.4971965
144	0xbe6aa1ed	-0.22913332
145	0xbf222eb6	-0.63352525
146	0x3e823ac9	0.25435475
147	0x3e04c4e6	0.12965736
148	0x3e64694b	0.22305791
149	0x3d3aee98	0.045637697
150	0xbd27578d	-0.04085498
151	0x3e3ff926	0.18747386
152	0x3e999ecd	0.30003968
153	0x3f10f6ae	0.56626403
154	0x3bc05ae0	0.005870208
155	0x3e7253bd	0.23664756
156	0x3d2f1291	0.042742316
157	0x3d83fcaa	0.06444676
158	0x3e82560b	0.2545627
159	0x3c807732	0.015681837
160	0x3dde481e	0.10853599
161	0xbd52e0b0	-0.05148381
162	0xbe248bdf	-0.16068982
163	0xbdad9614	-0.08475891
164	0xbd1e36d4	-0.038626507
165	0x3de687f0	0.11256397
166	0xbdaee50b	-0.0853978
167	0x3da01d80	0.07818127
168	0x3d7334c8	0.059376508
169	0xbc21f151	-0.0098841945
170	0xbda01738	-0.078169286
171	0x3e1d6e62	0.15374139
172	0x3decc2be	0.115605816
173	0xbd107619	-0.035268877
174	0x3cab2734	0.020892717
175	0xbd0b7aa8	-0.03405252
176	0x3d02314e	0.031785302
177	0xbda92160	-0.08258319
178	0xbd333950	-0.04375583
179	0x3da48d62	0.08034779
180	0x3ce2c86f	0.027683465
181	0xbdf78b78	-0.120871484
182	0xbdb7c1a1	-0.08972479
183	0xbc90347e	-0.017603155
184	0x3dd85644	0.10563329
185	0xbd37ad0c	-0.044842765
186	0xbb661717	-0.0035108977
187	0x3db95c6b	0.090508305
188	0xbdc9f614	-0.09861389
189	0x3d4dfc95	0.05028971
190	0x3d082f00	0.033247948
191	0xbda5d25a	-0.08096762
192	0xbd94c862	-0.072647825
193	0xbdff4310	-0.12463963
194	0x3acfcc41	0.0015853719
195	0xbdd07142	-0.10177852
196	0xbd0fd5b3	-0.03511591
197	0xbdde307c	-0.108490914
198	0xbdd82ef9	-0.10555834
199	0xbca71168	-0.020394042
200	0xbe0bf79e	-0.13668677
201	0x3d8a30fa	0.06747623
202	0x3c2175fc	0.00985479
203	0x3cd4a130	0.025955766
204	0xbdc4c640	-0.09608126
205	0xbe063abc	-0.13108343
206	0xbe020c6e	-0.12700054
207	0xbc79fcc0	-0.015258014
208	0xbd194bb8	-0.037425727
209	0x3caa9a5e	0.020825561
210	0xbd5a809c	-0.053345308
211	0xbc69e88c	-0.014276635
212	0xbd9028c6	-0.07039027
213	0x3c2c5aa8	0.010519661
214	0xbd85ef90	-0.065398335
215	0xbd96a18a	-0.0735503
216	0x3ce281f8	0.027649865
217	0x3d60e60e	0.054906897
218	0x3d49a2c4	0.04922749
219	0x3d571e27	0.05251899
220	0x3c90cbe8	0.017675355
221	0xbbb569f7	-0.0055363136
222	0x3d402726	0.046912335
223	0x3d24c352	0.040225334
224	0xbd91bc04	-0.07115939
225	0xbd9199da	-0.07109423
226	0xbe04c498	-0.1296562
227	0xbd88a76e	-0.0667256
228	0xbd8e87d4	-0.06959501
229	0xbce0a068	-0.027420238
230	0x3dd47ca0	0.10375333
231	0xbd84edca	-0.06490667
232	0xbd4035b7	-0.046926226
233	0x3d64d872	0.05587048
234	0xbb554d80	-0.0032547414
235	0xbe0e8fcd	-0.13922043
236	0xbd91ee7c	-0.071255654
237	0xbc97697c	-0.018482916
238	0x3cec0883	0.028812652
239	0xbd9e0d36	-0.077173635
240	0xbd44f5ca	-0.048085965
241	0xbcc01780	-0.023448706
242	0x3df4e328	0.11957389
243	0xbced4ef8	-0.02896832
244	0xbdafd85b	-0.085861884
245	0x3dd16a20	0.1022532
246	0x3d5934ec	0.053028986
247	0xbd820a90	-0.06349671
248	0xbb557f80	-0.0032577217
249	0xbd4c89c8	-0.049936086
250	0x3d77bcb6	0.060482703
251	0x3c478f8b	0.012180219
252	0x3cfd0727	0.0308872
253	0xbd94fbd4	-0.07274595
254	0xbd9ae618	-0.07563418
255	0x3ca139b4	0.019680835

fca1.bias f4 [64]
0	0xbb591b4c	-0.0033127842
1	0x3dad8a20	0.08473611
2	0xbd8c2dda	-0.06844683
3	0xbdae7b1a	-0.085195735
4	0xbc110082	-0.008850219
5	0x3c8f0834	0.017459966
6	0xbcc3149a	-0.023813535
7	0x3d50872f	0.05091017
8	0x3def6f24	0.1169112
9	0x3db35b29	0.08757622
10	0xbd4846f4	-0.04889579
11	0x3e11616f	0.14197324
12	0x3d0ac8a5	0.033882756
13	0x3d7baf29	0.061446343
14	0x3c3c49f2	0.011492239
15	0x3d181fe7	0.0371398
16	0xbddd288d	-0.1079875
17	0x3d81b40e	0.06333171
18	0x3ca45d03	0.020063883
19	0x3e206f3a	0.1566743
20	0x3e1c846d	0.15284891
21	0x3d75139f	0.059833165
22	0x3d2dfaf8	0.04247567
23	0xbd2575f8	-0.040395707
24	0xbe09bb9f	-0.13450478
25	0xbda700bf	-0.08154439
26	0xbcec5e08	-0.028853431
27	0xbdf7b56b	-0.120951496
28	0x3dd9dbff	0.10637664
29	0xbd87e4cb	-0.06635436
30	0x3bd4b9f0	0.006491892
31	0xbd859a78	-0.06523603
32	0xbd5a9311	-0.05336291
33	0xbea0f4e8	-0.3143685
34	0x3e18e7a9	0.14932121
35	0x3dc3d43f	0.09561967
36	0x3e2107d2	0.1572564
37	0xbdbb57e2	-0.09147622
38	0x3d17279f	0.03690302
39	0x3d480048	0.048828393
40	0xbed5dbec	-0.4176935
41	0x3db277e6	0.08714275
42	0x3c535730	0.012899205
43	0xbd07f674	-0.03319402
44	0x3d0b0eea	0.03394977
45	0x3d754f69	0.059890185
46	0xbda52291	-0.08063234
47	0x3e264c25	0.16239984
48	0x3d4fadd3	0.05070288
49	0xbd7ed8ee	-0.0622186
50	0xbdeaf2eb	-0.11472114
51	0x3db6a302	0.0891781
52	0xbcbb80a9	-0.022888498
53	0x3dad5689	0.08463771
54	0x3dfc0c09	0.12306983
55	0xbbf0b97e	-0.007346331
56	0xbdaac634	-0.083385855
57	0x3d9b7019	0.0758974
58	0xbdb32204	-0.08746722
59	0x3da562c9	0.080754824
60	0xbd901776	-0.07035725
61	0x3ddca251	0.10773147
62	0x3df53e38	0.11974758
63	0x3e2ce3ec	0.1688382

fca2.weight f4 [1, 64]
0	0xbeba4858	-0.3638332
1	0xbeda9037	-0.42688152
2	0xbebc027b	-0.36720642
3	0xbc8d04d9	-0.017214226
4	0xbec3d573	-0.38248786
5	0xbeccd213	-0.40004024
6	0x3c5db0fb	0.013530965
7	0x3b1bd66c	0.0023778928
8	0xbebf3ee9	-0.37352684
9	0xbefb45c2	-0.49076658
10	0xbedadd69	-0.42747048
11	0xbeeb751e	-0.4598779
12	0xbec12afa	-0.377281
13	0xbed8a804	-0.42315686
14	0x3c8a5eff	0.016891
15	0xbeb10fdd	-0.34582415
16	0x3cac1c99	0.02100973
17	0xbebb78b1	-0.36615518
18	0xbef04ba4	-0.4693271
19	0xbed0ff37	-0.40819713
20	0xbf1472f6	-0.57987916
21	0xbec2d1df	-0.38050744
22	0xbed03820	-0.4066782
23	0xba0e8bdc	-0.0005437711
24	0xbc90a677	-0.017657502
25	0xbecb867c	-0.3975104
26	0xbec85bb9	-0.3913248
27	0x3cc911a8	0.024544552
28	0xbef44144	-0.47706044
29	0xbc2e4cfd	-0.010638473
30	0xbed6cae3	-0.41951665
31	0xbed3124a	-0.4122489
32	0xbedb6f04	-0.42858136
33	0x4000ea21	2.01429
34	0xbede8222	-0.43458658
35	0xbec261f6	-0.37965363
36	0xbeb97be5	-0.36227337
37	0xb9c992d8	-0.00038447115
38	0xbec3d400	-0.3824768
39	0xbeda5361	-0.42641738
40	0x3ff99bae	1.9500635
41	0x3c8346b0	0.016024917
42	0xbeb08ea7	-0.34483835
43	0xbed0b848	-0.40765595
44	0xbeca329c	-0.39491737
45	0xbecfe91c	-0.40607536
46	0xbeabd8c1	-0.33563808
47	0xbeb88a99	-0.36043242
48	0xbec46f2e	-0.38366073
49	0xbeab042b	-0.33401617
50	0xbebec335	-0.37258306
51	0xbbd5683b	-0.0065126694
52	0xbec92f31	-0.39293817
53	0xbeb84d60	-0.35996532
54	0xbecfa1d6	-0.4055316
55	0xbecbc569	-0.3979905
56	0xbec98c5a	-0.39364892
57	0xbeb9ba17	-0.36274788
58	0xbbdc460e	-0.0067222184
59	0xbed16e36	-0.40904397
60	0xba903ad9	-0.0011003866
61	0xbee35095	-0.44397417
62	0xbeaa5ded	-0.33274785
63	0xbeaef507	-0.34171316
