src/Models/training/400_critic.pt (torch_old, 22090 bytes, 7 tensors)

fc1.weight f4 [32, 28]
-0.13297679 -0.07144483 -0.01764123 -0.1265632 -0.11967806 -0.04440423 0.06323305 0.1804483
0.048995923 -0.12339265 -0.057536025 0.15254247 -0.060213476 -0.08232838 0.13417983 -0.17187685
-0.01385768 0.1270459 -0.022376196 0.06755747 0.015180574 -0.22353123 0.15902817 -0.038209368
0.7024335 0.78543967 0.021806315 0.078014314 0.14850472 0.2735391 0.079714455 0.0834343
-0.080146275 0.16468751 0.0145777995 -0.0017896169 0.05517411 0.17668939 0.18233825 0.06479992
0.124699965 -0.02123163 0.10532247 -0.15455529 -4.2638083e-05 -0.14999714 -0.009099874 0.05707161
0.02150288 0.12717742 0.023192426 0.014220007 1.0618212 0.37200558 0.69601196 0.045602642
-0.064664006 0.17863849 0.0013848108 0.13975921 -0.008513883 0.18111782 0.09199628 0.17022918
-0.13343486 0.03965347 -0.055302866 0.04736013 0.09180995 0.05435446 0.05853657 0.07840838
0.15633714 0.11558531 0.092779316 0.17812012 -0.03367248 0.19106373 0.17574637 0.065510444
1.3771008 0.19990674 0.6310121 0.2259359 0.11831703 -0.29711944 -0.25118876 -0.18995339
-0.059401285 0.14887023 -0.13327636 -0.08560814 0.07090699 0.10473823 -0.045660976 0.073969506
-0.0059184 0.1716224 0.02764838 0.12338601 0.10725211 0.11264437 0.13292518 0.08643802
0.055658396 0.113152325 0.20744522 0.050863955 -0.5059208 0.27788293 0.042371675 -0.33964926
0.08288424 -0.10198305 0.012698834 -0.038069338 -0.04456935 -0.009660554 -0.11743826 -0.05353436
0.10834296 0.039165225 0.07080934 -0.08895841 -0.12469405 0.0429716 0.0045196824 0.06542612
-0.039787695 0.073014684 -0.005010982 -0.17857191 0.04189137 -0.18644476 -0.035563473 -0.1281127
0.025528414 0.7815539 -1.2761345 -0.22804473 -0.12441606 -0.0034259707 0.0039194077 0.04173453
-0.16442463 -0.092275426 -0.13525756 -0.09522865 -0.020393446 -0.03270018 0.10211544 -0.09443233
0.022671744 -0.17436428 -0.060769584 0.04827258 0.028826207 0.08538103 -0.140923 -0.112918735
-0.09961928 0.114954606 -0.055949032 -0.06392756 -0.01605177 0.17470695 -0.07080281 -0.007060215
-0.0032359506 -0.059942424 -0.060978148 0.15594749 0.15259746 -0.1025954 -0.052060325 -0.12535904
0.16943736 -0.020022348 0.037057668 0.12421984 0.1683151 -0.12547228 -0.13268334 0.16690744
-0.16149864 0.046532918 0.1255015 -0.13287872 -0.4688685 -0.106322244 -0.18137519 -0.10185841
0.51448023 0.76595664 -0.23814595 0.48771158 0.051923435 -0.0035547945 -0.022990288 0.061856817
-0.018379597 -0.054700714 -0.07106139 -0.059173644 -0.0453588 -0.056970045 0.036206514 0.10322067
0.004322825 0.07836382 0.06096339 0.072143964 0.02148326 0.021530943 -0.02895912 -0.11931671
-0.041660868 -0.16614993 -0.082342535 -0.11067685 0.640098 0.4246437 0.72305924 -0.10978533
-0.096927084 0.021724608 -0.1157493 0.18355128 0.18792193 0.117718555 0.19899984 -0.06560454
-0.04301607 -0.112785615 -0.07318177 0.010388327 0.054506388 0.109054156 0.047929697 0.06343565
-0.05255782 0.13788544 0.12517627 0.13632564 -0.0117845 0.1972905 0.13928372 0.17128327
1.3221016 0.22957076 0.6569852 0.34464136 -0.004669199 -0.10625049 -0.17713282 0.01845505
00000000: 112b 08be ab51 92bd 5784 90bc c999 01be
00000010: c519 f5bd 36e1 35bd 5480 813d 70c7 383e
00000020: f3af 483d 49b5 fcbd e5aa 6bbd 1834 1c3e
00000030: 68a2 76bd c89b a8bd 7066 093e 7c00 30be
00000040: 530b 63bc 5218 023e 494e b7bc 925b 8a3d
00000050: f1b7 783c 5fe5 64be 48d8 223e 6d81 1cbd
00000060: afd2 333f 9312 493f 28a3 b23c f8c5 9f3d
00000070: 9f11 183e 510d 8c3e 5541 a33d 9adf aa3d
00000080: bb23 a4bd d8a3 283e b9d7 6e3c 9491 eaba
00000090: 3ffe 613d 10ee 343e e1b6 3a3e d2b5 843d
000000a0: b262 ff3d f5ed adbc 4fb3 d73d be43 1ebe
000000b0: 4bd6 32b8 da98 19be a317 15bc ecc3 693d
000000c0: cf26 b03c cc3a 023e 0bfe bd3c 08fb 683c
000000d0: c2e9 873f 8477 be3e d72d 323f d6c9 3a3d
000000e0: 906e 84bd 02ed 363e 8a82 b53a 0a1d 0f3e
000000f0: d07d 0bbc f376 393e 8c68 bc3d 8f50 2e3e
00000100: 26a3 08be ad6b 223d 4285 62bd b2fc 413d
00000110: db06 bc3d c8a2 5e3d 0bc4 6f3d 9394 a03d
00000120: d816 203e feb7 ec3d 1503 be3d 1f65 363e
00000130: 28ec 09bd 36a6 433e dbf6 333e 572a 863d
00000140: d744 b03f 5ab4 4c3e 028a 213f be5b 673e
00000150: 3350 f23d 0a20 98be d09b 80be 2483 42be
00000160: c34e 73bd 7071 183e 9979 08be 5253 afbd
00000170: af37 913d ff80 d63d 0107 3bbd 537d 973d
00000180: 23ef c1bb c8bd 2f3e db7e e23c ceb1 fc3d
00000190: ffa6 db3d 17b2 e63d 8a1d 083e 6b06 b13d
000001a0: 0ffa 633d 68bc e73d 856c 543e b956 503d
000001b0: 0784 01bf ac46 8e3e ec8d 2d3d 82e6 adbe
000001c0: 36bf a93d 7ddc d0bd c50e 503c 98ee 1bbd
000001d0: 5a8e 36bd 4d47 1ebc 7883 f0bd d846 5bbd
000001e0: eae2 dd3d b76b 203d 7d04 913d d42f b6bd
000001f0: 985f ffbd fd02 303d d819 943b 21fe 853d
00000200: 6cf8 22bd b988 953d 2a33 a4bb 8edb 36be
00000210: 4996 2b3d 60eb 3ebe 01ab 11bd fa2f 03be
00000220: f720 d13c eb13 483f 6058 a3bf 8f84 69be
00000230: d9cd febd 4086 60bb 606e 803b d4f1 2a3d
00000240: ee5e 28be e6fa bcbd f580 0abe 3d07 c3bd
00000250: 2810 a7bc a0f0 05bd e621 d13d bd65 c1bd
00000260: 18ba b93c 8d8c 32be 87e9 78bd 78b9 453d
00000270: f024 ec3c 40dc ae3d 1e4e 10be f041 e7bd
00000280: 3105 ccbd 526d eb3d d02a 65bd 74ec 82bd
00000290: 007f 83bc 61e6 323e 1001 91bd 6059 e7bb
000002a0: 3e12 54bb 3086 75bd 39c4 79bd b3b0 1f3e
000002b0: 8242 1c3e 891d d2bd 353d 55bd 1f5e 00be
000002c0: fd80 2d3e e805 a4bc c8c9 173d f966 fe3d
000002d0: cb5a 2c3e ce7b 00be 24de 07be c9e9 2a3e
000002e0: e65f 25be 4d99 3e3d 7783 003e 5c11 08be
000002f0: 880f f0be 7abf d9bd 6bba 39be 249b d0bd
00000300: fab4 033f bc15 443f 88dc 73be 55b5 f93e
00000310: abad 543d 8ef7 68bb 2156 bcbc 935d 7d3d
00000320: cf90 96bc db0d 60bd a288 91bd 1060 72bd
00000330: 26ca 39bd 6c59 69bd 484d 143d 5c65 d33d
00000340: 7ca6 8d3b 367d a03d bfb4 793d 37c0 933d
00000350: a9fd af3c a961 b03c ad3b edbc 525c f4bd
00000360: 96a4 2abd 3523 2abe 34a3 a8bd 8baa e2bd
00000370: 76dd 233f e66a d93e 691a 393f 22d7 e0bd
00000380: b581 c6bd cef7 b13c f80d edbd def4 3b3e
00000390: 9b6e 403e 6d16 f13d 9dc6 4b3e ac5b 86bd
000003a0: 9e31 30bd 25fc e6bd 53e0 95bd cd33 2a3c
000003b0: 1742 5f3d c957 df3d ee51 443d 8dea 813d
000003c0: de46 57bd d731 0d3e 352e 003e f398 0b3e
000003d0: c713 41bc 8506 4a3e 64a0 0e3e e264 2f3e
000003e0: a03a a93f 9914 6b3e 2f30 283f d574 b03e
000003f0: 1500 99bb db99 d9bd 4e62 35be 0c2f 973c

fc1.bias f4 [32]
0.31933433 0.3017452 0.07702859 -0.14329514 0.09363424 0.12735273 0.111214116 0.10011226
0.30186576 -0.028475862 0.16046529 -0.117870696 0.3150194 0.018661216 0.029507505 -0.17501312
-0.105004355 -0.12356106 0.05248029 -0.21818899 0.20039701 0.29784063 -0.07828158 -0.034822773
-0.035547398 0.15932985 -0.13986596 0.06481627 -0.13041103 0.1987716 -0.10758237 0.22383028
00000000: ca7f a33e 597e 9a3e 2ac1 9d3d f6bb 12be
00000010: 4fc3 bf3d c168 023e 3ac4 e33d a807 cd3d
00000020: 268e 9a3e 3646 e9bc 0351 243e 3166 f1bd
00000030: 394a a13e 68df 983c b9b9 f13c a436 33be
00000040: 860c d7bd 950d fdbd 93f5 563d ef6c 5fbe
00000050: e034 4d3e 917e 983e 1852 a0bd 53a2 0ebd
00000060: 269a 11bd 5d27 233e 0639 0fbe 64be 843d
00000070: 788a 05be c88a 4b3e 2554 dcbd c433 653e

fa1.weight f4 [32, 2]
0.048554376 0.03343779 -0.03787206 0.12993313 0.53999156 0.8130639 0.122058436 -0.020426556
0.15436234 0.017085334 0.07347895 -0.106328085 0.1440601 0.8099786 0.01836045 -0.110310994
0.018183857 -0.06671022 -0.30302066 0.29282525 -0.15519121 -0.009491414 -0.39161015 -0.0721681
0.007021143 0.5906439 0.014157533 0.9944068 0.24246687 0.7842606 0.14380552 -0.15633981
-0.18018484 0.019738803 -0.15499939 -0.013978884 0.006078513 -0.0376044 -0.06493946 -0.016016588
-0.04395392 0.6582701 -0.17583138 0.055703297 -0.048864 0.77280104 0.16305141 -0.08489374
0.02030699 0.018988147 -0.07411387 0.4284556 -0.067645006 0.51015145 -0.38649234 -0.043727133
0.043738045 0.95792526 -0.118149236 0.4769146 -0.05572045 -0.088511944 -0.3050066 0.7484666
00000000: f4e0 463d 10f6 083d bc1f 1bbd 310d 053e
00000010: e33c 0a3f f524 503f c6f9 f93d 9855 a7bc
00000020: 2911 1e3e 8bf6 8b3c 227c 963d 8ac2 d9bd
00000030: 7e84 133e c25a 4f3f a868 963c bbea e1bd
00000040: 50f6 943c 5e9f 88bd 8625 9bbe 31ed 953e
00000050: 72ea 1ebe e081 1bbc 2081 c8be decc 93bd
00000060: 9e11 e63b 7034 173f fff4 673c 7291 7e3f
00000070: 3c49 783e 4dc5 483f c141 133e 8b17 20be
00000080: 6082 38be 45b3 a13c 29b8 1ebe b007 65bc
00000090: 432e c73b 1207 1abd fbfe 84bd 3835 83bc
000000a0: 0709 34bd 6484 283f 240d 34be 2429 643d
000000b0: 9e25 48bd 4ad6 453f f3f6 263e c5dc adbd
000000c0: d85a a63c 088d 9b3c 03c9 97bd 885e db3e
000000d0: 7789 8abd 4999 023f 53e2 c5be 391b 33bd
000000e0: aa26 333d 973a 753f 3af8 f1bd 272e f43e
000000f0: 203b 64bd c045 b5bd d329 9cbe 829b 3f3f

fa1.bias f4 [32]
-0.4404768 -0.35159743 0.08205231 -0.23803815 -0.56405574 -0.2944442 0.8794798 -0.10851812
-0.1276403 0.38679543 -0.2286061 0.3715445 0.81510425 0.49649304 0.20688029 -0.3643828
0.22855365 -0.3683965 -0.033840183 -0.18376642 0.08720288 -0.13004923 0.7429011 -0.58852327
-0.42276004 0.4934147 0.33987105 0.32398278 0.6000011 0.55112016 -0.10161781 0.25333875
00000000: 2d86 e1be 9404 b4be 0b0b a83d 46c0 73be
00000010: f565 10bf 64c1 96be 9725 613f c03e debd
00000020: 24b4 02be 0d0a c63e b817 6abe 153b be3e
00000030: acaa 503f 5634 fe3e 6dd8 533e 6290 babe
00000040: f809 6a3e 779e bcbe 019c 0abd 442d 3cbe
00000050: 6c97 b23d a02b 05be c42e 3e3f 76a9 16bf
00000060: 0174 d8be daa0 fc3e 9403 ae3e 12e1 a53e
00000070: ac99 193f 3616 0d3f 001d d0bd 9eb5 813e

fca1.weight f4 [64, 64]
0.1635132 0.025293196 0.060349654 0.06210624 0.505293 -0.12008904 0.20344599 0.49926984
0.033260472 0.5059204 -0.0017007244 -0.0142643405 -0.07092669 -0.058310654 0.3906353 0.60598266
-0.341753 -0.65244114 0.26875004 0.15150924 0.24439336 0.018655417 0.034272 0.22266671
0.24321364 0.5027111 -0.10891226 0.39302918 -0.053032886 0.03826073 0.23099619 -0.029933287
-0.0413913 0.107815996 -0.25040337 -0.022398531 0.07039772 0.114883885 -0.055746544 -0.101140276
-0.114872426 0.011309264 0.09781355 0.014224259 0.03730326 -0.055210937 -0.13903604 -0.016083218
0.05148841 -0.09241602 0.1253568 -0.10870761 -0.04180341 -0.014144942 0.09309941 0.052035794
0.08261408 -0.08208193 0.004100243 0.1459656 0.0959778 -0.015355571 0.027455464 0.12538087
0.14840461 0.0019332275 0.012279839 0.1497697 0.6734813 0.04915586 0.1711191 0.47682804
-0.078153715 0.43012136 -0.08814922 0.15099825 0.030359017 -0.010382061 0.40441775 0.6033419
-0.25329107 -0.66517466 0.32308528 0.19305147 0.22303689 0.0440847 0.076990515 0.27913752
0.31724966 0.6282228 -0.107330725 0.49816838 0.106458485 -0.041832846 0.1363029 -0.060694467
0.10526204 -0.030603454 -0.0968507 -0.06147787 0.04362473 0.014677367 -0.075182244 0.089704454
-0.06341036 0.1909036 0.123282626 0.06253519 0.15826707 0.11347242 -0.090306096 -0.09181313
-0.022331322 0.07745159 0.073081024 -0.04984933 -0.1502002 -0.06273335 0.057749502 -0.11205445
-0.023152336 -0.040490303 0.048466053 0.11011103 0.12784736 0.06047939 -0.083012596 0.10927217
0.217032 0.052211955 -0.036164396 0.13735314 0.56756896 -0.119691394 0.20972702 0.3254048
-0.054754034 0.36146936 -0.07613724 -0.014312655 0.08673732 0.06893852 0.49514177 0.4931464
-0.28135812 -0.6968342 0.27041253 0.15931049 0.23876785 0.04961791 -0.04092398 0.19169399
0.32729217 0.5767375 0.005870208 0.2533787 0.040034227 0.06374006 0.27104956 0.010249454
0.10853599 -0.05148381 -0.14178537 -0.08475891 -0.038626507 0.11256397 -0.07699111 0.07818127
0.059376508 -0.004457938 -0.078169286 0.155534 0.12330453 -0.025446657 0.034392286 -0.03405252
0.034794018 -0.08258319 -0.043732766 0.08034779 0.042396758 -0.120871484 -0.08169291 -0.017603155
0.10563329 -0.03745205 0.004603119 0.09182715 -0.089358754 0.057548873 0.033247948 -0.07256361
-0.072647825 -0.12465274 0.0015722815 -0.10177852 -0.035128787 -0.108490914 -0.10557151 -0.020394042
-0.13669758 0.06746303 0.0098436 0.025955766 -0.09609434 -0.13109466 -0.12701169 -0.015258014
-0.03743852 0.020812543 -0.05335438 -0.0142894685 -0.07039027 0.010507183 -0.065398335 -0.073563434
0.027649865 0.054894015 0.04922749 0.052506078 0.017675355 -0.0055493135 0.04689944 0.040212452
-0.07115939 -0.07109423 -0.12966414 -0.0667256 -0.06959501 -0.027420238 0.10374025 -0.06490667
-0.046926226 0.05585861 -0.0032547414 -0.1392308 -0.07126871 -0.018495494 0.028801104 -0.077173635
-0.04809718 -0.023448706 0.11957389 -0.02896832 -0.08587278 0.1022532 0.053016376 -0.06349671
-0.0032577217 -0.04994834 0.060470637 0.012168419 0.030874567 -0.07275892 -0.07563418 0.019670047
00000000: 0170 273e ad33 cf3c 3331 773d 1d63 7e3d
00000010: e25a 013f 3ef1 f5bd 2554 503e 4ca0 ff3e
00000020: 223c 083d 0084 013f d7ea deba fbb4 69bc
00000030: 0342 91bd 27d7 6ebd 5a01 c83e ae21 1b3f
00000040: 40fa aebe 6206 27bf 9b99 893e 3d25 1b3e
00000050: 4142 7a3e 3fd3 983c cc60 0c3d be02 643e
00000060: ff0c 793e adb1 003f 640d dfbd 1f3b c93e
00000070: 0339 59bd 49b7 1c3d 448a 6c3e a736 f5bc
00000080: ec89 29bd a2ce dc3d df34 80be 207d b7bc
00000090: ae2c 903d 3e48 eb3d 7d56 64bd a222 cfbd
000000a0: 3c42 ebbd 7e4a 393c 7852 c83d de0c 693c
000000b0: 4ecb 183d dd24 62bd 775f 0ebe f4c0 83bc
000000c0: 83e5 523d 9c44 bdbd 885d 003e 18a2 debd
000000d0: 0d3a 2bbd 30c0 67bc e7aa be3d 7c23 553d
000000e0: 9231 a93d 921a a8bd 555b 863b 0278 153e
000000f0: 0290 c43d ef95 7bbc 48ea e03c d863 003e
00000100: 61f7 173e 5a64 fd3a 6131 493c 3a5d 193e
00000110: 4569 2c3f a857 493d d839 2f3e ce22 f43e
00000120: 0e0f a0bd de38 dc3e 9487 b4bd 499f 1a3e
00000130: 79b3 f83c 8519 2abc d80f cf3e 9d74 1a3f
00000140: 5eaf 81be e348 2abf 6f6b a53e 49af 453e
00000150: c863 643e 2992 343d 34ad 9d3d 1deb 8e3e
00000160: 8c6e a23e 36d3 203f 36d0 dbbd ed0f ff3e
00000170: e806 da3d eb58 2bbd fd92 0b3e c39a 78bd
00000180: a093 d73d 18b4 fabc a959 c6bd 38d0 7bbd
00000190: d8af 323d 5779 703c 26f9 99bd f8b6 b73d
000001a0: 4add 81bd 3c7c 433e 9a7b fc3d 7312 803d
000001b0: c310 223e 3a64 e83d 67f2 b8bd 8608 bcbd
000001c0: 2df0 b6bc f09e 9e3d 81ab 953d d02e 4cbd
000001d0: 15ce 19be 587a 80bd be8a 6c3d ce7c e5bd
000001e0: f8a9 bdbc 29d9 25bd 5784 463d e481 e13d
000001f0: 6bea 023e 3db9 773d 8202 aabd 16ca df3d
00000200: a33d 5e3e 34dc 553d 1e21 14bd 4da6 0c3e
00000210: 334c 113f c320 f5bd aec2 563e 759b a63e
00000220: c445 60bd 8312 b93e d7ed 9bbd a07f 6abc
00000230: 56a3 b13d a42f 8d3d 3983 fd3e af7d fc3e
00000240: 2c0e 90be ba63 32bf 8373 8a3e 4a22 233e
00000250: 8f7f 743e 263c 4b3d e79f 27bd 6e4b 443e
00000260: d792 a73e 12a5 133f e05a c03b daba 813e
00000270: eefa 233d 268a 823d 02c7 8a3e 53ed 273c
00000280: 1e48 de3d b0e0 52bd 2f30 11be 1496 adbd
00000290: d436 1ebd f087 e63d 84ad 9dbd 801d a03d
000002a0: c834 733d e513 92bb 3817 a0bd 4e44 1f3e
000002b0: 1687 fc3d 8275 d0bc edde 0c3d a87a 0bbd
000002c0: 2c84 0e3d 6021 a9bd 2121 33bd 628d a43d
000002d0: 39a8 2d3d 788b f7bd 9d4e a7bd 7e34 90bc
000002e0: 4456 d83d 5267 19bd c3d5 963b df0f bc3d
000002f0: b901 b7bd 5eb8 6b3d 002f 083d 3b9c 94bd
00000300: 62c8 94bd f049 ffbd 0315 ce3a 4271 d0bd
00000310: 34e3 0fbd 7c30 debd e035 d8bd 6811 a7bc
00000320: 73fa 0bbe 0f2a 8a3d 0d47 213c 30a1 d43c
00000330: 1ccd c4bd ae3d 06be 5a0f 02be c0fc 79bc
00000340: 2259 19bd 117f aa3c 1f8a 5abd 601e 6abc
00000350: c628 90bd 5226 2c3c 90ef 85bd 6da8 96bd
00000360: f881 e23c 8cd8 603d c4a2 493d 9d10 573d
00000370: e8cb 903c 04d7 b5bb a119 403d d0b5 243d
00000380: 04bc 91bd da99 91bd adc6 04be 6ea7 88bd
00000390: d487 8ebd 68a0 e0bc c575 d43d caed 84bd
000003a0: b735 40bd ffcb 643d 804d 55bb 8592 0ebe
000003b0: 54f5 91bd dd83 97bc 4bf0 eb3c 360d 9ebd
000003c0: 8c01 45bd 8017 c0bc 28e3 f43d f84e edbc
000003d0: 11de afbd 206a d13d b327 593d 900a 82bd
000003e0: 807f 55bb a196 4cbd 0fb0 773d 0c5e 473c
000003f0: a9ec fc3c a102 95bd 18e6 9abd 1423 a13c

fca1.bias f4 [64]
0.0038907267 0.08999721 -0.061823037 -0.085208856 -0.0026354303 0.022444498 -0.023823546 0.050841972
0.12249494 0.09459943 -0.04202929 0.14658482 0.03974924 0.06703845 0.011474773 0.043423813
-0.10800533 0.06843387 0.024228126 0.16174202 0.15835965 0.065583944 0.047908466 -0.040395707
-0.1346106 -0.07488504 -0.022258634 -0.12096945 0.111598566 -0.066366784 0.013645174 -0.05709968
-0.04773096 -0.32371145 0.15580519 0.09959567 0.16330436 -0.09147622 0.043985475 0.0543779
-0.42885825 0.08713193 0.017538404 -0.025291724 0.040138382 0.066950716 -0.073000506 0.16882509
0.056551408 -0.05391806 -0.107583456 0.08917342 -0.017302621 0.090836875 0.12808871 -0.0013674179
-0.077670544 0.082521796 -0.08746722 0.08772146 -0.07035725 0.11411462 0.12429691 0.17400894
00000000: 90fb 7e3b 7550 b83d 273a 7dbd fb81 aebd
00000010: 2fb7 2cbb 86dd b73c 9929 c3bc ac3f 503d
00000020: a1de fa3d 59bd c13d e826 2cbd 551a 163e
00000030: 19d0 223d 744b 893d b000 3c3c 2bdd 313d
00000040: e631 ddbd 0f27 8c3d 107a c63c b39f 253e
00000050: 0829 223e e050 863d ab3b 443d f875 25bd
00000060: 5cd7 09be 545d 99bd bd57 b6bc d5be f7bd
00000070: ca8d e43d 4feb 87bd 0290 5f3c 5be1 69bd
00000080: 8a81 43bd 82bd a5be 658b 1f3e d1f8 cb3d
00000090: 4239 273e e257 bbbd 1d2a 343d 5cbb 5e3d
000000a0: 4f93 dbbe 3a72 b23d b3ac 8f3c 9730 cfbc
000000b0: 2568 243d 751d 893d 4a81 95bd 7ce0 2c3e
000000c0: 73a2 673d 2fd9 5cbd b754 dcbd 8ea0 b63d
000000d0: 3abe 8dbc af08 ba3d b029 033e ee3a b3ba
000000e0: bc11 9fbd 3001 a93d 0422 b3bd 4fa7 b33d
000000f0: 7617 90bd edb4 e93d 618f fe3d 662f 323e

fca2.weight f4 [1, 64]
-0.427963 -0.48453015 -0.43662083 -0.017226972 -0.44661817 -0.4676274 0.0135415 0.0023914322
-0.4481879 -0.5541085 -0.49832746 -0.5208987 -0.43872234 -0.49388787 0.016904457 -0.40502226
0.021028383 -0.42923978 -0.52459264 -0.4686034 -0.6397175 -0.44719616 -0.47292727 -0.0005437711
-0.017763313 -0.46324742 -0.45585728 0.024571788 -0.549384 -0.010646095 -0.48276228 -0.47891304
-0.50915617 2.163753 -0.50048304 -0.44321877 -0.42585635 -0.00038447115 -0.44531015 -0.49426213
2.0934615 0.01603552 -0.40573302 -0.4727585 -0.45868874 -0.48133305 -0.4004791 -0.41545162
-0.45525023 -0.39825946 -0.43859002 -0.0065155053 -0.4567382 -0.4287539 -0.47247294 -0.46028864
-0.4594746 -0.42585188 -0.006725415 -0.47942367 -0.0011003866 -0.5160134 -0.3994954 -0.40554237
00000000: f71d dbbe 5614 f8be c48c dfbe 941f 8dbc
00000010: 23ab e4be dc6c efbe 2bdd 5d3c 93b9 1c3b
00000020: e278 e5be 0eda 0dbf c724 ffbe 9e59 05bf
00000030: 37a0 e0be dfde fcbe 377b 8a3c 145f cfbe
00000040: b743 ac3c 51c5 dbbe b44b 06bf c9ec efbe
00000050: 87c4 23bf e5f6 e4be 8623 f2be dc8b 0eba
00000060: 5e84 91bc c42e edbe 2066 e9be c64a c93c
00000070: 6ea4 0cbf f56c 2ebc 9e2c f7be 1734 f5be
00000080: 0f58 02bf ee7a 0a40 a81f 00bf 92ed e2be
00000090: d809 dabe d892 c9b9 b1ff e3be ed0f fdbe
000000a0: 46fb 0540 ec5c 833c 3dbc cfbe 670d f2be
000000b0: 40d9 eabe 4971 f6be 990b cdbe 13b6 d4be
000000c0: 8f16 e9be aae8 cbbe df8e e0be 0580 d5bb
000000d0: 97d9 e9be a285 dbbe f9e7 f1be f4aa ebbe
000000e0: 4140 ebbe 4209 dabe df60 dcbb 0577 f5be
000000f0: d93a 90ba 7419 04bf a98a ccbe 40a3 cfbe
