src/Models/training/450_critic.pt (torch_old, 22090 bytes, 7 tensors)

fc1.weight f4 [32, 28]
-0.13932136 -0.0763356 -0.03801316 -0.14869505 -0.0967121 -0.035726056 0.06987468 0.17625661
0.024413269 -0.13544922 -0.039320543 0.15013279 -0.054266375 -0.094877206 0.14724134 -0.16215877
-0.017332295 0.13082142 -0.01974052 0.070405774 0.021189012 -0.23041825 0.1705536 -0.046063084
0.74490696 0.8082784 0.01831096 0.084254436 0.15208365 0.28018433 0.09166797 0.10063326
-0.07114644 0.17281751 0.019280704 -0.004166586 0.047340706 0.17173302 0.18033242 0.06680864
0.12696052 -0.027640061 0.10368983 -0.15182258 -0.00038031986 -0.14587808 -0.015252095 0.043104716
0.03200725 0.13689739 0.032064177 0.018854838 1.141998 0.28177595 0.72279394 0.06247645
-0.06621364 0.17663667 0.0074600675 0.15233646 -0.005103936 0.17905122 0.087896384 0.16278975
-0.1417515 0.030470442 -0.063656926 0.040559735 0.09206899 0.04735273 0.05826642 0.07918597
0.14810473 0.11275318 0.0822128 0.15953179 -0.027799666 0.19158451 0.17516875 0.06537302
1.464123 0.067215055 0.6630074 0.24947378 0.11433631 -0.3034155 -0.25841212 -0.19945139
-0.040864658 0.15806402 -0.12256588 -0.088032246 0.06711432 0.11134672 -0.030084034 0.08095786
-0.007480283 0.1700076 0.031475678 0.124247685 0.102004565 0.112878814 0.14059798 0.097395174
0.055283338 0.11205781 0.20221414 0.044738684 -0.48288912 0.37207654 0.0069954684 -0.36854517
0.07883926 -0.101212926 0.011969048 -0.040994838 -0.058031686 -0.013452132 -0.11643128 -0.05435723
0.12219171 0.03694831 0.065007865 -0.084665805 -0.11987238 0.05027378 0.011535254 0.068595156
-0.04047395 0.073527426 -0.0076130037 -0.17069882 0.035183933 -0.19960137 -0.047100157 -0.13311444
0.10274983 0.95581007 -1.3021978 -0.24043192 -0.12441606 -0.0034259707 0.0039194077 0.04173453
-0.16442463 -0.092275426 -0.13525756 -0.09522865 -0.020393446 -0.03270018 0.10211544 -0.09443233
0.022671744 -0.17436428 -0.060769584 0.04827258 0.028826207 0.08538103 -0.140923 -0.112918735
-0.09961928 0.114954606 -0.055949032 -0.06392756 -0.01605177 0.17470695 -0.07080281 -0.007060215
-0.0015645678 -0.0719685 -0.06647881 0.1518906 0.13637263 -0.09753053 -0.04468699 -0.12715091
0.17376113 -0.022451175 0.024478558 0.13816676 0.16389276 -0.09787252 -0.115034476 0.18196854
-0.14242595 0.035595868 0.11888917 -0.13807961 -0.5042131 -0.12082693 -0.19943912 -0.10175777
0.5715257 0.84800774 -0.24255417 0.5013559 0.05189995 -0.008109127 -0.026388977 0.054147452
-0.019612312 -0.055916194 -0.060425077 -0.06078452 -0.04352319 -0.049490184 0.04388864 0.09936076
0.0153726125 0.08405084 0.06031877 0.07627655 0.014592456 0.016380107 -0.025523094 -0.12154502
-0.045503236 -0.18061817 -0.08189592 -0.11012761 0.7426511 0.48645663 0.71293366 -0.13014336
-0.09834254 0.023814747 -0.10695638 0.19747202 0.19099258 0.120344594 0.19857796 -0.06695363
-0.04928731 -0.11706669 -0.07660007 0.009177149 0.058303412 0.105696954 0.050337173 0.070923746
-0.054475795 0.13682061 0.117803186 0.11910916 -0.0058527836 0.20111006 0.14194785 0.17144205
1.411446 0.08526727 0.6892982 0.3767534 -0.006339952 -0.106533624 -0.18242495 0.013070653
00000000: 42aa 0ebe d755 9cbd b0b3 1bbd 8443 18be
00000010: fe10 c6bd 7c55 12bd 751a 8f3d 9d7c 343e
00000020: 56fe c73c 33b3 0abe 940e 21bd 69bc 193e
00000030: 6b46 5ebd fb4e c2bd 6fc6 163e f30c 26be
00000040: 75fc 8dbc 0df6 053e dfb6 a1bc e730 903d
00000050: 9494 ad3c c3f2 6bbe 9aa5 2e3e a5ac 3cbd
00000060: 39b2 3e3f 55eb 4e3f de00 963c 978d ac3d
00000070: d1bb 1b3e 5274 8f3e 6bbc bb3d d018 ce3d
00000080: 3ab5 91bd 13f7 303e 91f2 9d3c db87 88bb
00000090: 54e8 413d c8da 2f3e 10a9 383e f8d2 883d
000000a0: f001 023e 696d e2bc 555b d43d 6177 1bbe
000000b0: ab65 c7b9 1061 15be ece3 79bc 928e 303d
000000c0: 091a 033d d42e 0c3e ba55 033d 7675 9a3c
000000d0: fe2c 923f f044 903e 0609 393f 4ee7 7f3d
000000e0: 049b 87bd 3ee0 343e 9573 f43b 17fe 1b3e
000000f0: eb3e a7bb 3459 373e 0503 b43d 5bb2 263e
00000100: 4e27 11be 269d f93c 905e 82bd f721 263d
00000110: ab8e bc3d f0f4 413d c5a8 6e3d 412c a23d
00000120: c4a8 173e 24eb e63d 2f5f a83d 4d5c 233e
00000130: 20bc e3bc bb2e 443e 705f 333e 4ae2 853d
00000140: 6268 bb3f 0ca8 893d daba 293f 0e76 7f3e
00000150: 2829 ea3d 4759 9bbe 984e 84be fc3c 4cbe
00000160: b361 27bd 89db 213e d203 fbbd 404a b4bd
00000170: 3c73 893d c009 e43d cb72 f6bc 3ccd a53d
00000180: 291d f5bb 7916 2e3e a4ec 003d 9275 fe3d
00000190: c5e7 d03d 022d e73d ebf8 0f3e 1f77 c73d
000001a0: c870 623d 917e e53d 3911 4f3e e93f 373d
000001b0: 3e3d f7be d180 be3e 3e3a e53b f4b1 bcbe
000001c0: 7a76 a13d b948 cfbd d319 443c 34ea 27bd
000001d0: a2b2 6dbd 5566 5cbc 8673 eebd b0a5 5ebd
000001e0: a63f fa3d 1c57 173d d822 853d 4465 adbd
000001f0: a67f f5bd e1eb 4d3d 5dfe 3c3c 9e7b 8c3d
00000200: 03c8 25bd 8c95 963d 8176 f9bb accb 2ebe
00000210: 071d 103d 4d64 4cbe 18ec 40bd 274f 08be
00000220: 816e d23d f8af 743f 6bae a6bf c933 76be
00000230: d9cd febd 4086 60bb 606e 803b d4f1 2a3d
00000240: ee5e 28be e6fa bcbd f580 0abe 3d07 c3bd
00000250: 2810 a7bc a0f0 05bd e621 d13d bd65 c1bd
00000260: 18ba b93c 8d8c 32be 87e9 78bd 78b9 453d
00000270: f024 ec3c 40dc ae3d 1e4e 10be f041 e7bd
00000280: 3105 ccbd 526d eb3d d02a 65bd 74ec 82bd
00000290: 007f 83bc 61e6 323e 1001 91bd 6059 e7bb
000002a0: 2f12 cdba 3964 93bd 0b26 88bd 3689 1b3e
000002b0: 44a5 0b3e 16be c7bd b509 37bd d933 02be
000002c0: 70ee 313e 87eb b7bc 4287 c83c 967b 0d3e
000002d0: 81d3 273e 6371 c8bd 3297 ebbd f655 3a3e
000002e0: 1cd8 11be f9cc 113d 2a7c f33d be64 0dbe
000002f0: 1c14 01bf 1c74 f7bd c539 4cbe 6166 d0bd
00000300: 824f 123f 0917 593f 1f60 78be dc58 003f
00000310: 0b95 543d 25dc 04bc b22d d8bc b8c9 5d3d
00000320: 00aa a0bc 6108 65bd 4980 77bd 30f9 78bd
00000330: 5f45 32bd 38b6 4abd 93c4 333d a77d cb3d
00000340: 69dd 7b3c d922 ac3d d110 773d e136 9c3d
00000350: 3215 6f3c 932f 863c cf15 d1bc 98ec f8bd
00000360: 9a61 3abd f8f3 38be 0cb9 a7bd 968a e1bd
00000370: 621e 3e3f d810 f93e d282 363f 4d44 05be
00000380: d067 c9bd 2517 c33c f20b dbbd 1b36 4a3e
00000390: 8f93 433e 3a77 f63d 0558 4b3e fc1e 89bd
000003a0: 7ee1 49bd a9c0 efbd 7fe0 9cbd c15b 163c
000003b0: 8fcf 6e3d a577 d83d 5a2e 4e3d 7840 913d
000003c0: 0322 5fbd b41a 0c3e cc42 f13d 81ef f33d
000003d0: b5c8 bfbb ccef 4d3e c75a 113e 818e 2f3e
000003e0: 43aa b43f 9ba0 ae3d d975 303f d2e5 c03e
000003f0: 5fbf cfbb 4d2e dabd 9bcd 3abe 4b26 563c

fc1.bias f4 [32]
0.32226166 0.30633146 0.08038096 -0.1490124 0.082319945 0.12735273 0.10715172 0.10523769
0.30970514 -0.042656597 0.16614673 -0.11833178 0.3198765 0.03430165 0.014628253 -0.17435616
-0.10407697 -0.10600083 0.03676655 -0.22188774 0.19909354 0.30276728 -0.07829901 -0.05270973
-0.041448966 0.14705168 -0.13986596 0.050271023 -0.1299923 0.20301719 -0.124540254 0.23593399
00000000: 7bff a43e 7ad7 9c3e c69e a43d b596 18be
00000010: 5c97 a83d c168 023e 5c72 db3d dc86 d73d
00000020: ac91 9e3e afb8 2ebd 5e22 2a3e ef57 f2bd
00000030: dac6 a33e e37f 0c3d 57ab 6f3c 6c8a 32be
00000040: 4e26 d5bd f716 d9bd 8698 163d 8a36 63be
00000050: 2ddf 4b3e 5004 9b3e 3b5b a0bd 28e6 57bd
00000060: 64c6 29bd b794 163e 0639 0fbe fde8 4d3d
00000070: b41c 05be bde3 4f3e f60e ffbd ae98 713e

fa1.weight f4 [32, 2]
0.048554376 0.03343779 -0.03787206 0.12993313 0.4933463 0.79544026 0.122058436 -0.020426556
0.15436234 0.017085334 0.07347895 -0.106328085 0.088791616 0.8502332 0.01836045 -0.110310994
0.018183857 -0.06671022 -0.32000035 0.32358193 -0.15519121 -0.009491414 -0.389639 -0.047117658
-0.024968842 0.6243989 -0.12090519 1.0297837 0.13260128 0.78714675 0.14380552 -0.15633981
-0.18511714 0.046434868 -0.15499939 -0.013978884 0.00608408 -0.03759602 -0.06493946 -0.016016588
-0.16063973 0.6650409 -0.17583138 0.055703297 -0.08298421 0.8058613 0.16305141 -0.08489374
0.02030699 0.018988147 -0.10160222 0.459724 -0.10199309 0.54320383 -0.38857865 -0.01763648
-0.059840716 0.99770147 -0.13718362 0.5078247 -0.05572045 -0.088511944 -0.3705162 0.7914746
00000000: f4e0 463d 10f6 083d bc1f 1bbd 310d 053e
00000010: e397 fc3e f9a1 4b3f c6f9 f93d 9855 a7bc
00000020: 2911 1e3e 8bf6 8b3c 227c 963d 8ac2 d9bd
00000030: 61d8 b53d e2a8 593f a868 963c bbea e1bd
00000040: 50f6 943c 5e9f 88bd 16d7 a3be 88ac a53e
00000050: 72ea 1ebe e081 1bbc c37e c7be 72fe 40bd
00000060: 758b ccbc 9bd8 1f3f 249d f7bd f4cf 833f
00000070: a1c8 073e 7382 493f c141 133e 8b17 20be
00000080: 598f 3dbe 7d32 3e3d 29b8 1ebe b007 65bc
00000090: f65c c73b 49fe 19bd fbfe 84bd 3835 83bc
000000a0: be7e 24be 1f40 2a3f 240d 34be 2429 643d
000000b0: a0f3 a9bd ed4c 4e3f f3f6 263e c5dc adbd
000000c0: d85a a63c 088d 9b3c d314 d0bd f260 eb3e
000000d0: c1e1 d0bd 680f 0b3f c8f3 c6be 617a 90bc
000000e0: 8a1b 75bd 5d69 7f3f dd79 0cbe cd00 023f
000000f0: 203b 64bd c045 b5bd 4db4 bdbe 149e 4a3f

fa1.bias f4 [32]
-0.4404768 -0.35159743 0.080128334 -0.23803815 -0.56405574 -0.2944442 0.88212764 -0.10851812
-0.1276403 0.3910094 -0.2286061 0.37575033 0.81855786 0.4943706 0.20008875 -0.3643828
0.23228863 -0.3683965 -0.033848528 -0.18376642 0.08445662 -0.13004923 0.745749 -0.58852327
-0.42276004 0.49664658 0.34130204 0.32836014 0.60001487 0.5546764 -0.10161781 0.25692654
00000000: 2d86 e1be 9404 b4be 531a a43d 46c0 73be
00000010: f565 10bf 64c1 96be 1ed3 613f c03e debd
00000020: 24b4 02be 6232 c83e b817 6abe 5962 c03e
00000030: 028d 513f 251e fd3e 11e4 4c3e 6290 babe
00000040: 12dd 6d3e 779e bcbe c1a4 0abd 442d 3cbe
00000050: 98f7 ac3d a02b 05be 68e9 3e3f 76a9 16bf
00000060: 0174 d8be 7648 fe3e 24bf ae3e d21e a83e
00000070: 939a 193f 46ff 0d3f 001d d0bd e08b 833e

fca1.weight f4 [64, 64]
0.17643444 0.028686306 0.06338508 0.067403644 0.52667654 -0.12008904 0.20667183 0.4920359
0.03327433 0.53188646 0.0025988782 -0.024903698 -0.0667969 -0.061423104 0.403805 0.6009801
-0.38202864 -0.7018224 0.28561205 0.18373536 0.25588682 0.022527711 0.03425421 0.2257442
0.2504803 0.506865 -0.10891226 0.40343186 -0.05609992 0.04018765 0.24647798 -0.03340498
-0.0413913 0.107815996 -0.23195294 -0.022398531 0.07039772 0.114883885 -0.04729331 -0.101140276
-0.114872426 0.016939154 0.09781355 0.016406737 0.045103688 -0.045758676 -0.12609592 -0.016083218
0.054986253 -0.09241602 0.12535764 -0.10870761 -0.028593857 -0.014144942 0.10123064 0.052035794
0.08261408 -0.07457947 0.012270044 0.14767788 0.10505112 -0.007929323 0.027455464 0.13362886
0.156981 0.0044273445 0.015783632 0.14923695 0.6928947 0.04915586 0.1775924 0.4700513
-0.07412441 0.45515558 -0.08404865 0.1428641 0.03517194 -0.012720926 0.41659817 0.60190356
-0.29245955 -0.71566725 0.33766976 0.21748672 0.24058394 0.04729158 0.076973096 0.28312933
0.32520282 0.63032335 -0.107330725 0.5065321 0.09783202 -0.036411263 0.14970039 -0.061197057
0.10526204 -0.030603454 -0.080786906 -0.06147787 0.04362473 0.014677367 -0.06886928 0.089704454
-0.06341036 0.19421613 0.123282626 0.062577836 0.16393986 0.120543025 -0.079777345 -0.09181313
-0.0209713 0.07745159 0.07308742 -0.04984933 -0.14000344 -0.06273335 0.0636711 -0.11205445
-0.023152336 -0.035180517 0.054313444 0.10962664 0.13462204 0.06570239 -0.083012596 0.11470361
0.23231353 0.0535902 -0.03436888 0.14234503 0.5904279 -0.119691394 0.21852745 0.32077894
-0.0543201 0.3895376 -0.071402505 -0.02566792 0.08770835 0.06172692 0.50922114 0.487481
-0.32300794 -0.7453128 0.28459767 0.18279625 0.25006026 0.052893955 -0.040941752 0.19441755
0.34890428 0.5825891 0.005870208 0.26606274 0.03712032 0.06393209 0.28582713 0.006498122
0.10853599 -0.05148381 -0.12315189 -0.08475891 -0.038626507 0.11256397 -0.06888218 0.07818127
0.059376508 0.0007626303 -0.078169286 0.1570936 0.13072644 -0.016201766 0.047293935 -0.03405252
0.03774019 -0.08258319 -0.043726612 0.08034779 0.05579863 -0.120871484 -0.07389462 -0.017603155
0.10563329 -0.030314764 0.012494448 0.09291493 -0.080541186 0.06460861 0.033247948 -0.064429075
-0.072647825 -0.12465355 0.0015688862 -0.10177852 -0.035131805 -0.108490914 -0.105572365 -0.020394042
-0.13669758 0.06746215 0.009840742 0.025955766 -0.09609511 -0.13109466 -0.12701169 -0.015258014
-0.037441514 0.020809248 -0.05335616 -0.014292804 -0.07039027 0.010503953 -0.065398335 -0.07356426
0.027649865 0.054890994 0.04922749 0.052503053 0.017675355 -0.0055526784 0.04689642 0.040209435
-0.07115939 -0.07109423 -0.12966414 -0.0667256 -0.06959501 -0.027420238 0.10373949 -0.06490667
-0.046926226 0.05585586 -0.0032547414 -0.1392308 -0.07126945 -0.018498722 0.028798025 -0.077173635
-0.048099708 -0.023448706 0.11957389 -0.02896832 -0.08587278 0.1022532 0.053013425 -0.06349671
-0.0032577217 -0.0499512 0.060467824 0.012165401 0.030871332 -0.07275958 -0.07563418 0.019667093
00000000: 3bab 343e 8bff ea3c 09d0 813d ec0a 8a3d
00000010: 46d4 063f 3ef1 f5bd c8a1 533e 21ec fb3e
00000020: aa4a 083d b629 083f f151 2a3b d702 ccbc
00000030: d0cc 88bd cb96 7bbd 87bf ce3e d5d9 193f
00000040: 4299 c3be a2aa 33bf be3b 923e 1f25 3c3e
00000050: 9903 833e 098c b83c 244e 0c3d 7d29 673e
00000060: f43e 803e e8c1 013f 640d dfbd 9f8e ce3e
00000070: 08c9 65bd ce9b 243d b964 7c3e a9d3 08bd
00000080: ec89 29bd a2ce dc3d 1285 6dbe 207d b7bc
00000090: ae2c 903d 3e48 eb3d a1b6 41bd a222 cfbd
000000a0: 3c42 ebbd fbc3 8a3c 7852 c83d 6c67 863c
000000b0: a5be 383d 736d 3bbd 4a1f 01be f4c0 83bc
000000c0: 4439 613d 9c44 bdbd c15d 003e 18a2 debd
000000d0: aa3d eabc 30c0 67bc 0352 cf3d 7c23 553d
000000e0: 9231 a93d 1fbd 98bd 4b08 493c df38 173e
000000f0: 0b25 d73d fee9 01bc 48ea e03c 01d6 083e
00000100: a1bf 203e 4213 913b ad4c 813c 92d1 183e
00000110: 8c61 313f a857 493d c8da 353e 90aa f03e
00000120: 8ace 97bd 270a e93e b321 acbd f74a 123e
00000130: 7410 103d 6e6b 50bc 5b4c d53e 5a16 1a3f
00000140: 42bd 95be f835 37bf 0de3 ac3e d7b4 5e3e
00000150: a35b 763e d1b4 413d 12a4 9d3d 54f6 903e
00000160: fc80 a63e df5c 213f 36d0 dbbd 16ac 013f
00000170: 275c c83d fa23 15bd 0f4b 193e c4a9 7abd
00000180: a093 d73d 18b4 fabc 9b73 a5bd 38d0 7bbd
00000190: d8af 323d 5779 703c 560b 8dbd f8b6 b73d
000001a0: 4add 81bd 98e0 463e 9a7b fc3d cf28 803d
000001b0: dadf 273e 43df f63d 4e62 a3bd 8608 bcbd
000001c0: 01cc abbc f09e 9e3d dbae 953d d02e 4cbd
000001d0: 105d 0fbe 587a 80bd fe65 823d ce7c e5bd
000001e0: f8a9 bdbc 7219 10bd c677 5e3d ef83 e03d
000001f0: 5cda 093e fa8e 863d 8202 aabd bae9 ea3d
00000200: 99e3 6d3e 6681 5b3d 62c6 0cbd e5c2 113e
00000210: 4826 173f c320 f5bd a9c5 5f3e 233d a43e
00000220: c17e 5ebd 7971 c73e 7a3b 92bd 8845 d2bc
00000230: 6fa0 b33d 5ed5 7c3d 515c 023f 1c97 f93e
00000240: 4c61 a5be d2cc 3ebf c9b6 913e f12e 3b3e
00000250: e607 803e 55a7 583d 8ab2 27bd 6515 473e
00000260: 95a3 b23e 8f24 153f e05a c03b 6039 883e
00000270: 7a0b 183d d4ee 823d ef57 923e 33ee d43b
00000280: 1e48 de3d b0e0 52bd 0f37 fcbd 1496 adbd
00000290: d436 1ebd f087 e63d 1a12 8dbd 801d a03d
000002a0: c834 733d 41eb 473a 3817 a0bd 25dd 203e
000002b0: 27dd 053e 91b9 84bc 49b7 413d a87a 0bbd
000002c0: 7595 1a3d 6021 a9bd ad1a 33bd 628d a43d
000002d0: 1b8d 643d 788b f7bd 1056 97bd 7e34 90bc
000002e0: 4456 d83d ab56 f8bc 83b5 4c3c 2f4a be3d
000002f0: c7f2 a4bd 8551 843d 002f 083d 64f3 83bd
00000300: 62c8 94bd 5c4a ffbd 16a3 cd3a 4271 d0bd
00000310: 5ee6 0fbd 7c30 debd 5336 d8bd 6811 a7bc
00000320: 73fa 0bbe 9829 8a3d 103b 213c 30a1 d43c
00000330: 83cd c4bd ae3d 06be 5a0f 02be c0fc 79bc
00000340: 465c 19bd 2878 aa3c fd8b 5abd 5d2c 6abc
00000350: c628 90bd c618 2c3c 90ef 85bd dca8 96bd
00000360: f881 e23c 61d5 603d c4a2 493d 710d 573d
00000370: e8cb 903c 3ef3 b5bb 7616 403d a6b2 243d
00000380: 04bc 91bd da99 91bd adc6 04be 6ea7 88bd
00000390: d487 8ebd 68a0 e0bc 5f75 d43d caed 84bd
000003a0: b735 40bd 1dc9 643d 804d 55bb 8592 0ebe
000003b0: b8f5 91bd a28a 97bc d6e9 eb3c 360d 9ebd
000003c0: 3304 45bd 8017 c0bc 28e3 f43d f84e edbc
000003d0: 11de afbd 206a d13d 9b24 593d 900a 82bd
000003e0: 807f 55bb a199 4cbd 1cad 773d 6451 473c
000003f0: e0e5 fc3c fa02 95bd 18e6 9abd e21c a13c

fca1.bias f4 [64]
0.010613504 0.094764836 -0.055594087 -0.08520967 0.0031156186 0.027253112 -0.023826333 0.05082442
0.12789509 0.10074665 -0.035741024 0.15149839 0.045243803 0.07253626 0.011470269 0.04890363
-0.108008735 0.07363379 0.028900398 0.16663659 0.16354065 0.07073454 0.053263064 -0.040395707
-0.13463743 -0.068334505 -0.016229192 -0.12097292 0.116525196 -0.07872289 0.01993381 -0.049947504
-0.0425664 -0.33062264 0.16170353 0.104087204 0.16916734 -0.09147622 0.05045852 0.059402373
-0.4356938 0.08713193 0.022078557 -0.018512778 0.046137474 0.07292949 -0.06608003 0.17477517
0.06222561 -0.04678707 -0.10101601 0.08917342 -0.012509844 0.09686231 0.13299596 0.0041429875
-0.07231079 0.08849019 -0.08746722 0.0940925 -0.07035725 0.1198269 0.12873945 0.17894642
00000000: 43e4 2d3c 1114 c23d a0b6 63bd 6882 aebd
00000010: 682f 4c3b eb41 df3c 712f c3bc 442d 503d
00000020: eef6 023e 4254 ce3d 2e65 12bd 6522 1b3e
00000030: 9151 393d e48d 943d cced 3b3c 2c4f 483d
00000040: af33 ddbd 50cd 963d 87c0 ec3c c8a2 2a3e
00000050: 3377 273e 45dd 903d 5f2a 5a3d f875 25bd
00000060: 65de 09be f6f2 8bbd 15f3 84bc a6c0 f7bd
00000070: c3a4 ee3d 7739 a1bd 3b4c a33c c195 4cbd
00000080: 1b5a 2ebd 5f47 a9be 9c95 253e ac2b d53d
00000090: 343a 2d3e e257 bbbd 98ad 4e3d e74f 733d
000000a0: 4213 dfbe 3a72 b23d 17de b43c 1ca8 97bc
000000b0: a6fa 3c3d 0e5c 953d f754 87bd 43f8 323e
000000c0: 48e0 7e3d cca3 3fbd 7be1 cebd 8ea0 b63d
000000d0: 17f6 4cbc bf5f c63d 1830 083e e6c1 873b
000000e0: ae17 94bd 583a b53d 0422 b3bd 92b3 c03d
000000f0: 7617 90bd ce67 f53d 46d4 033e bb3d 373e

fca2.weight f4 [1, 64]
-0.4839626 -0.53477716 -0.49691257 -0.017230222 -0.5023898 -0.5267426 0.0135441935 0.0023949412
-0.51343 -0.6091798 -0.55940664 -0.5741669 -0.49233356 -0.555121 0.016907876 -0.45693505
0.021033078 -0.48448783 -0.5728453 -0.52131146 -0.6911872 -0.5054173 -0.5310067 -0.0005437711
-0.017790731 -0.5206191 -0.51221013 0.024578895 -0.61187595 0.0059791226 -0.53757656 -0.5365336
-0.5791065 2.2802665 -0.55767393 -0.49906445 -0.4816593 -0.00038447115 -0.500104 -0.5530649
2.206052 0.016038442 -0.45912498 -0.5291271 -0.514196 -0.54666734 -0.45733982 -0.46366578
-0.51764965 -0.45428756 -0.49579483 -0.0065162666 -0.5119673 -0.48863533 -0.5305474 -0.514634
-0.51685214 -0.48100132 -0.0067262296 -0.54069155 -0.0011003866 -0.5780997 -0.4579804 -0.4617549
00000000: f2c9 f7be 28e7 08bf 536b febe 6526 8dbc
00000010: 9e9c 00bf 9ad8 06bf 77e8 5d3c 72f4 1c3b
00000020: 2670 03bf 35f3 1bbf 4635 0fbf 9afc 12bf
00000030: 2513 fcbe 691c 0ebf 6382 8a3c 64f3 e9be
00000040: 904d ac3c ca0e f8be fda5 12bf ab74 05bf
00000050: a5f1 30bf 0763 01bf 0ef0 07bf dc8b 0eba
00000060: debd 91bc 4b47 05bf 3420 03bf ae59 c93c
00000070: e7a3 1cbf 84ec c33b 9e9e 09bf 445a 09bf
00000080: 5340 14bf e3ef 1140 b8c3 0ebf 6085 ffbe
00000090: 0c9c f6be d892 c9b9 d106 00bf a995 0dbf
000000a0: f52f 0d40 0d63 833c 6e12 ebbe e074 07bf
000000b0: 59a2 03bf 64f2 0bbf 7228 eabe 9a65 edbe
000000c0: b084 04bf 6198 e8be d2d8 fdbe 6886 d5bb
000000d0: 4a10 03bf 692e fabe f4d1 07bf 0ebf 03bf
000000e0: 6c50 04bf ce45 f6be b467 dcbb c36a 0abf
000000f0: d93a 90ba 58fe 13bf 687c eabe 236b ecbe
