src/Models/training/550_critic.pt (torch_old, 22090 bytes, 7 tensors)

fc1.weight f4 [32, 28]
0	0xbdc8f7ee	-0.09812914
1	0xbd9f5b73	-0.077811144
2	0x3e021ef9	0.12707128
3	0xbcbd3b18	-0.023099467
4	0xbe2a7b24	-0.16648537
5	0xbd734fea	-0.059402384
6	0xbd573482	-0.05254031
7	0xbe430479	-0.19044675
8	0x3e13e9b8	0.14444625
9	0xbaf43e87	-0.0018634357
10	0xbd9aa84f	-0.075516336
11	0xbcf96a6f	-0.03044626
12	0xbe342ba5	-0.17594774
13	0xbc53b887	-0.012922413
14	0xbd993d06	-0.074823424
15	0xbe532d3f	-0.20622729
16	0x3e041eb3	0.12902336
17	0x3e0543ac	0.13014096
18	0xbe3548cd	-0.17703553
19	0xbdab9465	-0.083779134
20	0xbcdf67a5	-0.027271101
21	0xbe0f906e	-0.1401994
22	0xbe0bead3	-0.13663797
23	0xbd7a3d60	-0.061093688
24	0xbd51410d	-0.051087428
25	0x3cb615c8	0.022227183
26	0x3caa3a97	0.020779891
27	0x3c2bd85b	0.010488595
28	0xbc37e7e9	-0.011224725
29	0x3d4a39d3	0.04937155
30	0xbcd13714	-0.025538959
31	0x3dcfa353	0.101385735
32	0xbd714dff	-0.058912273
33	0xbeb2d175	-0.34925428
34	0xbd4247fe	-0.04743194
35	0x3e162748	0.14663422
36	0x3d8dd849	0.06926019
37	0x3c708411	0.014679925
38	0x3d771e27	0.06033149
39	0xbdcad953	-0.099047326
40	0x3cd574f8	0.026056752
41	0x3cb3db24	0.02195508
42	0x3db7cb9c	0.08974382
43	0x3c642876	0.013925662
44	0x3e84d3e7	0.2594292
45	0xbe975246	-0.29554957
46	0xbcf672c1	-0.030084016
47	0x3df9840e	0.121833906
48	0x3d957d1a	0.07299252
49	0xbc1af1ec	-0.009457093
50	0xbdc194ba	-0.094521955
51	0xbe5230b9	-0.20526399
52	0x3cd24edc	0.025672369
53	0xbda52ebd	-0.08065555
54	0x3fca13d1	1.5787297
55	0xbece57e1	-0.4030142
56	0xbdea4f32	-0.114408866
57	0x3e164f03	0.14678578
58	0xbdf77294	-0.12082401
59	0xbe04cbd4	-0.1296838
60	0xbdc7ac19	-0.09749622
61	0x3db971c2	0.09054901
62	0x3dfe616a	0.12420924
63	0x3dc33f11	0.09533513
64	0xbcd4c658	-0.025973484
65	0xbe253dce	-0.16136858
66	0x3cb284a8	0.021791771
67	0xbde8e3e9	-0.113715954
68	0xbdfc8c3e	-0.123314366
69	0x3d32c05b	0.043640476
70	0xbdf5c4d4	-0.120004326
71	0xbd8cbaea	-0.068715885
72	0xbe1ca0f1	-0.1529577
73	0x3dc1b870	0.09459007
74	0xbe00066e	-0.12502453
75	0xbd158708	-0.03650573
76	0x3d511254	0.05104287
77	0xbdb6f51b	-0.08933469
78	0xbcca9e78	-0.024733767
79	0xbddde462	-0.10834576
80	0xbd1db592	-0.038503237
81	0x3e1d09b1	0.15335728
82	0x3c9a5298	0.018838212
83	0xbd0eb758	-0.03484282
84	0xbd9345a9	-0.07191021
85	0xbd2d9bef	-0.042385038
86	0xbda166e5	-0.07880954
87	0xbdb60c1e	-0.0888903
88	0xbe4dd222	-0.2009969
89	0x3dec8d6b	0.11550411
90	0x3d98ac7c	0.07454774
91	0x3dae111e	0.084993586
92	0xbe1f20db	-0.15539877
93	0xbe07280f	-0.13198875
94	0x3c6c2ca1	0.014414937
95	0xbe4fca0c	-0.20291919
96	0x3d6dd1a4	0.058061257
97	0xbe4aebf0	-0.19816566
98	0x3de9ca61	0.11415554
99	0xbe334914	-0.17508346
100	0xbd8a9ec9	-0.06768567
101	0xbe103866	-0.14084014
102	0x3da59537	0.08085101
103	0xbe2041ec	-0.15650147
104	0xbc53fb69	-0.012938359
105	0x3c6ea573	0.014565813
106	0xbe4565db	-0.19277136
107	0xbddc58ee	-0.107591495
108	0xbe4da342	-0.20081809
109	0xbe2268b6	-0.15860257
110	0xbcc28da7	-0.023749186
111	0xbe2e6ee0	-0.17034483
112	0x3d94b0a1	0.07260252
113	0xbd8637cf	-0.065536134
114	0x3e3ceb62	0.18449166
115	0xbd90dd11	-0.07073415
116	0x3e861315	0.26186433
117	0x3dc5e61c	0.096630305
118	0xbc823c4b	-0.01589789
119	0xbd7a7f3d	-0.0611565
120	0x3b35c8aa	0.0027738013
121	0x3c057c2d	0.008147282
122	0xbdd8da8f	-0.10588562
123	0xbd44449a	-0.047916986
124	0x3e22554b	0.15852849
125	0xbe4f1481	-0.20222665
126	0xbe1eeedb	-0.15520804
127	0xbe13100c	-0.1436159
128	0x3e6a6d30	0.22893214
129	0x3d81ba09	0.063343115
130	0x3db79178	0.08963293
131	0x3c9ed393	0.019387996
132	0x3d68f4ab	0.05687396
133	0x3e2ebebf	0.17064951
134	0x3d480c67	0.048839953
135	0xbddc53ee	-0.10758196
136	0xc018d20f	-2.387821
137	0xbfddad64	-1.731854
138	0x3f9272e0	1.1441307
139	0x3e7e6378	0.24842632
140	0x3cf4773a	0.029842008
141	0x3ee924ed	0.45535985
142	0x3eb6cba8	0.35702252
143	0x3da152ee	0.07877146
144	0xbea5d048	-0.32385468
145	0xbe4c1eb2	-0.19933584
146	0x3e0ffd7a	0.14061537
147	0xbe097be5	-0.13426168
148	0xbe145dac	-0.14488858
149	0xbb9b2a6a	-0.0047352808
150	0xbea84fce	-0.32873386
151	0xbe58b128	-0.2116133
152	0xbd9add34	-0.075617224
153	0x3e0cd3ce	0.13752672
154	0xbe1586d3	-0.14602213
155	0x3e9b7c60	0.30368328
156	0xbe945ce5	-0.28977123
157	0xbe7c8c6d	-0.24662943
158	0x3e0fc827	0.14041196
159	0x3cd8ec81	0.026479961
160	0x3e380ba8	0.17973197
161	0x3e23f079	0.16009702
162	0x3e0481eb	0.12940185
163	0x3c073645	0.008252685
164	0xbfff3f58	-1.9941206
165	0xbfc1c1c1	-1.5137254
166	0x3facd873	1.3503555
167	0x3e6fbfc3	0.23412995
168	0x3de783c7	0.113044314
169	0x3e44ea18	0.19229925
170	0x3dc4002e	0.09570347
171	0x3e671956	0.22568259
172	0x3e4cdfaa	0.20007196
173	0xbd1d9f79	-0.038482163
174	0x3e17a401	0.14808656
175	0x3dd17f4b	0.10229357
176	0x3e6e0c58	0.23246896
177	0x3e3056bc	0.17220587
178	0xbc150fdb	-0.0090980185
179	0x3dcf2b43	0.101156734
180	0x3d7d095b	0.0617765
181	0x3defaa5d	0.11702416
182	0xbcbe7a60	-0.023251712
183	0x3e0171e7	0.12641107
184	0x3e24672e	0.16054985
185	0x3e365af3	0.17808132
186	0x3e40b280	0.18818092
187	0xbdb83265	-0.08993987
188	0x3e1fe04d	0.15612908
189	0x3e1c8ad9	0.15287341
190	0x3caafebf	0.020873426
191	0x3dcca146	0.09991698
192	0x3f94315b	1.1577562
193	0x3f0d1544	0.55110574
194	0x3edfa618	0.43681407
195	0x3f0abffb	0.5419919
196	0x3db39793	0.08769145
197	0xbe93875a	-0.28814203
198	0xbda56301	-0.08075524
199	0xbe77d456	-0.24202093
200	0xbd7a14f0	-0.061055124
201	0x3e0e3a82	0.13889506
202	0xbcb1d4d6	-0.021707933
203	0xbe25474e	-0.16140482
204	0xbcda60f9	-0.026657568
205	0xbe0e1955	-0.13876851
206	0x3c262118	0.010139726
207	0x3d50644a	0.050876893
208	0x3ea39ed4	0.31957114
209	0x3db1cbee	0.086814746
210	0x3dc3507c	0.095368356
211	0xbd174976	-0.036935292
212	0xbe0e9b17	-0.1392635
213	0x3d922868	0.07136613
214	0xbd17664b	-0.03696279
215	0xbd8c5107	-0.06851392
216	0xbdafb8db	-0.0858018
217	0xbe109655	-0.14119847
218	0xbdfd9eb2	-0.12383784
219	0x3dd8802d	0.105713226
220	0x3ea3b4ca	0.3197387
221	0xbde0348c	-0.109475225
222	0x3ff22346	1.8917015
223	0xbed2958e	-0.41129726
224	0x3e3411d3	0.17584924
225	0x3d8e9088	0.06961161
226	0x3e20b25e	0.15693042
227	0xbd66660c	-0.056249663
228	0xbc99fef0	-0.018798321
229	0xbca6cabf	-0.020360349
230	0x3e1d6d5a	0.15373746
231	0xbd48d4e4	-0.049031153
232	0x3e19e2ac	0.15027875
233	0x3e7c3f05	0.24633415
234	0x3de80835	0.1132969
235	0x3e240375	0.16016944
236	0x3e573a71	0.21018387
237	0x3c4bd3a8	0.0124405995
238	0x3e0f4ba9	0.13993706
239	0x3e00ef5c	0.12591308
240	0x3d20b0ed	0.03923123
241	0xbca9c20d	-0.020722413
242	0x3d939db3	0.07207813
243	0x3d794055	0.060852367
244	0x3d9e00a5	0.07714967
245	0x3e1cf80e	0.15329
246	0x3cc75656	0.02433316
247	0xbdd72a0b	-0.10506066
248	0x3cded702	0.027202133
249	0x3e855a56	0.26045483
250	0x3fa09350	1.2544956
251	0x3e4975a9	0.1967379
252	0x3d15c29e	0.036562555
253	0x3c6f3d6e	0.014602048
254	0x3d8d1025	0.06887845
255	0x3e5fc305	0.21851738

fc1.bias f4 [32]
0	0xbd413b70	-0.047175825
1	0xbe16a287	-0.14710437
2	0x3db89926	0.09013586
3	0x3e1944d5	0.14967664
4	0xbe16dd71	-0.1473291
5	0xbedf7989	-0.4364741
6	0x3f0496a6	0.5179237
7	0xbec6ea97	-0.38850853
8	0x3f5ad1ef	0.85476583
9	0x3f19fcf7	0.6015162
10	0xbec4d057	-0.384402
11	0xbc8e6780	-0.017383337
12	0x3c8bba69	0.01705666
13	0xbe046a3c	-0.1293115
14	0x3a50b46c	0.0007961455
15	0x3f052965	0.5201629
16	0x3de6dc5e	0.112725005
17	0x3f1dc97a	0.61635554
18	0x3da4dd9f	0.08050083
19	0xbe166614	-0.14687377
20	0xbe0b2c20	-0.13591051
21	0xbd56cd14	-0.05244167
22	0x3f4b3ffe	0.7939452
23	0x3ddda2a2	0.10822035
24	0xbe0ba702	-0.13637927
25	0x3d26a279	0.04068229
26	0x3f045746	0.5169567
27	0x3ed48b33	0.4151245
28	0xbe6238db	-0.22092001
29	0x3ecad8c9	0.3961852
30	0xbbfa1c94	-0.0076328013
31	0xbe0b0c2a	-0.13578859

fa1.weight f4 [32, 2]
0	0xbd0a615c	-0.033784255
1	0xbd31dc7c	-0.04342316
2	0xbf1cd986	-0.61269414
3	0xbedd385b	-0.43207058
4	0xbdb7bf9e	-0.08972095
5	0x3f08eb50	0.5348406
6	0xbdc6e139	-0.097109266
7	0xbe0ab2aa	-0.13544717
8	0x3e46c2b2	0.19410208
9	0x3f40823f	0.7519874
10	0x3f21a02a	0.63135016
11	0xbde25e0a	-0.11053093
12	0xbdf69102	-0.12039377
13	0x3e5cf890	0.21579194
14	0xbeda9014	-0.42688048
15	0xbcb4ccd8	-0.022070333
16	0x3e8767df	0.26446435
17	0x3f050731	0.519641
18	0xbdad5d6f	-0.08465087
19	0xbd28ac84	-0.04118015
20	0x3f82961a	1.0202057
21	0x3e800d2e	0.25010055
22	0xbcf55050	-0.029945523
23	0xbdb61404	-0.088905364
24	0x3df7babe	0.12096165
25	0x3ce3debd	0.02781617
26	0xbf652d48	-0.8952222
27	0xbf6881ea	-0.90823233
28	0x3d1afc44	0.037838235
29	0xbde08b70	-0.109640956
30	0x3f0991d4	0.5373814
31	0x3eb0a4e4	0.34500802
32	0xbde0790e	-0.10960589
33	0x3cf2eba8	0.029653385
34	0x3df5fda6	0.1201127
35	0x3ba86500	0.0051389933
36	0x3e46628d	0.19373532
37	0x3f0d730f	0.5525369
38	0xbe188c37	-0.14897238
39	0x3e0e558d	0.13899823
40	0x3d21b94c	0.039483353
41	0xbdb31750	-0.08744681
42	0xbdb89ee2	-0.090146795
43	0x3e11af67	0.14227067
44	0xbe18eafe	-0.14933392
45	0xbdb42f8d	-0.08798132
46	0x3c1ea000	0.009681702
47	0xbe05a5f4	-0.13051587
48	0x3f11be66	0.5693115
49	0x3ec0518d	0.37562218
50	0xbe09770a	-0.13424316
51	0xbde8edc6	-0.11373477
52	0x3df6e24a	0.1205488
53	0xbe0774aa	-0.13228098
54	0xbe2bfdde	-0.16796061
55	0xbd71f194	-0.059068277
56	0x3de0514c	0.10953006
57	0x3ef3829a	0.4756058
58	0x3ecd1529	0.40055206
59	0x3f2dca3a	0.678867
60	0xbda4c55f	-0.08045458
61	0xbd8801b2	-0.06640948
62	0x3f28ea03	0.65982074
63	0x3efa3b86	0.48873538

fa1.bias f4 [32]
0	0xbe5f15f6	-0.21785721
1	0x3f05a4a0	0.5220432
2	0x3f90e5f4	1.1320176
3	0xbeffe136	-0.4997651
4	0x3f8e4157	1.111369
5	0x3f8f0c75	1.1175677
6	0x3f738ece	0.9513978
7	0x3f6b7001	0.9196778
8	0x3fa47aed	1.2850014
9	0xbc3629c0	-0.011118352
10	0x3f994f0f	1.1977252
11	0xbf007808	-0.50183153
12	0xbf174a52	-0.5909778
13	0x3e9ccd19	0.30625227
14	0xbef65f4c	-0.4811958
15	0x3f6f502d	0.93481714
16	0xbc3591c0	-0.011082113
17	0xbeaa92ce	-0.33315128
18	0x3f92a671	1.1457044
19	0xbf3443fa	-0.70416224
20	0xbd0c8870	-0.034309804
21	0xbeb8c243	-0.3608571
22	0xbf09fbc9	-0.5389982
23	0xbe6f72bc	-0.23383611
24	0x3fb5eb8e	1.421251
25	0xbe95e3ef	-0.29275462
26	0xbf2fb8f8	-0.68641615
27	0xbef25496	-0.4733016
28	0x3f89a894	1.0754571
29	0x3f8ca584	1.0988011
30	0xbf0dd685	-0.55405456
31	0x3faa3143	1.3296283

fca1.weight f4 [64, 64]
0	0x3d40a6ff	0.04703426
1	0x3d845f71	0.064635165
2	0xbdf3e2bc	-0.119084805
3	0x3db70a06	0.08937459
4	0x3d91b17c	0.071139306
5	0xbcd0506c	-0.025428973
6	0xbd0c83b4	-0.03430529
7	0x3e28f4c4	0.1649962
8	0x3c95b27c	0.018273585
9	0x3d7530f3	0.059861135
10	0x3e78d588	0.24300206
11	0x3dc787a5	0.09742669
12	0x3e4ca5f0	0.19985175
13	0x3e0d7cc2	0.13817123
14	0xbdd07203	-0.10177996
15	0x3d517cf0	0.05114454
16	0x3db51dd5	0.08843581
17	0x3d2f6182	0.0428176
18	0xbd124ba7	-0.03571668
19	0x3ef53eab	0.47899374
20	0x3e948c09	0.29013088
21	0x3e901190	0.281384
22	0x3e0d1dc3	0.13780884
23	0x3f0818aa	0.53162634
24	0x3e0a288c	0.1349203
25	0x3f0063e8	0.50152445
26	0x3dda328b	0.106541716
27	0x3e0c4ebd	0.13701911
28	0xbda4d9b8	-0.08049339
29	0xbd950300	-0.07275963
30	0x3dfefc82	0.12450506
31	0xbd342b4f	-0.043986615
32	0xbd991a6a	-0.07475741
33	0x3e730e82	0.23736003
34	0x3dea301f	0.114349596
35	0x3c249bf0	0.010046944
36	0x3e9a37ea	0.30120784
37	0x3dd39f41	0.1033311
38	0x3e4dafba	0.20086566
39	0x3e0c353d	0.13692184
40	0x3da9d06b	0.08291706
41	0xbd9de782	-0.07710172
42	0x3d88450a	0.06653793
43	0x3d8b815a	0.06811781
44	0xbd2b62c8	-0.041842252
45	0x3f4ac2d7	0.7920355
46	0xbd9ce38a	-0.07660587
47	0x3e35d084	0.17755324
48	0xbdbc9646	-0.0920835
49	0x3d027ba8	0.03185621
50	0x3e582226	0.21106777
51	0xbd651414	-0.05592735
52	0xbd9cfcc6	-0.076654
53	0x3db282ae	0.087163314
54	0xbd39edcc	-0.045392796
55	0x3dcc8a01	0.0998726
56	0x3e827cf9	0.25485972
57	0x3df55486	0.11979012
58	0x3df8b2d6	0.12143485
59	0xbd0e17a4	-0.034690514
60	0x3e47d13f	0.19513415
61	0x3e9228e9	0.28546837
62	0xbd36a8bc	-0.04459451
63	0x3d984538	0.074350774
64	0x3dc1c222	0.09460856
65	0xbdf11fe0	-0.11773658
66	0xbda56270	-0.08075416
67	0xbc4b49f0	-0.012407765
68	0xbd83aab4	-0.064290434
69	0x3c02c560	0.007981628
70	0xbdc2ccd0	-0.09511721
71	0x3dc229b8	0.094806135
72	0xbccb8a80	-0.024846315
73	0x3dfde724	0.12397602
74	0xbd0a6848	-0.033790857
75	0xbcf60e28	-0.030036047
76	0x3d73869a	0.059454538
77	0x3c30a230	0.010780856
78	0xbd157ea4	-0.036497727
79	0xbd9e0d04	-0.07717326
80	0x3d59a19c	0.05313264
81	0x3d069548	0.03285721
82	0xbd76f440	-0.06029153
83	0x3d88ee04	0.06686023
84	0x3d1be6c8	0.038061887
85	0xbca2b308	-0.01986076
86	0xbdf3a1f2	-0.11896123
87	0x3d60980c	0.054832503
88	0x3d285073	0.041092347
89	0xbd6850bc	-0.05671762
90	0xbdd5584c	-0.10417232
91	0xbde85361	-0.11344028
92	0x3dbb099e	0.09132694
93	0xbdefe6d0	-0.11713946
94	0xbbcb2120	-0.006199017
95	0x3d8a883c	0.06764266
96	0xbd3f9a14	-0.0467778
97	0x3d326a6b	0.04355852
98	0xbdd02abc	-0.10164401
99	0xbd78a260	-0.060701728
100	0x3c4d707a	0.0125390235
101	0xbcce6078	-0.025192484
102	0xbdb47e50	-0.08813155
103	0x3cdebfd0	0.027191073
104	0x3dc1bdf2	0.09460057
105	0x3baa16a0	0.0051906854
106	0xbde835b0	-0.11338365
107	0xbd8bf2fa	-0.068334535
108	0xbd3da034	-0.04629536
109	0xbdab8f04	-0.083768874
110	0x3c9332a8	0.01796849
111	0xbde8fc0c	-0.11376199
112	0x3d0e6f60	0.034774184
113	0xbdabad5c	-0.08382675
114	0xbd88da5a	-0.06682272
115	0xbdf8224e	-0.12115918
116	0xbdf7224e	-0.1206709
117	0xbcae5bb8	-0.02128397
118	0x3ca52028	0.020156935
119	0x3d1562e0	0.036471248
120	0xbda2113e	-0.07913445
121	0x3dfe67cb	0.12422141
122	0x3d6ddb2c	0.058070347
123	0xbdd9b272	-0.10629739
124	0xbd95eb34	-0.07320252
125	0x3c29aa60	0.010355562
126	0x3dc99e54	0.09844652
127	0xbc7e5df0	-0.015525326
128	0x3de1fe43	0.11034825
129	0x3dc61552	0.09672035
130	0x3bc27260	0.0059340447
131	0xbadbe725	-0.001677726
132	0x3e0e0137	0.13867651
133	0xbc245f17	-0.010032437
134	0xbdc990f1	-0.098420985
135	0x3e323313	0.17402296
136	0x3d484920	0.048897862
137	0xbd37594d	-0.0447629
138	0x3ea4b335	0.32167974
139	0x3d60fec8	0.05493048
140	0x3eaafdf2	0.3339687
141	0x3c6144d4	0.01374932
142	0xbdb089f0	-0.086200595
143	0x3dcb1405	0.09915928
144	0xbd300138	-0.042969912
145	0x3dd52d60	0.10409045
146	0x3d1fd48b	0.039021056
147	0x3ecfada9	0.4056218
148	0x3d82de02	0.06390001
149	0x3e8faea6	0.28062934
150	0x3d3ee078	0.04660079
151	0x3ed6d635	0.41960302
152	0x3e4772cb	0.19477384
153	0x3ecbdfc9	0.39819172
154	0x3d9afdb9	0.07567925
155	0xbd9ec3d0	-0.07752192
156	0xbe06d606	-0.13167581
157	0x3c81a88c	0.01582744
158	0xbc93e5ed	-0.018053973
159	0xbbd7a8d1	-0.006581404
160	0xbce51098	-0.027962014
161	0x3ebb6622	0.3660136
162	0x3e638810	0.22219872
163	0xbdd8a016	-0.10577409
164	0x3e3ff4d1	0.18745734
165	0x3e4b9905	0.19882591
166	0x3e6cedbc	0.23137563
167	0x3e1f09e8	0.15531123
168	0x3e8d38ce	0.275824
169	0x3cb64d68	0.022253707
170	0x3d5b7094	0.05357416
171	0xbd8dacc8	-0.06917721
172	0x3d0846f8	0.033270806
173	0x3f4e0ed8	0.804914
174	0xbab7e000	-0.0014028549
175	0x3e100993	0.14066152
176	0x3d9f9f32	0.07794036
177	0xbd8bd90c	-0.06828508
178	0x3d6eb4ff	0.05827808
179	0xbd61ddd4	-0.055143192
180	0x3aead700	0.0017916858
181	0x3d738eac	0.059462234
182	0xbd6dbf98	-0.058044046
183	0xbda7b2aa	-0.08188374
184	0x3e8bd551	0.27311185
185	0xbc4d0800	-0.012514114
186	0xbcf27d60	-0.0296008
187	0x3db9b020	0.09066796
188	0x3da0d383	0.07852843
189	0x3e01e906	0.12686548
190	0x3dc8637e	0.09784602
191	0x3e5b1aee	0.21396992
192	0xbdbe7864	-0.093003064
193	0x3e21545e	0.1575484
194	0x3db92fce	0.09042321
195	0xbdd8808b	-0.105713926
196	0x3e06b264	0.13153988
197	0x3d5b6da1	0.053571347
198	0xbd915708	-0.07096678
199	0x3ceb3a11	0.028714212
200	0x3d91e7d9	0.071242996
201	0xbca91b28	-0.020642832
202	0x3ec0fd4a	0.37693244
203	0x3e3015bc	0.17195791
204	0x3e8ff78a	0.28118545
205	0x3e3c6607	0.18398295
206	0x3c8a50a9	0.016884165
207	0xbc12e26b	-0.008965115
208	0xbd67036e	-0.056399755
209	0x3db896be	0.09013127
210	0xbdd06a33	-0.10176506
211	0x3f1a4a7e	0.60269916
212	0x3e7dbb0c	0.24778384
213	0x3ec4b18f	0.38416716
214	0x3d816241	0.063175686
215	0x3f1ed086	0.6203693
216	0x3d291ca0	0.041287065
217	0x3ed67e4a	0.41893226
218	0x3cc04dc1	0.023474576
219	0x3c924e96	0.017859738
220	0x3cb6db26	0.022321295
221	0xbca15368	-0.019693092
222	0x3ce02f02	0.027366165
223	0x3e03577a	0.12826338
224	0x3c076710	0.008264318
225	0x3e96f623	0.29484662
226	0x3e0139db	0.12619726
227	0xbd05f924	-0.032708302
228	0x3e069766	0.13143691
229	0x3e275ba8	0.16343558
230	0x3e820c54	0.2540003
231	0x3e2156a7	0.15755711
232	0x3e6822ab	0.22669475
233	0xbc4c0230	-0.012451693
234	0x3e01b209	0.12665571
235	0x3dfae240	0.12250185
236	0xbdf59472	-0.11991204
237	0x3f537e00	0.82614136
238	0xbdb9b1b9	-0.09067101
239	0x3e16c6cd	0.14724274
240	0x3a855f05	0.0010175413
241	0xbd754fa3	-0.0598904
242	0x3df9b716	0.12193124
243	0x3dc7210e	0.097231016
244	0x3b8c0dfb	0.0042741275
245	0x3dfb4bec	0.1227034
246	0xbdfae352	-0.12250389
247	0x3db7aa58	0.08968037
248	0x3e4771e1	0.19477035
249	0x3dc34ac9	0.095357485
250	0x3d771f04	0.060332313
251	0xbde43eaa	-0.11144765
252	0x3e67d181	0.22638513
253	0x3e4e9ca5	0.20176943
254	0xbde65438	-0.11246532
255	0x3dd51b73	0.10405626

fca1.bias f4 [64]
0	0x3e0eb128	0.13934767
1	0x3c6efa86	0.014586097
2	0x3e8d604a	0.27612525
3	0x3eae6dd7	0.34068176
4	0x3e7f9126	0.24957713
5	0x3ccc5738	0.024943933
6	0x3e8bfb08	0.2733996
7	0x3e400a24	0.18753868
8	0x3dc70a1b	0.09718724
9	0x3e45e42f	0.19325326
10	0x3eb0e811	0.34552053
11	0x3df95281	0.121739395
12	0x3ec3d57e	0.3824882
13	0x3e5a21b7	0.21301924
14	0x3eb65f44	0.35619557
15	0x3e6e1b57	0.23252617
16	0xbc6a1cb0	-0.014289066
17	0x3e260b8b	0.16215341
18	0x3e17844a	0.14796558
19	0x3e09e307	0.1346551
20	0xbf3b3d09	-0.7314001
21	0x3e807271	0.25087312
22	0x3e5e59d5	0.21713956
23	0x3e3919a8	0.18076193
24	0x3e2eb3fa	0.17060843
25	0x3e56463a	0.20925227
26	0x3f211b5b	0.62932366
27	0x3e5c91ec	0.2154004
28	0x3dad45fe	0.084606156
29	0x3e850589	0.25980785
30	0x3ea5986b	0.32342848
31	0x3e179dc0	0.1480627
32	0x3ea59480	0.3233986
33	0x3e9ad463	0.30240163
34	0x3e178465	0.14796598
35	0x3c1eeef0	0.009700522
36	0x3e4ed2a3	0.20197539
37	0x3e281ee1	0.1641803
38	0x3e3860a0	0.1800561
39	0x3e8bdfd8	0.27319217
40	0x3e10125e	0.14069507
41	0x3e3bf082	0.18353465
42	0x3e3f3779	0.18673505
43	0x3e759ecb	0.23986356
44	0x3e77fd44	0.24217707
45	0x3ebb3047	0.3656027
46	0x3e662a04	0.22476965
47	0x3e2c9bd0	0.16856313
48	0x3dce357b	0.10068794
49	0x3e39de85	0.1815129
50	0x3e46060d	0.19338246
51	0x3c7b5a88	0.015341409
52	0x3e96e6fb	0.294731
53	0x3e64e694	0.22353584
54	0x3e81f64e	0.25383228
55	0xbec0bb4a	-0.3764289
56	0x3e876adf	0.26448724
57	0x3e630840	0.22171116
58	0x3e912b8f	0.28353545
59	0x3ea22744	0.31670582
60	0x3da6d73c	0.081465214
61	0x3e811dbc	0.25217998
62	0x3e5e4902	0.21707538
63	0x3ea2c4ae	0.3179068

fca2.weight f4 [1, 64]
0	0xbe438415	-0.19093354
1	0x3ad5b3d0	0.0016304199
2	0xbe46a271	-0.19397904
3	0xbe79fa86	-0.24411973
4	0xbe4b7d1d	-0.19871946
5	0xb795ca32	-1.7856339e-05
6	0xbe4fb440	-0.20283604
7	0xbe858c95	-0.26083818
8	0xbe42bc71	-0.19017197
9	0xbe4c256f	-0.19936155
10	0xbe6e0371	-0.232435
11	0xbe15d218	-0.14630926
12	0xbea063b8	-0.3132608
13	0xbe347c26	-0.17625484
14	0xbe932970	-0.28742552
15	0xbeab21c6	-0.33424205
16	0x3900a9d0	0.00012270291
17	0xbe475b72	-0.19468477
18	0xbe926522	-0.28592783
19	0xbe7309fa	-0.23734275
20	0x401cd9e7	2.4507997
21	0xbea16ef4	-0.31529963
22	0xbe6fa80b	-0.23403947
23	0xbe3be197	-0.18347774
24	0xbe205ab9	-0.15659608
25	0xbe5f2263	-0.21790461
26	0x4081b069	4.0527844
27	0xbe45ba3f	-0.19309328
28	0xbcad2aa7	-0.021138502
29	0xbe4db4d1	-0.20088507
30	0xbe8a4350	-0.2700448
31	0xbe934b14	-0.28768218
32	0xbe834637	-0.25639507
33	0xbe681ee3	-0.22668032
34	0xbe56d858	-0.20980966
35	0xba9c9fa3	-0.0011949431
36	0xbe53a23b	-0.20667355
37	0xbe93bbe6	-0.28854293
38	0xbe47c4dc	-0.1950869
39	0xbe5c8dbd	-0.21538444
40	0xbe30552e	-0.17219993
41	0xbe2a01e9	-0.16602291
42	0xbe3af6c4	-0.18258196
43	0xbe398270	-0.18116164
44	0xbf37a051	-0.71729
45	0xbeb3e2b4	-0.35133898
46	0xbea290f8	-0.31751227
47	0xbe4a448d	-0.19752713
48	0xbe6ed943	-0.23325066
49	0xbeb8f47c	-0.36124027
50	0xbe19055d	-0.14943452
51	0xbcab5db5	-0.020918706
52	0xbe7a005c	-0.244142
53	0xbe2b8ae9	-0.16752209
54	0xbe766a0a	-0.24063888
55	0x401d874a	2.4613824
56	0xbe538e76	-0.20659813
57	0xbe63e5c1	-0.22255613
58	0xbe583a78	-0.21116054
59	0xbe7abad8	-0.24485338
60	0xbe1dffeb	-0.15429656
61	0xbe2aed98	-0.16692197
62	0xbe813a13	-0.2523962
63	0xbe7c9cc3	-0.24669175
