src/Models/training/600_critic.pt (torch_old, 22090 bytes, 7 tensors)

fc1.weight f4 [32, 28]
-0.09812914 -0.077811144 0.12707128 -0.023099892 -0.16648537 -0.059402384 -0.05254031 -0.19044675
0.14444625 -0.0018640821 -0.075516336 -0.03044626 -0.17594774 -0.012923664 -0.074823424 -0.20622729
0.12902336 0.13014096 -0.17703553 -0.083779134 -0.027272271 -0.1401994 -0.13663797 -0.061093688
-0.051087428 0.022226298 0.020780869 0.010487292 -0.0004566229 0.04896352 -0.023045264 0.1120158
-0.065071255 -0.35073715 -0.038995057 0.15828668 0.06408628 0.018776419 0.061214138 -0.10057995
0.04072661 0.030236173 0.09247226 0.023010181 0.25433195 -0.2821625 -0.019361882 0.10307622
0.07585301 -0.006762979 -0.111072734 -0.1943344 0.035938974 -0.043214776 1.6416698 -0.44555992
-0.114408866 0.14678578 -0.12082401 -0.1296838 -0.09749622 0.09054901 0.12420924 0.09533513
-0.025973484 -0.16136858 0.021791771 -0.113715954 -0.123314366 0.043640476 -0.120004326 -0.068715885
-0.1529577 0.09459007 -0.12502453 -0.03650573 0.05104287 -0.08933469 -0.024733767 -0.10834576
-0.038503237 0.15335728 0.018838212 -0.03484282 -0.07191021 -0.042385038 -0.07880954 -0.0888903
-0.2009969 0.11550411 0.07454774 0.084993586 -0.15539877 -0.13198875 0.014413799 -0.20291919
0.058061257 -0.19816566 0.11415554 -0.17508346 -0.06768567 -0.14084014 0.08085101 -0.15650147
-0.012939497 0.014564675 -0.19277136 -0.107591495 -0.20081809 -0.15860257 -0.023749964 -0.17034483
0.09499461 -0.06539217 0.2057876 -0.06791892 0.26462695 0.09227043 -0.013095621 -0.06624456
-0.0072605168 0.016460719 -0.10167537 -0.0315678 0.16156362 -0.20819584 -0.17843807 -0.14841105
0.2371513 0.048199248 0.08179291 0.01719977 0.054099496 0.1934029 0.048373025 -0.0828116
-2.5495172 -1.8242882 1.2009147 0.24248995 0.026914602 0.4632554 0.36325774 0.080090284
-0.36058617 -0.20695171 0.16620763 -0.12589376 -0.1465472 -0.01605602 -0.3334529 -0.21357037
-0.07765079 0.13970566 -0.1454662 0.32141477 -0.3114876 -0.27252612 0.13656104 0.04031747
0.19953406 0.17549253 0.14392452 0.006991747 -2.1841543 -1.5840646 1.3647021 0.23298778
0.13027619 0.20397285 0.09317419 0.22448255 0.19466951 -0.037683833 0.15594788 0.11059328
0.24210727 0.17760535 -0.0053136987 0.10340698 0.060822587 0.11848862 -0.022305518 0.12228289
0.14758813 0.17418998 0.18673222 -0.09081896 0.15668397 0.16432483 0.034323737 0.11471433
1.2012507 0.56986964 0.4491482 0.57777345 0.067338414 -0.30876806 -0.09490593 -0.24924086
-0.057788275 0.1421053 -0.031456266 -0.16646573 -0.010672463 -0.11497361 0.027475376 0.06691996
0.32052153 0.09885724 0.11256828 -0.029465819 -0.13454776 0.081240356 -0.03308459 -0.08980236
-0.092322625 -0.1474371 -0.13685238 0.0846275 0.43485436 -0.003891917 1.9371212 -0.46044216
0.17871235 0.067994185 0.15543121 -0.05552034 -0.021408532 -0.020270376 0.1521353 -0.051345095
0.15706667 0.25481477 0.12216144 0.16138124 0.21168508 0.013113216 0.14543733 0.122706585
0.027516983 -0.020875141 0.06590141 0.051335614 0.081085354 0.15349175 0.023364829 -0.10311457
0.010378831 0.27274883 1.2616531 0.23543316 0.048896153 0.020437816 0.06849804 0.2176281
00000000: eef7 c8bd 735b 9fbd f91e 023e fc3b bdbc
00000010: 247b 2abe ea4f 73bd 8234 57bd 7904 43be
00000020: b8e9 133e 3754 f4ba 4fa8 9abd 6f6a f9bc
00000030: a52b 34be c7bd 53bc 063d 99bd 3f2d 53be
00000040: b31e 043e ac43 053e cd48 35be 6594 abbd
00000050: 196a dfbc 6e90 0fbe d3ea 0bbe 603d 7abd
00000060: 0d41 51bd ed13 b63c a43c aa3c e4d2 2b3c
00000070: e366 efb9 f98d 483d 6cc9 bcbc 8a68 e53d
00000080: 1444 85bd d293 b3be 48b9 1fbd e715 223e
00000090: ab3f 833d 01d1 993c adbb 7a3d dcfc cdbd
000000a0: f2d0 263d dab1 f73c 1962 bd3d d97f bc3c
000000b0: cc37 823e 9a77 90be cf9c 9ebc a019 d33d
000000c0: d358 9b3d fb9b ddbb 1a7a e3bd 99ff 46be
000000d0: bf34 133d fa01 31bd 3c22 d23f 6e20 e4be
000000e0: 324f eabd 034f 163e 9472 f7bd d4cb 04be
000000f0: 19ac c7bd c271 b93d 6a61 fe3d 113f c33d
00000100: 58c6 d4bc ce3d 25be a884 b23c e9e3 e8bd
00000110: 3e8c fcbd 5bc0 323d d4c4 f5bd eaba 8cbd
00000120: f1a0 1cbe 70b8 c13d 6e06 00be 0887 15bd
00000130: 5412 513d 1bf5 b6bd 789e cabc 62e4 ddbd
00000140: 92b5 1dbd b109 1d3e 9852 9a3c 58b7 0ebd
00000150: a945 93bd ef9b 2dbd e566 a1bd 1e0c b6bd
00000160: 22d2 4dbe 6b8d ec3d 7cac 983d 1e11 ae3d
00000170: db20 1fbe 0f28 07be db27 6c3c 0cca 4fbe
00000180: a4d1 6d3d f0eb 4abe 61ca e93d 1449 33be
00000190: c99e 8abd 6638 10be 3795 a53d ec41 20be
000001a0: 2f00 54bc ada0 6e3c db65 45be ee58 dcbd
000001b0: 42a3 4dbe b668 22be 498f c2bc e06e 2ebe
000001c0: 898c c23d 54ec 85bd fcb9 523e 1319 8bbd
000001d0: 2f7d 873e 47f8 bc3d 048f 56bc 3aab 87bd
000001e0: a1e9 edbb a1d8 863c 2d3b d0bd 3d4d 01bd
000001f0: ef70 253e 4a31 55be 78b8 36be 11f9 17be
00000200: cad7 723e 936c 453d 0b83 a73d 88e6 8c3c
00000210: 6f97 5d3d 690b 463e cb22 463d 2199 a9bd
00000220: 4a2b 23c0 4782 e9bf 93b7 993f 494f 783e
00000230: 037c dc3c d02f ed3e ebfc b93e 6006 a43d
00000240: c09e b8be 26eb 53be 5532 2a3e 4bea 00be
00000250: 7810 16be ea87 83bc 57ba aabe 31b2 5abe
00000260: 6107 9fbd 000f 0f3e 17f5 14be 7a90 a43e
00000270: 4d7b 9fbe 8b88 8bbe a8d6 0b3e ee23 253d
00000280: a852 4c3e 50b4 333e f360 133e 061b e53b
00000290: 2fc9 0bc0 a1c2 cabf 8fae ae3f 5994 6e3e
000002a0: 1f67 053e 42de 503e 1cd2 be3d c1de 653e
000002b0: 7257 473e 5d5a 1abd cdb0 1f3e bb7e e23d
000002c0: f8ea 773e 2dde 353e 891e aebb 0ac7 d33d
000002d0: 1b21 793d 29aa f23d 10ba b6bc 746f fa3d
000002e0: 5821 173e dc5e 323e bb36 3f3e 4aff b9bd
000002f0: c371 203e c544 283e 0c97 0c3d 59ef ea3d
00000300: 95c2 993f fae2 113f c1f6 e53e f6e8 133f
00000310: b9e8 893d d916 9ebe 0a5e c2bd ff38 7fbe
00000320: 66b3 6cbd 0d84 113e 49d8 00bd fe75 2abe
00000330: 8edb 2ebc 4977 ebbd 0a14 e13c 550d 893d
00000340: 661b a43e aa75 ca3d 338a e63d 4d62 f1bc
00000350: e3c6 09be 5861 a63d b583 07bd 4dea b7bd
00000360: a513 bdbd c0f9 16be 0823 0cbe 2f51 ad3d
00000370: 3ba5 de3e 880f 7fbb 96f3 f73f 13bf ebbe
00000380: 5f00 373e 8940 8b3d 5c29 1f3e 4c69 63bd
00000390: f260 afbc 0f0e a6bc 5bc9 1b3e 3c4f 52bd
000003a0: 16d6 203e 1577 823e c72f fa3d 2041 253e
000003b0: f9c3 583e d0d8 563c 86ed 143e 974d fb3d
000003c0: 4c6b e13c 5802 abbc 52f7 863d 4b45 523d
000003d0: 1410 a63d f12c 1d3e 9967 bf3c bb2d d3bd
000003e0: f90b 2a3c bca5 8b3e d97d a13f 6415 713e
000003f0: 5547 483d 356d a73c b348 8c3d e7d9 5e3e

fc1.bias f4 [32]
-0.047175825 -0.16486135 0.09013586 0.14967664 -0.16686663 -0.463387 0.5434542 -0.41073188
0.90276873 0.6387776 -0.40583625 -0.031077638 0.010183436 -0.1454358 0.0007961455 0.5544436
0.112725005 0.6387762 0.08050083 -0.16481166 -0.14526133 -0.07351026 0.8402959 0.10702306
-0.15273887 0.01886852 0.5570965 0.4514508 -0.22092001 0.4191198 -0.023578694 -0.13578859
00000000: 703b 41bd 6ad1 28be 2699 b83d d544 193e
00000010: 16df 2abe 1041 edbe d01f 0b3f 734b d2be
00000020: da1b 673f ee86 233f c5c9 cfbe 8896 febc
00000030: 6dd8 263c 1fed 14be 6cb4 503a 04f0 0d3f
00000040: 5edc e63d d686 233f 9fdd a43d 63c4 28be
00000050: 63bf 14be 8c8c 96bd a21d 573f e82e db3d
00000060: 9467 1cbe 2892 9a3c e09d 0e3f 8f24 e73e
00000070: db38 62be df96 d63e 1b28 c1bc 2a0c 0bbe

fa1.weight f4 [32, 2]
-0.033784255 -0.04342316 -0.6332218 -0.4137816 -0.13486727 0.5663174 -0.097109266 -0.13544717
0.14399466 0.7509482 0.6214313 -0.22135976 -0.15534368 0.22194886 -0.45782357 0.0076368256
0.22788917 0.5009408 -0.08465087 -0.04118015 1.0055906 0.13046739 -0.029945523 -0.088905364
0.12096165 0.02781617 -0.8881402 -0.8922049 0.037838235 -0.109640956 0.50458443 0.26579994
-0.10960589 0.029653385 0.1201127 0.0051389933 0.1491606 0.5431524 -0.14897238 0.13899823
0.039483353 -0.08744681 -0.090146795 0.14227067 -0.14933392 -0.08798132 0.009681702 -0.13051587
0.5453061 0.3032869 -0.13424316 -0.11373477 0.1205488 -0.13228098 -0.16796061 -0.059068277
0.06463261 0.47703698 0.3545657 0.65000063 -0.08045458 -0.06640948 0.6318349 0.43000537
00000000: 5c61 0abd 7cdc 31bd d31a 22bf 2fdb d3be
00000010: a51a 0abe 2dfa 103f 39e1 c6bd aab2 0abe
00000020: 5673 133e 243e 403f 1f16 1f3f 22ac 62be
00000030: 6a12 1fbe 9046 633e da67 eabe 563e fa3b
00000040: c75b 693e a83d 003f 6f5d adbd 84ac 28bd
00000050: 31b7 803f 3e99 053e 5050 f5bc 0414 b6bd
00000060: beba f73d bdde e33c 285d 63bf 8a67 64bf
00000070: 44fc 1a3d 708b e0bd 722c 013f ee16 883e
00000080: 0e79 e0bd a8eb f23c a6fd f53d 0065 a83b
00000090: 8ebd 183e 090c 0b3f 378c 18be 8d55 0e3e
000000a0: 4cb9 213d 5017 b3bd e29e b8bd 67af 113e
000000b0: feea 18be 8d2f b4bd 00a0 1e3c f4a5 05be
000000c0: 2e99 0b3f 6c48 9b3e 0a77 09be c6ed e8bd
000000d0: 4ae2 f63d aa74 07be defd 2bbe 94f1 71bd
000000e0: 1a5e 843d 313e f43e a389 b53e 7166 263f
000000f0: 5fc5 a4bd b201 88bd efbf 213f aa29 dc3e

fa1.bias f4 [32]
-0.21785721 0.5520109 1.1663289 -0.4997651 1.1509775 1.1622058 0.9870836 0.95109457
1.3247616 -0.011118352 1.2454077 -0.50183153 -0.5909778 0.29945317 -0.4811958 0.980614
-0.011082113 -0.33315128 1.1856624 -0.70416224 -0.034309804 -0.3608571 -0.5389982 -0.23383611
1.464452 -0.29275462 -0.68641615 -0.4733016 1.1135868 1.1405072 -0.55405456 1.3715477
00000000: f615 5fbe 9650 0d3f 444a 953f 36e1 ffbe
00000010: 3b53 933f 29c3 943f 83b1 7c3f ef7a 733f
00000020: ca91 a93f c029 36bc 8569 9f3f 0878 00bf
00000030: 524a 17bf ed51 993e 4c5f f6be 8509 7b3f
00000040: c091 35bc ce92 aabe c9c3 973f fa43 34bf
00000050: 7088 0cbd 43c2 b8be c9fb 09bf bc72 6fbe
00000060: 2a73 bb3f efe3 95be f8b8 2fbf 9654 f2be
00000070: 038a 8e3f 24fc 913f 85d6 0dbf e08e af3f

fca1.weight f4 [64, 64]
0.04703426 0.06981924 -0.119084805 0.08937459 0.07660047 -0.019352948 -0.03556244 0.16531014
0.0178153 0.065416366 0.24164867 0.1016793 0.2141293 0.14299214 -0.10177996 0.050321575
0.08843581 0.038560152 -0.03571668 0.48010802 0.30669758 0.28833136 0.1362074 0.5421612
0.13851577 0.50399804 0.11090484 0.14060871 -0.08049339 -0.07449375 0.12842067 -0.04399066
-0.07475741 0.23415741 0.1268052 0.010046944 0.31466946 0.10465154 0.21018742 0.14456633
0.09281458 -0.07710172 0.07081859 0.06811781 -0.041842252 0.7315401 -0.07660587 0.18497989
-0.0920835 0.03185621 0.2221595 -0.05592735 -0.076654 0.087163314 -0.045392796 0.0998726
0.26188734 0.11979012 0.12143485 -0.034690514 0.20611866 0.29714513 -0.04459451 0.08228999
0.09460856 -0.11773658 -0.08075416 -0.012407765 -0.064290434 0.007981628 -0.09511721 0.094806135
-0.024846315 0.12397602 -0.033790857 -0.030036047 0.059454538 0.010780856 -0.036497727 -0.07717326
0.05313264 0.03285721 -0.06029153 0.06686023 0.038061887 -0.01986076 -0.11896123 0.054832503
0.041092347 -0.05671762 -0.10417232 -0.11344028 0.09132694 -0.11713946 -0.006199017 0.06764266
-0.0467778 0.04355852 -0.10164401 -0.060701728 0.0125390235 -0.025192484 -0.08813155 0.027191073
0.09460057 0.0051906854 -0.11338365 -0.068334535 -0.04629536 -0.083768874 0.01796849 -0.11376199
0.034774184 -0.08382675 -0.06682272 -0.12115918 -0.1206709 -0.02128397 0.020156935 0.036471248
-0.07913445 0.12422141 0.058070347 -0.10629739 -0.07320252 0.010355562 0.09844652 -0.015525326
0.11034825 0.102031626 0.0059340447 -0.0016789202 0.14426334 -0.0038359328 -0.099652454 0.17447992
0.048526537 -0.039132737 0.32022184 0.059311945 0.34833798 0.018686632 -0.086200595 0.098338775
-0.042969912 0.09980287 0.039021056 0.40662718 0.08055195 0.2874503 0.045090005 0.43024
0.19850321 0.40055776 0.08011548 -0.07390506 -0.13167581 0.014076801 -0.014013496 -0.0065858555
-0.027962014 0.3628256 0.23461168 -0.10577409 0.20087259 0.20014141 0.2406665 0.16293181
0.28568634 0.022253707 0.057839025 -0.06917721 0.033270806 0.74467003 -0.0014028549 0.14806259
0.07794036 -0.06828508 0.06933149 -0.055143192 0.0017916858 0.059462234 -0.058044046 -0.08188374
0.28011462 -0.012514114 -0.0296008 0.09066796 0.08947549 0.13850145 0.09784602 0.22188123
-0.093003064 0.16303144 0.09042321 -0.105713926 0.13729902 0.059923615 -0.07192189 0.029341625
0.07110325 -0.014793156 0.37577504 0.17651185 0.29572207 0.18908148 0.016884165 -0.009499526
-0.056399755 0.086133756 -0.10176506 0.6040033 0.26460752 0.3912643 0.06189613 0.63117576
0.045190033 0.42158842 0.028143957 0.021747371 0.022321295 -0.021156121 0.031564783 0.12826338
0.008264318 0.2919524 0.13888352 -0.032708302 0.14512387 0.16502917 0.26356795 0.16545586
0.23683134 -0.012451693 0.13119633 0.12250185 -0.11991204 0.76616544 -0.09067101 0.1549192
0.0010175413 -0.0598904 0.1332578 0.097231016 0.0042741275 0.1227034 -0.12250389 0.08968037
0.20204711 0.095357485 0.060332313 -0.11144765 0.23760635 0.21367803 -0.11246532 0.11224076
00000000: ffa6 403d 64fd 8e3d bce2 f3bd 060a b73d
00000010: b5e0 9c3d 138a 9ebc eca9 11bd 1047 293e
00000020: 64f1 913c 04f9 853d c072 773e 3d3d d03d
00000030: b644 5b3e 886c 123e 0372 d0bd ff1d 4e3d
00000040: d51d b53d 40f1 1d3d a74b 12bd b8d0 f53e
00000050: 7707 9d3e 2ba0 933e f479 0b3e 14cb 0a3f
00000060: 14d7 0d3e 0406 013f 1422 e33d bbfb 0f3e
00000070: b8d9 a4bd 2e90 98bd b580 033e 8d2f 34bd
00000080: 6a1a 99bd f6c6 6f3e 39d9 013e f09b 243c
00000090: 5b1c a13e 8c53 d63d 5f3b 573e 3209 143e
000000a0: 9215 be3d 82e7 9dbd 5609 913d 5a81 8b3d
000000b0: c862 2bbd 3646 3b3f 8ae3 9cbd 5e6b 3d3e
000000c0: 4696 bcbd a87b 023d c87d 633e 1414 65bd
000000d0: c6fc 9cbd ae82 b23d cced 39bd 018a cc3d
000000e0: 1916 863e 8654 f53d d6b2 f83d a417 0ebd
000000f0: c510 533e 6823 983e bca8 36bd a787 a83d
00000100: 22c2 c13d e01f f1bd 7062 a5bd f049 4bbc
00000110: b4aa 83bd 60c5 023c d0cc c2bd b829 c23d
00000120: 808a cbbc 24e7 fd3d 4868 0abd 280e f6bc
00000130: 9a86 733d 30a2 303c a47e 15bd 040d 9ebd
00000140: 9ca1 593d 4895 063d 40f4 76bd 04ee 883d
00000150: c8e6 1b3d 08b3 a2bc f2a1 f3bd 0c98 603d
00000160: 7350 283d bc50 68bd 4c58 d5bd 6153 e8bd
00000170: 9e09 bb3d d0e6 efbd 2021 cbbb 3c88 8a3d
00000180: 149a 3fbd 6b6a 323d bc2a d0bd 60a2 78bd
00000190: 7a70 4d3c 7860 cebc 507e b4bd d0bf de3c
000001a0: f2bd c13d a016 aa3b b035 e8bd faf2 8bbd
000001b0: 34a0 3dbd 048f abbd a832 933c 0cfc e8bd
000001c0: 606f 0e3d 5cad abbd 5ada 88bd 4e22 f8bd
000001d0: 4e22 f7bd b85b aebc 2820 a53c e062 153d
000001e0: 3e11 a2bd cb67 fe3d 2cdb 6d3d 72b2 d9bd
000001f0: 34eb 95bd 60aa 293c 549e c93d f05d 7ebc
00000200: 43fe e13d f5f5 d03d 6072 c23b 370f dcba
00000210: c5b9 133e 4664 7bbb 9616 ccbd ddaa 323e
00000220: c3c3 463d a649 20bd 1ef4 a33e 15f1 723d
00000230: 5b59 b23e b514 993c f089 b0bd d765 c93d
00000240: 3801 30bd 7265 cc3d 8bd4 1f3d 7031 d03e
00000250: 6cf8 a43d b02c 933e 4cb0 383d 6b48 dc3e
00000260: 6d44 4b3e e815 cd3e 9613 a43d 895b 97bd
00000270: 06d6 06be 62a2 663c dd98 65bc 29ce d7bb
00000280: 9810 e5bc 47c4 b93e 0b3e 703e 16a0 d8bd
00000290: 8bb1 4d3e dff1 4c3e 4771 763e 99d7 263e
000002a0: 7b45 923e 684d b63c 9de8 6c3d c8ac 8dbd
000002b0: f846 083d b2a2 3e3f 00e0 b7ba b89d 173e
000002c0: 329f 9f3d 0cd9 8bbd abfd 8d3d d4dd 61bd
000002d0: 00d7 ea3a ac8e 733d 98bf 6dbd aab2 a7bd
000002e0: 2f6b 8f3e 0008 4dbc 607d f2bc 20b0 b93d
000002f0: ed3e b73d 53d3 0d3e 7e63 c83d d534 633e
00000300: 6478 bebd b7f1 263e ce2f b93d 8b80 d8bd
00000310: 1d98 0c3e 7772 753d c94b 93bd d95d f03c
00000320: 959e 913d fe5e 72bc 9665 c03e 86bf 343e
00000330: e268 973e 939e 413e a950 8a3c e6a3 1bbc
00000340: 6e03 67bd e566 b03d 336a d0bd f69f 1a3f
00000350: a37a 873e cb53 c83e cc86 7d3d bc94 213f
00000360: 2f19 393d 70da d73e 288e e63c 8b27 b23c
00000370: 26db b63c 9a4f adbc 134a 013d 7a57 033e
00000380: 1067 073c c97a 953e 7b37 0e3e 24f9 05bd
00000390: 5a9b 143e 68fd 283e 61f2 863e 436d 293e
000003a0: ea83 723e 3002 4cbc 5558 063e 40e2 fa3d
000003b0: 7294 f5bd 6b23 443f b9b1 b9bd 24a3 1e3e
000003c0: 055f 853a a34f 75bd bc74 083e 0e21 c73d
000003d0: fb0d 8c3b ec4b fb3d 52e3 fabd 58aa b73d
000003e0: 70e5 4e3e c94a c33d 041f 773d aa3e e4bd
000003f0: 144f 733e 6ace 5a3e 3854 e6bd 7cde e53d

fca1.bias f4 [64]
0.14500317 0.014586097 0.28176197 0.34658957 0.25526747 0.024943933 0.2791102 0.19350998
0.10280959 0.19896002 0.351417 0.12698184 0.38861644 0.21851933 0.3622315 0.2384808
-0.014289066 0.16784379 0.15152772 0.14057308 -0.76792 0.2552501 0.22302255 0.18636537
0.17599486 0.2134491 0.66406083 0.22105555 0.084606156 0.26549852 0.3294331 0.15412414
0.32935658 0.30822194 0.15370987 0.009700522 0.20771825 0.17023766 0.18571357 0.27901325
0.14619228 0.18901536 0.19228387 0.24543673 0.25958905 0.3733725 0.23126422 0.1742383
0.106548384 0.18820174 0.19874342 0.015341409 0.30063945 0.22896793 0.2597217 -0.40840814
0.27022418 0.22751722 0.28933 0.3226407 0.086828195 0.25763297 0.22300611 0.32383084
00000000: b67b 143e 86fa 6e3c 1b43 903e 3074 b13e
00000010: 6bb2 823e 3857 cc3c 88e7 8e3e 7b27 463e
00000020: d68d d23d 2dbc 4b3e eeec b33e 8707 023e
00000030: bcf8 c63e 88c3 5f3e 6876 b93e 5034 743e
00000040: b01c 6abc 3edf 2b3e 152a 1b3e 64f2 0f3e
00000050: 6896 44bf 24b0 823e 0660 643e 90d6 3e3e
00000060: ff37 343e 6792 5a3e e4ff 293f 635c 623e
00000070: fe45 ad3d 6cef 873e 75ab a83e b8d2 1d3e
00000080: 6da1 a83e 44cf 9d3e 1f66 1d3e f0ee 1e3c
00000090: 18b4 543e c852 2e3e b32b 3e3e d3da 8e3e
000000a0: 6eb3 153e 3e8d 413e 10e6 443e c453 7b3e
000000b0: dbe8 843e ae2a bf3e 87d0 6c3e 866b 323e
000000c0: 0a36 da3d f5b7 403e 6583 4b3e 885a 7b3c
000000d0: 6aed 993e 9276 6a3e 3efa 843e df1a d1be
000000e0: d35a 8a3e 46fa 683e 1023 943e 2931 a53e
000000f0: fbd2 b13d 78e8 833e b75b 643e 28cd a53e

fca2.weight f4 [1, 64]
-0.19598432 0.0016304199 -0.19776964 -0.24905135 -0.20361413 -1.7856339e-05 -0.20760542 -0.2658707
-0.19461273 -0.20414424 -0.23846093 -0.15046294 -0.31881902 -0.17989588 -0.2922859 -0.341533
0.00012270291 -0.2002156 -0.2936128 -0.24344307 2.5522952 -0.3218621 -0.23947501 -0.18843484
-0.16111475 -0.22609742 4.225014 -0.19768268 -0.021138502 -0.20520864 -0.275622 -0.29343474
-0.26194292 -0.23111719 -0.21413818 -0.0011949431 -0.21200898 -0.2940171 -0.19924298 -0.2211188
-0.17630935 -0.1709995 -0.18610331 -0.18569277 -0.7432406 -0.35978916 -0.3264061 -0.20201609
-0.23811959 -0.36985826 -0.1541937 -0.020918706 -0.24931085 -0.17112441 -0.24531025 2.5058806
-0.21185283 -0.22717501 -0.2169544 -0.25073254 -0.15904751 -0.17089505 -0.25722215 -0.25191712
00000000: 1db0 48be d0b3 d53a 2084 4abe 5107 7fbe
00000010: 3980 50be 32ca 95b7 8496 54be 3420 88be
00000020: 8f48 47be 300b 51be 1a2f 74be f512 1abe
00000030: 3f3c a3be a036 38be 7fa6 95be 6add aebe
00000040: d0a9 0039 5105 4dbe 6b54 96be 2449 79be
00000050: ce58 2340 1ccb a4be f038 75be 10f5 40be
00000060: 44fb 24be 1586 67be 5133 8740 546d 4abe
00000070: a72a adbc 3722 52be 541e 8dbe 143d 96be
00000080: 621d 86be fca9 6cbe 0a47 5bbe a39f 9cba
00000090: e218 59be 6989 96be 5a06 4cbe f76c 62be
000000a0: 708a 34be 7e1a 2fbe de91 3ebe 3f26 3ebe
000000b0: 0445 3ebf 4936 b8be b31e a7be 4edd 4ebe
000000c0: 9fd5 73be 105e bdbe f4e4 1dbe b55d abbc
000000d0: 584b 7fbe 3d3b 2fbe 9c32 7bbe 5960 2040
000000e0: f3ef 58be 91a0 68be 4b29 5ebe 0460 80be
000000f0: 5add 22be 1dff 2ebe 9fb2 83be 48fb 80be
