src/Models/training/850_critic.pt (torch_old, 22090 bytes, 7 tensors)

fc1.weight f4 [32, 28]
00000000: eef7 c8bd 735b 9fbd f91e 023e fc3b bdbc
00000010: 247b 2abe ea4f 73bd 8234 57bd 7904 43be
00000020: b8e9 133e 8b59 f4ba 4fa8 9abd 6f6a f9bc
00000030: a52b 34be c7bd 53bc 063d 99bd 3f2d 53be
00000040: b31e 043e ac43 053e cd48 35be 6594 abbd
00000050: 196a dfbc 6e90 0fbe d3ea 0bbe 603d 7abd
00000060: 0d41 51bd ed13 b63c a43c aa3c e4d2 2b3c
00000070: 21e5 b03c 2d4b 303e e9f8 10bc 5b04 983e
00000080: 7b7f f9bd d3c0 c0be 8173 05be ea21 ac3a
00000090: 6fc7 cfbd 97f8 763d 5376 873d 4a8e 67be
000000a0: ea39 1abe e686 c5bd d06b 173d 0158 d23d
000000b0: 078e cb3e 3a6b 41bd 5d1f e93d 0651 ad3d
000000c0: d4a0 793e 3799 563e f0bd d83b 4756 24be
000000d0: 9fc7 6c3f d6d0 15c0 3eeb de3f b9d7 2ebf
000000e0: 324f eabd 034f 163e 9472 f7bd d4cb 04be
000000f0: 19ac c7bd c271 b93d 6a61 fe3d 113f c33d
00000100: 58c6 d4bc ce3d 25be a884 b23c e9e3 e8bd
00000110: 3e8c fcbd 5bc0 323d d4c4 f5bd eaba 8cbd
00000120: f1a0 1cbe 70b8 c13d 6e06 00be 0887 15bd
00000130: 5412 513d 1bf5 b6bd 789e cabc 62e4 ddbd
00000140: 92b5 1dbd b109 1d3e 9852 9a3c 58b7 0ebd
00000150: a945 93bd ef9b 2dbd e566 a1bd 1e0c b6bd
00000160: 22d2 4dbe 6b8d ec3d 7cac 983d 1e11 ae3d
00000170: db20 1fbe 0f28 07be db27 6c3c 0cca 4fbe
00000180: a4d1 6d3d f0eb 4abe 61ca e93d 1449 33be
00000190: c99e 8abd 6638 10be 3795 a53d ec41 20be
000001a0: 2f00 54bc ada0 6e3c db65 45be ee58 dcbd
000001b0: 42a3 4dbe b668 22be 498f c2bc e06e 2ebe
000001c0: 60e9 8f3e 9176 7e3e 524a 8d3e b547 c4bc
000001d0: 0117 943e 39a8 ae3c 9408 94bc 5235 0e3c
000001e0: 16af c13d 589a 133e 8277 55be 8907 cdbd
000001f0: bc26 a5bc d69c 51be cfa5 3ebe 8558 95bd
00000200: ba62 5c3e 84ac 10bd 2f49 983d a83c 233e
00000210: 03a2 c03d 694b 2f3e dc47 953e 4689 063e
00000220: bb7b 58c0 2880 b6c0 db3c ce3f 33d8 fc3d
00000230: 2ef2 303e e35d 253f 8ea8 f03e 3d82 a13d
00000240: 30a3 fabe f581 00be 0d4e 813e c5bd 53be
00000250: b44a 35be e099 12bc 8648 5fbe 6049 f9be
00000260: dab8 a9be a5f0 093e debc a7bd d611 133f
00000270: ee4b b3be 4fe9 e3be c19b 143e 5465 f63d
00000280: 75a4 f03e b50c 113e 9c0b 983e 3834 383e
00000290: 1b4b 41c0 3015 a1c0 e3ce c73f f600 123e
000002a0: e8b2 033e ec69 3c3e d528 873d 951e 5d3e
000002b0: a537 7b3e 6a5d e9bc 1659 383e 71f4 513e
000002c0: 2778 4f3e 992a 313e 96c9 0a3c bf0d ab3d
000002d0: ca9c 59bc da45 b73c 60dc d9bd 4516 293d
000002e0: 7305 bd3a ed13 aa3c 14bc 743d b1a2 15be
000002f0: 549f a23d 4dd0 263e 35ed be3c 8ee0 a93d
00000300: c777 cd3f e2e9 883f 450c e13e 6604 5e3f
00000310: e510 d1bd 28b4 b6be 3318 3fbe 4dfb 03be
00000320: f899 063e b3c0 6c3e e209 a1bd 0bcc 5fbb
00000330: 0dc5 ed3d 6309 133d 9297 183e 23b6 693e
00000340: 97f1 ab3e 9ca5 383e b61e 3c3e 17e3 09be
00000350: d5b5 42be 34db 0f3c 9063 0fbd b42e 44be
00000360: c051 53be fe0c 21be faf2 b1be 1432 a8bd
00000370: 7104 623f 328c be3e 1307 0d40 a54d 70bf
00000380: 97af 803e 01ad 023e f66d 7a3e 5d5e bdba
00000390: cb51 83bc d298 f23c ac80 0a3e c56c 3dbd
000003a0: 79a1 f53d 06cf a33e 67dd 043e 33d1 b23d
000003b0: dede 0a3e 29c1 803c f1e3 013e 63fe 5a3d
000003c0: 8aea 9cbd e04d 43be 69ab e038 84f8 233d
000003d0: a8e1 063e 16e1 973e bdc7 523e 211e 4ebd
000003e0: d618 b53e 7e2b 97be 6ac2 a93f 88ce ed3e
000003f0: 22c0 563e 4169 ff3d 9472 3d3e aaf8 933e
-0.09812914 -0.077811144 0.12707128 -0.023099892 -0.16648537 -0.059402384 -0.05254031 -0.19044675
0.14444625 -0.0018642409 -0.075516336 -0.03044626 -0.17594774 -0.012923664 -0.074823424 -0.20622729
0.12902336 0.13014096 -0.17703553 -0.083779134 -0.027272271 -0.1401994 -0.13663797 -0.061093688
-0.051087428 0.022226298 0.020780869 0.010487292 0.021593632 0.17216177 -0.008848407 0.29690823
-0.12182518 -0.37647113 -0.13032342 0.0013132666 -0.10145461 0.060295667 0.066143654 -0.22612873
-0.15061155 -0.096448705 0.036968052 0.10270692 0.39756796 -0.0472214 0.11382935 0.084627196
0.24377757 0.20956884 0.006614439 -0.16048537 0.924921 -2.3408713 1.741554 -0.68297917
-0.114408866 0.14678578 -0.12082401 -0.1296838 -0.09749622 0.09054901 0.12420924 0.09533513
-0.025973484 -0.16136858 0.021791771 -0.113715954 -0.123314366 0.043640476 -0.120004326 -0.068715885
-0.1529577 0.09459007 -0.12502453 -0.03650573 0.05104287 -0.08933469 -0.024733767 -0.10834576
-0.038503237 0.15335728 0.018838212 -0.03484282 -0.07191021 -0.042385038 -0.07880954 -0.0888903
-0.2009969 0.11550411 0.07454774 0.084993586 -0.15539877 -0.13198875 0.014413799 -0.20291919
0.058061257 -0.19816566 0.11415554 -0.17508346 -0.06768567 -0.14084014 0.08085101 -0.15650147
-0.012939497 0.014564675 -0.19277136 -0.107591495 -0.20081809 -0.15860257 -0.023749964 -0.17034483
0.28107738 0.24849917 0.27595764 -0.023959974 0.289238 0.02132045 -0.018070497 0.008679705
0.09457223 0.14414346 -0.2084637 -0.10011203 -0.020160072 -0.20469984 -0.18617938 -0.072922744
0.21522036 -0.035320774 0.07435834 0.15941107 0.09405901 0.1711861 0.29156387 0.13138303
-3.382552 -5.703144 1.6112322 0.12345924 0.17279884 0.64596385 0.47003597 0.07886169
-0.48952627 -0.12549575 0.2525486 -0.2067786 -0.17704278 -0.0089478195 -0.21805009 -0.48688793
-0.33148843 0.13470705 -0.081903204 0.5744909 -0.35018867 -0.44513938 0.1451254 0.120310456
0.4700047 0.14165004 0.29696357 0.1798867 -3.020209 -5.0338364 1.5610012 0.14258179
0.12861216 0.18399781 0.06599585 0.21593697 0.24532945 -0.028486926 0.18002734 0.20503403
0.20260678 0.17301406 0.008470913 0.08352231 -0.01328201 0.022372175 -0.10637736 0.041281004
0.001442118 0.020761454 0.059749678 -0.14612843 0.07940546 0.16290398 0.023306469 0.082947835
1.6052178 1.0696375 0.43954673 0.8672546 -0.102083005 -0.35684323 -0.18661575 -0.12888832
0.13144672 0.23120384 -0.07863213 -0.0034148719 0.1160985 0.035897624 0.1490157 0.22823386
0.33582756 0.18031925 0.1837109 -0.13465534 -0.19014676 0.008780289 -0.03500706 -0.19158441
-0.20636654 -0.15727612 -0.3475569 -0.08212677 0.8828803 0.37216336 2.2035568 -0.93868476
0.25133964 0.12761308 0.2445601 -0.0014447678 -0.016030213 0.029613886 0.13525647 -0.04624631
0.11993689 0.31993884 0.12975083 0.08731308 0.1356158 0.015717106 0.12684609 0.05346526
-0.07661922 -0.19072676 0.0001071308 0.040031925 0.13172019 0.29663914 0.20584007 -0.050321702
0.3537051 -0.2952537 1.3262455 0.46446633 0.2097173 0.124712475 0.1850074 0.28900653

fc1.bias f4 [32]
00000000: 703b 41bd e7cb 76be 2699 b83d d544 193e
00000010: b708 8abe 6722 32bf b943 0b3f a1e6 14bf
00000020: 3496 893f 4084 363f f32d edbe e276 75bd
00000030: d608 653d 90fe 11be 6cb4 503a 97b1 173f
00000040: 5edc e63d 944f 763f 9fdd a43d 5c92 60be
00000050: 52aa eabd 6f50 1cbe 8367 823f 8293 2e3e
00000060: d51e 60be a7d2 60bd 5dbf 173f 6865 ed3e
00000070: db38 62be 8554 193f 2694 0fbe 2a0c 0bbe
-0.047175825 -0.2410122 0.09013586 0.14967664 -0.26959774 -0.69583744 0.5440021 -0.5816441
1.0748963 0.7129555 -0.4632412 -0.05992783 0.05591663 -0.14257264 0.0007961455 0.59255356
0.112725005 0.96215177 0.08050083 -0.21930832 -0.11458267 -0.15265058 1.0187839 0.17048457
-0.21886761 -0.054888394 0.5927637 0.4636643 -0.22092001 0.5989459 -0.14021358 -0.13578859

fa1.weight f4 [32, 2]
00000000: 5c61 0abd 7cdc 31bd c6d7 3ebf 8731 8ebf
00000010: 4070 40bf c0e8 ad3f 39e1 c6bd aab2 0abe
00000020: 3028 e7be 4db3 9b3f bb88 9d3f fade 11c0
00000030: fe58 08bf 3c03 f13e a1b9 52bf 740b de3e
00000040: 533a 54bd b0b7 df3e 6f5d adbd 84ac 28bd
00000050: eefa c53f b93d e8bf 5050 f5bc 0414 b6bd
00000060: beba f73d bdde e33c 6889 7abe 0388 06c0
00000070: 44fc 1a3d 708b e0bd 6df7 063f 8972 82bf
00000080: 0e79 e0bd a8eb f23c a6fd f53d 0065 a83b
00000090: 9384 5cbe 1d39 193f 378c 18be 8d55 0e3e
000000a0: 4cb9 213d 5017 b3bd e29e b8bd 67af 113e
000000b0: feea 18be 8d2f b4bd 00a0 1e3c f4a5 05be
000000c0: 4850 193f 5458 63bf 0a77 09be c6ed e8bd
000000d0: 4ae2 f63d aa74 07be defd 2bbe 94f1 71bd
000000e0: 2b01 e6be ff82 493f 82df 27be 8ae7 3a3f
000000f0: 5fc5 a4bd b201 88bd 1d0e 163f 4e61 afbe
-0.033784255 -0.04342316 -0.74547994 -1.1108865 -0.7517128 1.3586655 -0.097109266 -0.13544717
-0.45147848 1.2164093 1.2307352 -2.2792344 -0.5326079 0.4707278 -0.823145 0.43368113
-0.051813435 0.4369483 -0.08465087 -0.04118015 1.5467203 -1.8143836 -0.029945523 -0.088905364
0.12096165 0.02781617 -0.24466479 -2.1020515 0.037838235 -0.109640956 0.5272129 -1.0191203
-0.10960589 0.029653385 0.1201127 0.0051389933 -0.21534948 0.5985277 -0.14897238 0.13899823
0.039483353 -0.08744681 -0.090146795 0.14227067 -0.14933392 -0.08798132 0.009681702 -0.13051587
0.59888124 -0.88806653 -0.13424316 -0.11373477 0.1205488 -0.13228098 -0.16796061 -0.059068277
-0.44922766 0.7871551 -0.16393855 0.7300955 -0.08045458 -0.06640948 0.58615285 -0.34253925

fa1.bias f4 [32]
00000000: f615 5fbe 7fc7 2c3f 8c33 9c3f 36e1 ffbe
00000010: 58a4 9c3f c4d7 b13f 148e 8b3f 3f22 863f
00000020: 3c91 ba3f c029 36bc 6be0 bc3f 0878 00bf
00000030: 524a 17bf 432c 013f 4c5f f6be b1ea 913f
00000040: c091 35bc ce92 aabe 8c5f a73f fa43 34bf
00000050: 7088 0cbd 43c2 b8be c9fb 09bf bc72 6fbe
00000060: e4c5 d03f efe3 95be f8b8 2fbf 9654 f2be
00000070: af1a 993f 8eba 9c3f 85d6 0dbf 6d13 c33f
-0.21785721 0.67491907 1.2203231 -0.4997651 1.2237654 1.3893971 1.0902734 1.0479201
1.4575572 -0.011118352 1.4755987 -0.50183153 -0.5909778 0.50458163 -0.4811958 1.1399747
-0.011082113 -0.33315128 1.3076034 -0.70416224 -0.034309804 -0.3608571 -0.5389982 -0.23383611
1.6310391 -0.29275462 -0.68641615 -0.4733016 1.1961268 1.2244432 -0.55405456 1.5240303

fca1.weight f4 [64, 64]
00000000: ffa6 403d 8e17 4b3e bce2 f3bd 060a b73d
00000010: 3e78 583e 2319 e03c 0a1a b2bd 76be b23d
00000020: 948e c7bc e734 e73d 18fc ac3e d5fb 803e
00000030: 2a4b 563e eb73 af3e 0372 d0bd 2170 fb3c
00000040: d51d b53d a4ec f0bd a74b 12bd fb7b 1e3f
00000050: 043d db3e 8d79 883e c136 3c3d 4aeb 533f
00000060: e365 833e 8c39 243f b0d6 3c3e 3303 5d3e
00000070: b8d9 a4bd 1caf 2fbe 5378 823e 8d2f 34bd
00000080: 6a1a 99bd c17b af3d 61e1 5f3e f09b 243c
00000090: 4a2e c23e cb8d 66be 0891 5c3e 2f53 2d3e
000000a0: 0eea 623d 82e7 9dbd b53a 51be 5a81 8b3d
000000b0: c862 2bbd 9c37 7dbe 8ae3 9cbd 266f d13a
000000c0: 4696 bcbd a87b 023d 8432 5f3e 1414 65bd
000000d0: c6fc 9cbd ae82 b23d cced 39bd 018a cc3d
000000e0: fb89 e83d 8654 f53d d6b2 f83d a417 0ebd
000000f0: 0128 6b3e fe2c 973e bca8 36bd 081d 19bd
00000100: 22c2 c13d e01f f1bd 7062 a5bd f049 4bbc
00000110: b4aa 83bd 60c5 023c d0cc c2bd b829 c23d
00000120: 808a cbbc 24e7 fd3d 4868 0abd 280e f6bc
00000130: 9a86 733d 30a2 303c a47e 15bd 040d 9ebd
00000140: 9ca1 593d 4895 063d 40f4 76bd 04ee 883d
00000150: c8e6 1b3d 08b3 a2bc f2a1 f3bd 0c98 603d
00000160: 7350 283d bc50 68bd 4c58 d5bd 6153 e8bd
00000170: 9e09 bb3d d0e6 efbd 2021 cbbb 3c88 8a3d
00000180: 149a 3fbd 6b6a 323d bc2a d0bd 60a2 78bd
00000190: 7a70 4d3c 7860 cebc 507e b4bd d0bf de3c
000001a0: f2bd c13d a016 aa3b b035 e8bd faf2 8bbd
000001b0: 34a0 3dbd 048f abbd a832 933c 0cfc e8bd
000001c0: 606f 0e3d 5cad abbd 5ada 88bd 4e22 f8bd
000001d0: 4e22 f7bd b85b aebc 2820 a53c e062 153d
000001e0: 3e11 a2bd cb67 fe3d 2cdb 6d3d 72b2 d9bd
000001f0: 34eb 95bd 60aa 293c 549e c93d f05d 7ebc
00000200: 43fe e13d fa95 6b3e 6072 c23b 6e1a dcba
00000210: 9d9a 8e3e 8b2d 303d 750d 1bbe 1ff2 c73d
00000220: 5713 d63b 9343 023c 6e96 d33e afe3 553e
00000230: f419 b03e f481 5e3e f089 b0bd 5d77 9f3d
00000240: 3801 30bd 6580 68bd 8bd4 1f3d f3c4 0a3f
00000250: d563 4e3e 7cec 863e b11b 37bd c6d5 363f
00000260: 9bd9 a13e 21dd 083f 9bdd 1c3e 3390 1a39
00000270: 06d6 06be 644f abbd e553 e53d 93d8 d7bb
00000280: 9810 e5bc 13e8 5b3e ab30 a63e 16a0 d8bd
00000290: d814 873e b108 03be 0aa8 7a3e 74de 3e3e
000002a0: 7370 7d3e 684d b63c 9249 5dbe c8ac 8dbd
000002b0: f846 083d bb09 69be 00e0 b7ba b3a9 0ebd
000002c0: 329f 9f3d 0cd9 8bbd fb41 833d d4dd 61bd
000002d0: 00d7 ea3a ac8e 733d 98bf 6dbd aab2 a7bd
000002e0: 601b 073e 0008 4dbc 607d f2bc 20b0 b93d
000002f0: 7ed4 e43d 81ce 0a3e 7e63 c83d cd24 d13d
00000300: 6478 bebd e68c 963e ce2f b93d 8b80 d8bd
00000310: 7f91 8c3e ba32 e03d c1f7 f6bd 35dd 37bd
00000320: 6559 033d eace 103d 48c9 f13e d37f a83e
00000330: 87b0 963e ad0a c83e a950 8a3c e3f5 dcbc
00000340: 6e03 67bd 7e02 8abd 336a d0bd 3a30 3e3f
00000350: 31ec c63e a6b0 bd3e c37d ccbc 3f16 6b3f
00000360: 5ed5 293e df27 0f3f 1c76 d53d ee15 cb3d
00000370: 26db b63c 1af6 ecbd 6309 243e 7a57 033e
00000380: 1067 073c 064b 163e c5b3 6d3e 24f9 05bd
00000390: e868 583e cc22 24be c8ab 8a3e 7eb0 443e
000003a0: 79a1 4e3e 3002 4cbc 1939 0fbe 40e2 fa3d
000003b0: 7294 f5bd bc73 51be b9b1 b9bd deb8 ccbc
000003c0: 055f 853a a34f 75bd 385a 063e 0e21 c73d
000003d0: fb0d 8c3b ec4b fb3d 52e3 fabd 58aa b73d
000003e0: b401 693d c94a c33d 041f 773d aa3e e4bd
000003f0: 59af 863e 6909 5b3e 3854 e6bd a460 92bb
0.04703426 0.19833204 -0.119084805 0.08937459 0.21139619 0.027355736 -0.08696373 0.08727734
-0.024359979 0.11289387 0.33786082 0.25192133 0.2092711 0.34268126 -0.10177996 0.030693116
0.08843581 -0.117638856 -0.03571668 0.6190793 0.4281999 0.26655236 0.045950655 0.827809
0.2566367 0.6415031 0.18441272 0.21583252 -0.08049339 -0.17156643 0.25482425 -0.04399066
-0.07475741 0.08568526 0.21863319 0.010046944 0.3792594 -0.22515027 0.215397 0.16926263
0.055398993 -0.07710172 -0.20432551 0.06811781 -0.041842252 -0.24728245 -0.07660587 0.0015978559
-0.0920835 0.03185621 0.21796614 -0.05592735 -0.076654 0.087163314 -0.045392796 0.0998726
0.11354443 0.11979012 0.12143485 -0.034690514 0.22964479 0.29526514 -0.04459451 -0.037381202
0.09460856 -0.11773658 -0.08075416 -0.012407765 -0.064290434 0.007981628 -0.09511721 0.094806135
-0.024846315 0.12397602 -0.033790857 -0.030036047 0.059454538 0.010780856 -0.036497727 -0.07717326
0.05313264 0.03285721 -0.06029153 0.06686023 0.038061887 -0.01986076 -0.11896123 0.054832503
0.041092347 -0.05671762 -0.10417232 -0.11344028 0.09132694 -0.11713946 -0.006199017 0.06764266
-0.0467778 0.04355852 -0.10164401 -0.060701728 0.0125390235 -0.025192484 -0.08813155 0.027191073
0.09460057 0.0051906854 -0.11338365 -0.068334535 -0.04629536 -0.083768874 0.01796849 -0.11376199
0.034774184 -0.08382675 -0.06682272 -0.12115918 -0.1206709 -0.02128397 0.020156935 0.036471248
-0.07913445 0.12422141 0.058070347 -0.10629739 -0.07320252 0.010355562 0.09844652 -0.015525326
0.11034825 0.2300643 0.0059340447 -0.0016792545 0.27852336 0.043012183 -0.15141852 0.09762978
0.006533067 0.007950681 0.41325706 0.20887636 0.343948 0.2172926 -0.086200595 0.077864386
-0.042969912 -0.05676307 0.039021056 0.5420677 0.2015527 0.26352298 -0.044704143 0.7141994
0.31611332 0.53462416 0.15318911 0.00014740303 -0.13167581 -0.08364752 0.11197642 -0.006587097
-0.027962014 0.21475248 0.32459006 -0.10577409 0.2638309 -0.12796284 0.24478164 0.18639547
0.24749927 0.022253707 -0.21610096 -0.06917721 0.033270806 -0.22757618 -0.0014028549 -0.034829807
0.07794036 -0.06828508 0.06409069 -0.055143192 0.0017916858 0.059462234 -0.058044046 -0.08188374
0.13194036 -0.012514114 -0.0296008 0.09066796 0.11173342 0.13555337 0.09784602 0.10212097
-0.093003064 0.29404372 0.09042321 -0.105713926 0.27454755 0.10947175 -0.12058974 -0.044888694
0.032067675 0.03535358 0.47223878 0.32910022 0.29431555 0.39070645 0.016884165 -0.026972717
-0.056399755 -0.067387566 -0.10176506 0.7429234 0.38852075 0.37048835 -0.024962312 0.9183082
0.165853 0.55920213 0.10422918 0.09916292 0.022321295 -0.11570378 0.16019206 0.12826338
0.008264318 0.14677057 0.23213108 -0.032708302 0.21133769 -0.16028899 0.27084184 0.19207951
0.20178784 -0.012451693 -0.13986625 0.12250185 -0.11991204 -0.20454305 -0.09067101 -0.024990495
0.0010175413 -0.0598904 0.13120353 0.097231016 0.0042741275 0.1227034 -0.12250389 0.08968037
0.05688639 0.095357485 0.060332313 -0.11144765 0.26305655 0.21390308 -0.11246532 -0.004467087

fca1.bias f4 [64]
00000000: 1ae6 463d 86fa 6e3c aa81 3d3e 727d 813e
00000010: ef2a 1a3e 3857 cc3c 972d 3a3e b416 ce3d
00000020: 0c32 c23b 1df5 d23d 40ec 833e 44a3 d43c
00000030: eb79 983e 354f f63d fb62 8a3e 4f1a 3e3e
00000040: b01c 6abc aa31 8c3d 7079 c83d 49c0 403d
00000050: a0d6 9cbf 5902 503e 9f09 ff3d e654 b63d
00000060: 06c6 9c3d 27a5 293e e9d4 173f bb1e ff3d
00000070: fe45 ad3d dc5a 2d3e 25a2 723e 4652 803d
00000080: d3f7 713e 2abe 5a3e 3108 6e3d f0ee 1e3c
00000090: ca87 e53d bea4 a03d fdcf b63d fafa 3c3e
000000a0: 39ef 443d 65da bb3d 6f85 c13d 7f75 173e
000000b0: e034 ed3e eb9f a73e 28d0 3c3e 235d 9f3d
000000c0: fe2f 4a3c 4c1c 153e 7682 c03d 885a 7b3c
000000d0: 52c5 533e 71d1 043e 01e7 293e 955e 48bf
000000e0: a6af 323e a6d8 073e 68ea 403e 5ad5 6a3e
000000f0: cfe5 4ebc 09a7 223e 19cf 043e 4bfc 643e
0.048559286 0.014586097 0.18506494 0.2529102 0.1505544 0.024943933 0.18181454 0.10062924
0.005926376 0.10300658 0.25766182 0.025956757 0.29780516 0.12026826 0.2702864 0.18564723
-0.014289066 0.0684541 0.09788787 0.047058377 -1.2252998 0.20313396 0.12453007 0.08902912
0.076549575 0.16566907 0.5930925 0.12457033 0.084606156 0.16929191 0.23694666 0.062656924
0.23629694 0.21361604 0.05811328 0.009700522 0.1120754 0.07843922 0.08926389 0.18455115
0.048079703 0.09172515 0.094492786 0.14790915 0.46329403 0.32739195 0.1843878 0.07781436
0.012340544 0.14561576 0.093998834 0.015341409 0.2068074 0.1297052 0.16592027 -0.7826932
0.17449817 0.13266239 0.18839419 0.2293295 -0.012628033 0.15884031 0.12969626 0.22361867

fca2.weight f4 [1, 64]
00000000: eee3 a0be d0b3 d53a 903c 8ebe dabe b6be
00000010: e1b0 b4be 32ca 95b7 7332 aebe 94b2 c5be
00000020: b79e a3be e891 9abe 4dd1 b9be dee7 82be
00000030: 9c93 dcbe 58d4 95be 8ecc cfbe 1423 fcbe
00000040: d0a9 0039 9b80 b8be 7c5e febe d9f5 c0be
00000050: 89a3 8a40 9641 01bf d66a c1be d400 9abe
00000060: db7e 8cbe f8b6 e5be a99f c040 dea2 97be
00000070: a72a adbc 8dbc 9ebe a877 bfbe 936b c9be
00000080: 1523 bfbe c34f b2be e60a aabe a39f 9cba
00000090: 5287 b3be debd ccbe 1b34 9bbe c51a afbe
000000a0: 72b0 8cbe fac4 9abe 699e 8abe 4527 97be
000000b0: 9f92 9cbf 0d81 09bf 0cbb 04bf 4d0f 9bbe
000000c0: 663e a9be c471 06bf 987a 98be b55d abbc
000000d0: 6a2f c0be 1cdc 98be 2876 acbe 24fc 5340
000000e0: ea51 a8be d26b a8be f3bf b5be adae b3be
000000f0: 40eb 88be 550a 8ebe e540 c2be 03ba c8be
-0.31423897 0.0016304199 -0.2778058 -0.35692483 -0.35291198 -1.7856339e-05 -0.34022865 -0.38612807
-0.31957027 -0.30189443 -0.36292496 -0.25567526 -0.43081367 -0.29263568 -0.4058575 -0.49245512
0.00012270291 -0.36035618 -0.4968146 -0.37687567 4.332463 -0.504907 -0.37776822 -0.30078757
-0.27440533 -0.44866157 6.01949 -0.29616445 -0.021138502 -0.31003228 -0.37395978 -0.39339885
-0.37331453 -0.34826478 -0.3321144 -0.0011949431 -0.3506418 -0.39988607 -0.3031319 -0.3420011
-0.27478367 -0.30228406 -0.27073982 -0.29522148 -1.2232245 -0.5371254 -0.5184791 -0.3028511
-0.3305542 -0.5251734 -0.29781032 -0.020918706 -0.37536174 -0.2985543 -0.33683896 3.3122644
-0.32874995 -0.3289476 -0.35498008 -0.35094205 -0.26741982 -0.27742258 -0.37940136 -0.39204416
