src/Models/training/900_critic.pt (torch_old, 22186 bytes, 7 tensors)

fc1.weight f4 [32, 28]
0	0xbf5220ae	-0.82081115
1	0xbf5112c8	-0.8166928
2	0xbf225019	-0.6340347
3	0xbefec820	-0.49762058
4	0xbe8a2b4d	-0.2698616
5	0x3ea7b56a	0.32755595
6	0x3dccaaf6	0.09993546
7	0x3e95d3b1	0.2926307
8	0x3ec4d489	0.384434
9	0x3eec5631	0.4615951
10	0x3f0fcbe4	0.5617049
11	0x3e950ed8	0.29112887
12	0x3e5fca51	0.21854521
13	0x3d895e44	0.06707433
14	0xbeddf709	-0.43352535
15	0xbe90990b	-0.28241763
16	0xbd73a6db	-0.059485298
17	0x3eb114bb	0.3458613
18	0x3ed46d93	0.41489848
19	0x3f7a9190	0.9787836
20	0x3e659796	0.22421107
21	0x3d7946c8	0.060858518
22	0xbf5f35a8	-0.8719125
23	0xbf5ec33b	-0.8701665
24	0x4013d7c8	2.3100452
25	0x3d92248e	0.071358785
26	0xbff185f3	-1.8869003
27	0xbf208036	-0.62695634
28	0xbe385f98	-0.18005216
29	0xbd5b2b1a	-0.0535079
30	0xbd376c8d	-0.044781256
31	0xbd17d3cc	-0.03706722
32	0x3d96c0e9	0.073610134
33	0x3ce18877	0.027530892
34	0x3c7c09e8	0.015383221
35	0x3d3bc7c6	0.045844816
36	0xbd426100	-0.047455788
37	0x3cde958f	0.027170924
38	0x3ddc09b5	0.10744039
39	0x3d7c2cc4	0.06156613
40	0xbd8e3f83	-0.06945708
41	0xbde90813	-0.11378493
42	0xbddf7588	-0.10911089
43	0xbd665879	-0.056236718
44	0xbe29d75c	-0.1658606
45	0x3d8a7e2c	0.067623466
46	0x3e5f391d	0.2179913
47	0x3e7e0323	0.24805884
48	0x3ef7f1d8	0.484267
49	0x3e890f5f	0.2676954
50	0xbd596c74	-0.053081945
51	0xbe2b77a2	-0.16744855
52	0xbf865cef	-1.0497111
53	0xbdf78d61	-0.12087513
54	0x4037e2bf	2.8732145
55	0x3f0ff61c	0.5623491
56	0xbd910959	-0.07081861
57	0xbe0764ae	-0.13222
58	0x3b45081b	0.0030064646
59	0x3dc7c406	0.097541854
60	0xbe069612	-0.13143185
61	0xbe32022e	-0.17383644
62	0x3d14a152	0.03628666
63	0xbdc3e899	-0.09565849
64	0xbdd7264e	-0.10505353
65	0x3cf67c6c	0.030088626
66	0x3b98c660	0.00466232
67	0x3c42bfa0	0.011886507
68	0xbe0a4966	-0.13504562
69	0xbdb33c91	-0.087517865
70	0x3e230063	0.15918116
71	0xbdee6c5d	-0.116417624
72	0x3d090b60	0.033458114
73	0xbdfd69e2	-0.12373711
74	0x3c7cb710	0.015424505
75	0xbdfadf7e	-0.12249659
76	0x3deb2746	0.114821
77	0xbcc4f158	-0.024040863
78	0xbdc0b69f	-0.09409832
79	0x3e1e2951	0.15445448
80	0x3e2173ed	0.15766878
81	0x3dd5fe72	0.10448922
82	0xbc811559	-0.01575725
83	0xb75dc050	-1.3217403e-05
84	0xbebbc423	-0.36673078
85	0x3e8e1167	0.27747652
86	0x3eeae214	0.4587561
87	0x3e900591	0.28129247
88	0x3ee0a025	0.4387218
89	0x3ede1100	0.43372345
90	0x3e3a5afe	0.18198773
91	0x3f1217bb	0.5706746
92	0x3ddeeebd	0.108853795
93	0xbe7e7054	-0.24847537
94	0x3eb94b31	0.3619018
95	0x3d701ea6	0.05862298
96	0xbdc3c04c	-0.09558162
97	0xbcfb15cd	-0.030650044
98	0xbdceee7a	-0.101040795
99	0x3ce4f6d7	0.027949734
100	0x3ccfe61c	0.02537828
101	0x3ea92646	0.33037013
102	0x3deb1b0f	0.114797704
103	0x3ee16103	0.44019327
104	0x3eb58184	0.35450375
105	0x3f0ac93f	0.5421333
106	0x3e1b2b1b	0.15153162
107	0xbe0540f3	-0.13013057
108	0x3f350672	0.7071296
109	0xbc60456c	-0.013688426
110	0xbf51c39f	-0.8193912
111	0x3f1ae43a	0.60504496
112	0xbdc062df	-0.09393858
113	0xbe131d82	-0.14366725
114	0xbdeadfbb	-0.114684545
115	0x3dc709ce	0.09718667
116	0x3df1e0b9	0.118104406
117	0x3a1ade00	0.00059077144
118	0xbdc58a60	-0.096455336
119	0xbdf135a0	-0.11777806
120	0xbe32cadb	-0.17460196
121	0xbcc985b8	-0.024599895
122	0x3cbecd38	0.023291215
123	0x3dcdc692	0.1004764
124	0xbe3362e8	-0.17518198
125	0xbe33b1c7	-0.17548285
126	0x3e230549	0.15919985
127	0xbe250ddb	-0.16118567
128	0xbd828980	-0.06373882
129	0x3dbfad7a	0.0935926
130	0x3dc18ca6	0.09450655
131	0xbd89ea16	-0.067341015
132	0xbe1b0071	-0.15136887
133	0xbdd4b10e	-0.10385333
134	0xbd55d402	-0.05220414
135	0x3da2ef62	0.07955815
136	0x3dbe17ce	0.09281884
137	0x3e2e3325	0.17011698
138	0x3b31ac40	0.0027110726
139	0xbd1b2250	-0.03787452
140	0x3ebe25b8	0.37138152
141	0x3f59cfed	0.85082895
142	0x3fc09672	1.5045912
143	0x3f7786cb	0.9669005
144	0xbf15451d	-0.58308583
145	0xbe83c7de	-0.25738424
146	0xbd85579c	-0.06510851
147	0xbe23f8c7	-0.1601287
148	0xbec9e5d9	-0.39433172
149	0x3e2c905b	0.16851942
150	0x3ea05d60	0.3132124
151	0xbe897bba	-0.26852208
152	0x3db86fb3	0.0900568
153	0xbe4e9c46	-0.20176801
154	0xbd49585b	-0.049156528
155	0xbd71e653	-0.059057545
156	0xbba3e3fb	-0.0050015426
157	0x3e35f151	0.17767836
158	0xbe05ff17	-0.1308559
159	0xbe4a0abb	-0.19730656
160	0xbeaad07c	-0.33362186
161	0x3f276abf	0.65397257
162	0x3be9f56d	0.0071398527
163	0x3ebaca91	0.3648267
164	0x3eb781aa	0.35841113
165	0x3e841733	0.2579895
166	0xba5ca172	-0.0008416391
167	0x3e95edc3	0.2928296
168	0x3df2a7b7	0.11848395
169	0x3e8c4510	0.2739644
170	0x3e1f93f2	0.1558378
171	0xbd264f01	-0.040602688
172	0x3b020cab	0.0019843976
173	0x3e1f5f61	0.15563728
174	0x3c84267a	0.016131628
175	0x3d262796	0.040565096
176	0x3e09e387	0.13465701
177	0xbd558f67	-0.052138712
178	0x3dd3e383	0.10346129
179	0xbd25fb47	-0.04052284
180	0x3d0ba6db	0.034094673
181	0x3e04ce6c	0.12969369
182	0x3dd50619	0.10401554
183	0x3e5227f6	0.20523056
184	0x3d9dde89	0.07708461
185	0xbda84c1d	-0.082176425
186	0xbf70cad7	-0.9405951
187	0xbf1c4715	-0.6104596
188	0xbe29c678	-0.16579616
189	0xbe867b9f	-0.2626619
190	0x3cbb75e9	0.022883372
191	0x3e111949	0.14169802
192	0xbf4ab7f1	-0.7918692
193	0x3cbf9201	0.02338505
194	0xc012f42c	-2.296153
195	0xbfc35ccc	-1.5262694
196	0x3e0a0f53	0.13482408
197	0x3dda1747	0.10648971
198	0x3e261026	0.16217098
199	0xbd3498a9	-0.0440909
200	0xbe218c86	-0.15776262
201	0x3d8497b2	0.06474246
202	0x3debef88	0.11520296
203	0xbe3caa58	-0.18424356
204	0x3d9ab9c8	0.07554966
205	0xbe1e9060	-0.15484762
206	0xbe44abf4	-0.1920622
207	0xbece26de	-0.40264028
208	0x3e3cd129	0.18439163
209	0x3e58e017	0.21179233
210	0x3e975903	0.29560098
211	0xbd27ca30	-0.040964305
212	0xbe02c652	-0.12770966
213	0xbec78cd8	-0.38974643
214	0xbe44ca2a	-0.19217744
215	0xbd729baa	-0.059230484
216	0x3f010e36	0.5041231
217	0x3e6b5f39	0.22985543
218	0x3f0d804e	0.552739
219	0x3e89462f	0.26811358
220	0x40486580	3.131195
221	0xbdca2dae	-0.09871994
222	0x40192ef7	2.3934915
223	0x3ea01c3e	0.31271547
224	0x3e3e1ffb	0.18566887
225	0xbf6f91b8	-0.93581724
226	0xbf280138	-0.6562686
227	0xbf384746	-0.71983755
228	0x3d8daaaf	0.06917321
229	0xbebf2a5c	-0.37337005
230	0xbec1fe7d	-0.37889472
231	0x3dee856c	0.11646542
232	0x3eb13a5d	0.3461484
233	0xbe08f121	-0.13373233
234	0x3eef8684	0.46782315
235	0x3f845fab	1.0341696
236	0x3efc04dd	0.4922246
237	0x3f2bfb86	0.6718067
238	0x3ed2cd31	0.41172174
239	0x3e3f20d9	0.18664874
240	0xbb471e8a	-0.0030383193
241	0xbf2674ee	-0.6502217
242	0xbdf11c3e	-0.11772965
243	0xbf007624	-0.5018027
244	0xbf007b20	-0.50187874
245	0x3e43271e	0.19057891
246	0xbf12411f	-0.57130617
247	0x3dce22cf	0.10065233
248	0x3fc33e2f	1.5253352
249	0xbdc8ebb8	-0.09810585
250	0x3f896484	1.07338
251	0x3e6bd652	0.23030975
252	0xbd933537	-0.07187884
253	0x3ed65b38	0.4186647
254	0x3ec9e6a4	0.39433777
255	0x3e03ff1d	0.12890287

fc1.bias f4 [32]
0	0x3df96dd2	0.1217915
1	0xbeea76c6	-0.45793742
2	0xbb819e20	-0.0039556175
3	0x3fa254c7	1.2682122
4	0xbd7a7fc8	-0.061157018
5	0x3fcb3837	1.587653
6	0xbf68a870	-0.90882015
7	0x3f8774d7	1.0582532
8	0x3f7bdf99	0.9838806
9	0x3fb5a44d	1.4190766
10	0x3db21859	0.0869605
11	0x3f44b9fc	0.7684629
12	0xbe48c13e	-0.19604966
13	0x3e8c0a8f	0.27351806
14	0xbf662505	-0.8990024
15	0x3f798375	0.9746621
16	0x3fb746b2	1.431845
17	0xbceeb91e	-0.029141005
18	0x3f9cb475	1.2242571
19	0x3ddf2543	0.10895779
20	0xbe870938	-0.2637422
21	0x3ce7130f	0.02820733
22	0x3e5564bf	0.20839213
23	0xbf260ed3	-0.6486637
24	0xbf2ad161	-0.66725737
25	0xbf8ed719	-1.1159393
26	0x3f32fea8	0.69919825
27	0xbf2e0107	-0.6797032
28	0x3fc37715	1.5270716
29	0x3fa190a5	1.2622267
30	0x3f0a26a0	0.5396519
31	0x3f8c5a98	1.0965147

fa1.weight f4 [32, 2]
0	0xbd46adfc	-0.04850577
1	0xbe1e4c47	-0.15458785
2	0xbddbad0e	-0.10726367
3	0x3dac9a7e	0.084279045
4	0x3e0ee585	0.13954742
5	0x3d013400	0.03154373
6	0x3f33d1f8	0.7024226
7	0xbeb60d00	-0.35556793
8	0x3e2385de	0.15969035
9	0x3d366b80	0.044536114
10	0xbfa7d8e7	-1.3113068
11	0xbddbe241	-0.10736514
12	0x3ee5a236	0.4485032
13	0x3f3950fd	0.72389203
14	0xbd42e260	-0.04757917
15	0xbd303148	-0.04301575
16	0x3f8dc18d	1.1074692
17	0xbe5117ae	-0.2041919
18	0x3ee6164e	0.44938892
19	0x3e8b7bd4	0.2724291
20	0x3f861c0b	1.0477308
21	0xbf1393fe	-0.57647693
22	0xc0840744	-4.125887
23	0xbf8f48a1	-1.119404
24	0x3e087f27	0.13329755
25	0xbc8fc8c8	-0.017551795
26	0x3f08d551	0.53450495
27	0xbed371bb	-0.41297707
28	0xbd9486d5	-0.0725228
29	0xbdbf3edb	-0.093381606
30	0x3dc57963	0.09642293
31	0x3db1512a	0.08658059
32	0xbe12ec18	-0.14347875
33	0xbd6821da	-0.05667291
34	0x3d99e566	0.075144574
35	0x3d95ded8	0.07317895
36	0x3cc4faa8	0.024045303
37	0xbd6f18e8	-0.05837336
38	0xbd2fb25c	-0.042894706
39	0xbd67792a	-0.056512035
40	0xbf218cae	-0.63105285
41	0x3f34a23f	0.7056007
42	0xc003b7fe	-2.058105
43	0xbe521bec	-0.20518464
44	0xbdece1ff	-0.11566543
45	0x3e1f2787	0.15542422
46	0x3f4700be	0.7773551
47	0x3f3f622a	0.7475916
48	0xbc38bd10	-0.011275545
49	0xbdbd69de	-0.09248708
50	0xbdc58726	-0.09644918
51	0xbd065564	-0.03279628
52	0x3f3eb4c2	0.74494565
53	0x3e11c114	0.1423381
54	0x3dd2c156	0.10290782
55	0xbdb14b07	-0.086568885
56	0xbe1c534c	-0.1526615
57	0xbd269728	-0.040671498
58	0x3f9c6988	1.2219706
59	0xbedd9358	-0.43276477
60	0x3f25cd2d	0.647662
61	0x3eb92d5b	0.36167416
62	0x3df00cca	0.11721189
63	0x3d32ec20	0.043682218

fa1.bias f4 [32]
0	0xbf2ccf0f	-0.67503446
1	0xbe7f33a0	-0.24922037
2	0xbf17070c	-0.5899513
3	0x3ff6ccf0	1.9281292
4	0xbf1a3ed7	-0.60252136
5	0x3fad897a	1.355758
6	0x4012fa1e	2.296516
7	0xbf3480a5	-0.70508796
8	0x3fcc7eb5	1.5976168
9	0x400bec2d	2.18629
10	0x3fffdf16	1.9989955
11	0x3f05ef70	0.5231848
12	0xbf10a1df	-0.56496996
13	0x3fe83213	1.8140281
14	0xbf240c11	-0.6408091
15	0xbe4e6693	-0.20156316
16	0xbf19fa35	-0.6014741
17	0xbe3018ec	-0.17197007
18	0xbf073fa0	-0.5283146
19	0xbe0c4ddc	-0.13701576
20	0x40167007	2.3505876
21	0x3f8d00ac	1.101583
22	0xbf127ff3	-0.57226485
23	0x3fd1105a	1.6333115
24	0xbece49a6	-0.40290564
25	0xbea69d1a	-0.32541734
26	0x4008dd1b	2.1384952
27	0xbec25ab5	-0.3795983
28	0xbf2d542e	-0.67706573
29	0x400a20f3	2.158261
30	0x3e010a2e	0.1260154
31	0xbe61c042	-0.22045997

fca1.weight f4 [64, 64]
0	0xbc816766	-0.015796375
1	0xbf41c51b	-0.75691384
2	0x3d5b62d6	0.053561054
3	0x3cf6463c	0.030062787
4	0x3d2ec8c0	0.04267192
5	0x3e998bf8	0.299896
6	0xbdf7c6c7	-0.12098461
7	0x3e4f5041	0.20245458
8	0xbd31caa1	-0.043406133
9	0x3e2937db	0.16525213
10	0xbe9c44b1	-0.30521157
11	0x3fb546fe	1.416229
12	0x3dbabf42	0.09118511
13	0x3eb81749	0.35955265
14	0xbd9ec6ba	-0.07752748
15	0x3c2700b9	0.010193043
16	0xbe696b66	-0.22794876
17	0x3e55ee73	0.20891742
18	0x3ed6bedf	0.41942498
19	0xbe9c612e	-0.30542892
20	0xbf7468b7	-0.9547228
21	0x3e374c6f	0.17900251
22	0xbe9e930f	-0.30971572
23	0xbda55777	-0.08073323
24	0xbf417c2f	-0.75580114
25	0x4043f0da	3.0615754
26	0x3d188f6f	0.037246164
27	0xbed5f235	-0.41786352
28	0x3e2b2357	0.167127
29	0x3dbd210c	0.09234819
30	0x3d829486	0.06375985
31	0x3dcecb98	0.10097426
32	0xbd7582c4	-0.05993916
33	0xbdf43a5e	-0.11925195
34	0x3d8b8678	0.06812757
35	0xbe1077bd	-0.14108177
36	0x3d02dbb4	0.031947806
37	0xbe991286	-0.29896945
38	0xbdf38561	-0.118906744
39	0xbd2b6e9c	-0.041853532
40	0xbea498ae	-0.32147735
41	0xbe810909	-0.25202206
42	0xbe9611ff	-0.29310605
43	0x3e6bc101	0.23022844
44	0x3d8cddde	0.06878255
45	0xbe90bbef	-0.28268382
46	0xbd360a38	-0.04444334
47	0x3abfff06	0.0014648146
48	0x3db53eb4	0.0884985
49	0x3db0ff22	0.08642413
50	0x3d6486b5	0.05579253
51	0xbdbdbe9e	-0.09264873
52	0xbe523e19	-0.20531501
53	0xbf5bb6ec	-0.8582599
54	0xbdf32e6e	-0.1187409
55	0xbe15e8f0	-0.1463964
56	0xbb63fac0	-0.003478691
57	0xbc6bdf70	-0.014396533
58	0xbe5ab4ce	-0.21358034
59	0x3d8d952a	0.069132164
60	0xbd36345c	-0.044483528
61	0xbe68f04a	-0.22747913
62	0xbe9b5886	-0.30340976
63	0xbdb5c5ce	-0.08875619
64	0xbd2c3c5e	-0.042049758
65	0xbcfb8199	-0.030701445
66	0x3d38ec68	0.04514733
67	0xbe0518b5	-0.12997706
68	0x3d3a1f24	0.045439854
69	0x3c6620de	0.014045922
70	0x3dc9b24a	0.09848459
71	0x3d837aa2	0.06419875
72	0xbc922880	-0.017841578
73	0x3c914dbe	0.017737266
74	0x3d54c37f	0.051944252
75	0xbce50f6e	-0.027961459
76	0x3df766cd	0.120801546
77	0xbdfe5ffb	-0.124206506
78	0xbd938041	-0.07202197
79	0xbced25c5	-0.028948674
80	0xbd220325	-0.03955378
81	0xbaba1f1a	-0.0014199943
82	0x3da83519	0.082132526
83	0xbce6307f	-0.028099297
84	0x3dd3c1af	0.103396766
85	0xbc0d15d0	-0.008611158
86	0x3c816379	0.015794503
87	0xbd46f834	-0.04857655
88	0xbd949d6a	-0.07256587
89	0xbd87e38f	-0.066352
90	0xbe1f960b	-0.1558458
91	0xbd9dd0ea	-0.07705863
92	0xbdfb4319	-0.12268657
93	0x3cd51587	0.026011242
94	0xbdff8cc4	-0.12478021
95	0xbdc8925e	-0.09793542
96	0x3d6f2196	0.05838164
97	0x3db91c3e	0.0903859
98	0x3dde5e3a	0.10857816
99	0xbdf8706e	-0.12130819
100	0xbd2b249c	-0.04178296
101	0x3d05534c	0.03255014
102	0xbd8278d3	-0.06370702
103	0x3dedf1d8	0.11618394
104	0x3d276229	0.040865097
105	0xbdc060af	-0.09393441
106	0xbe018a8a	-0.12650505
107	0xbdcdc66a	-0.1004761
108	0xbd12c27c	-0.035830006
109	0x3d5c223d	0.05374359
110	0x3c85d948	0.01633896
111	0xbd4f1328	-0.05055538
112	0xbdf7090d	-0.12062273
113	0x3da66766	0.081251904
114	0xbd8d72da	-0.06906672
115	0x3d10d88f	0.035362776
116	0xbdb92131	-0.09039534
117	0x3d40222e	0.046907596
118	0x3b8384a0	0.004013613
119	0xbce81cb0	-0.028333992
120	0x3d2d533c	0.042315707
121	0x3d97b776	0.07408039
122	0xbe0a25b1	-0.1349094
123	0x3daaf055	0.08346621
124	0xbd971ed6	-0.07378928
125	0xbbd5c169	-0.0065233004
126	0x3c2e7450	0.010647848
127	0x3d8bb74a	0.06822069
128	0x3e8bcb82	0.27303702
129	0xbe2d0b56	-0.16898856
130	0x3dad0a64	0.084492475
131	0x3e204673	0.15651874
132	0xbcfac808	-0.03061296
133	0x3e73195f	0.23740147
134	0x3defccf6	0.11709015
135	0xbce25725	-0.027629444
136	0x3ea162fe	0.31520838
137	0x3dffc5d1	0.12488902
138	0xbed1512f	-0.4088225
139	0x3fa77517	1.3082608
140	0x3d959383	0.07303526
141	0x3ee3b96b	0.444774
142	0xbe9b73ff	-0.30361935
143	0x3e1aac5f	0.15104817
144	0x3de4fb75	0.11180774
145	0x3e695b47	0.22788726
146	0x3cc85b04	0.024457462
147	0xbfc60ec2	-1.5473254
148	0x3fbce15a	1.4756272
149	0xbcc0687f	-0.023487328
150	0xbe5911fc	-0.21198267
151	0xbd0b9175	-0.034074266
152	0xbfdd9110	-1.7309895
153	0x3ea573a5	0.32314792
154	0x3e38d344	0.18049341
155	0x3e458fad	0.19293089
156	0x3dc3bbb7	0.09557288
157	0x3d95d642	0.07316257
158	0xbc5e33d3	-0.013562161
159	0xbdb2abab	-0.08724149
160	0x3d423df4	0.047422364
161	0xbdbc2a8b	-0.09187802
162	0xbda93390	-0.08261788
163	0xbe934e8a	-0.28770858
164	0xbc114dc0	-0.008868635
165	0xbefac5e6	-0.4897911
166	0xbde4cd68	-0.11171991
167	0x3deb4a6e	0.11488806
168	0xbea03442	-0.3128987
169	0xbe918479	-0.2842138
170	0xbe89c99b	-0.26911625
171	0x3c6bee42	0.014400067
172	0x3d563d68	0.052304655
173	0xbe6cc8a1	-0.23123409
174	0xbca19b10	-0.01972726
175	0x3d9e51d2	0.0773045
176	0x3dcb9690	0.09940827
177	0xbd05a750	-0.032630265
178	0x3d3f63e0	0.046726108
179	0xbc6891f0	-0.01419495
180	0xbe30e781	-0.17275812
181	0xbf8b1c6e	-1.0868051
182	0x3c313350	0.0108154565
183	0x3c4f218e	0.012642277
184	0x3c25df70	0.010124072
185	0x3d08aa30	0.03336543
186	0xbea967a9	-0.330869
187	0x3da123c0	0.07868147
188	0x3dd6a7e2	0.1048124
189	0xbe7ec0d4	-0.24878246
190	0xbe44f92b	-0.19235675
191	0xbd875307	-0.06607633
192	0x3df1450f	0.1178075
193	0xbdaf4ec2	-0.08559944
194	0xbd99db6e	-0.07512556
195	0x3d9593a4	0.07303551
196	0x3dd9d116	0.10635583
197	0x3e02d15f	0.12775181
198	0xc065738d	-3.5851777
199	0x3e88c134	0.26709902
200	0x3e25b7db	0.16183417
201	0xbd225438	-0.0396311
202	0xbd0aa0ec	-0.033844873
203	0x40774f15	3.8642018
204	0xbc5d916f	-0.013523444
205	0x3f0abff6	0.5419916
206	0xbea5f113	-0.32410488
207	0x3cf28a57	0.029606981
208	0x3de9dafa	0.114187196
209	0x40972dcf	4.724342
210	0xbd36d898	-0.044640154
211	0xc0935763	-4.6044173
212	0x3fe3cdad	1.7797142
213	0xbce5abae	-0.028035965
214	0x3e9a5f5d	0.3015088
215	0xbeca3b39	-0.39498308
216	0xc0506244	-3.2559977
217	0x3ecabd0e	0.39597362
218	0xbe4355d1	-0.19075705
219	0xbd25ba32	-0.040460773
220	0x3dbef581	0.0932417
221	0x3dca71ec	0.0988501
222	0x3b94adfb	0.0045373417
223	0x3d4aa590	0.0494743
224	0x3cb30830	0.02185449
225	0xbd5d45e0	-0.054021716
226	0xbdec56bc	-0.11539981
227	0xbde60ee6	-0.112333104
228	0xbd9bc24a	-0.07605417
229	0xbf70c2b0	-0.9404707
230	0x3eb7595a	0.35810357
231	0xbde82582	-0.11335279
232	0xbe2e4aa2	-0.17020658
233	0x3d85ae4b	0.06527384
234	0xbea5dfac	-0.3239721
235	0xc03365cd	-2.8030884
236	0x3c7d37a0	0.015455157
237	0xbebfc33c	-0.3745364
238	0xbdc86d30	-0.09786451
239	0x3dbc74c4	0.09201959
240	0xbc19a430	-0.009377524
241	0x3cb18028	0.021667555
242	0xbcb197f8	-0.02167891
243	0xbd52ead6	-0.05149349
244	0x3e7c1237	0.24616323
245	0xbffcf99d	-1.9763676
246	0x3b401380	0.0029308498
247	0x3f1028fc	0.5631254
248	0xbd8c4b3c	-0.06850287
249	0xbd6cc804	-0.057807937
250	0x3db65f18	0.089048564
251	0x3d1f22a4	0.038851395
252	0xbd323814	-0.04351051
253	0xbebb9907	-0.36640188
254	0x3e13d60f	0.14437126
255	0xbba36000	-0.0049858093

fca1.bias f4 [64]
0	0xbe55e353	-0.20887499
1	0xbe0b4aaa	-0.13602701
2	0xbee38a17	-0.44441292
3	0xbe2ab7a1	-0.16671611
4	0xbe037f1a	-0.12841454
5	0x3f827cd2	1.0194342
6	0x3f4dfdbd	0.804653
7	0x3f92b266	1.1460693
8	0x3f80e6cd	1.0070435
9	0x3f04ecc4	0.51923776
10	0xbe52235f	-0.20521306
11	0xbed0f0f0	-0.4080882
12	0x3cefdd17	0.029280229
13	0xbda2ab1e	-0.07942794
14	0xbdb9b08d	-0.090668775
15	0xbd2e3c18	-0.04253778
16	0x3d6303fb	0.055423718
17	0x3d9c3cce	0.07628785
18	0xbebd8b7b	-0.37020478
19	0x3f4b30b7	0.7937121
20	0x3da7f860	0.08201671
21	0xbe567a0a	-0.20944992
22	0xbe95e13a	-0.29273397
23	0xbe887139	-0.26648882
24	0xbea10c6c	-0.3145479
25	0x3b88a7a0	0.004170373
26	0xbed5f116	-0.41785496
27	0xbea944ea	-0.3306039
28	0xbc965538	-0.018351182
29	0xbca1e3e5	-0.019761989
30	0xbdfe61ab	-0.124209724
31	0x3d45269f	0.048132535
32	0xbe82ad97	-0.25523064
33	0xbedd6d8f	-0.4324765
34	0x3fb3c21d	1.4043614
35	0xbe354827	-0.17703305
36	0xbd2b59cd	-0.041833688
37	0xbe082de7	-0.1329876
38	0xbe374897	-0.17898785
39	0xbea22d50	-0.31675196
40	0xbdc2c475	-0.095101275
41	0xbec20469	-0.3789399
42	0xbe91adc5	-0.28452888
43	0xbe36cb87	-0.17851077
44	0xbe814dea	-0.25254756
45	0xbec7361c	-0.3890847
46	0x3eb65ec1	0.35619166
47	0xbe516692	-0.20449284
48	0xbe80ea30	-0.2517867
49	0xbec5e25a	-0.38649255
50	0x3cbf1c76	0.023329
51	0xbe499f21	-0.19689609
52	0xbec51e02	-0.38499457
53	0xbe6a7a87	-0.22898303
54	0xbe83c8ef	-0.25739238
55	0xbeb31834	-0.34979403
56	0x3d3a3ebc	0.045469984
57	0xbe736ea7	-0.2377268
58	0xbec7be4a	-0.39012367
59	0x3f05de88	0.5229268
60	0xbe7e1b06	-0.24814996
61	0xbebd38b4	-0.36957324
62	0xbe465bf5	-0.19371016
63	0xbedd93de	-0.43276876

fca2.weight f4 [1, 64]
0	0xbf0e467d	-0.55576307
1	0xbcbfd40e	-0.023416545
2	0xbdef39f0	-0.116809726
3	0xc0173299	-2.3624632
4	0xc0e8c1f1	-7.2736745
5	0x40240780	2.5629578
6	0x40348d28	2.8211155
7	0x40186e4e	2.3817325
8	0x3f9b2296	1.211993
9	0xc171a219	-15.102075
10	0xbea637d5	-0.3246447
11	0xbe8db737	-0.27678844
12	0xbbffd6fc	-0.0078076106
13	0x3b90fbb7	0.004424538
14	0xbf8918ea	-1.0710728
15	0x3c8668a6	0.016407322
16	0xbb071c55	-0.0020616252
17	0xbb2daaec	-0.0026499582
18	0xbfacc0df	-1.349636
19	0x402baca5	2.6824124
20	0x39d98ef0	0.00041495962
21	0xbeee687b	-0.46564087
22	0xbe598bc5	-0.21244724
23	0xc02ad4f5	-2.6692479
24	0xbe1cf860	-0.15329123
25	0xbae89b94	-0.0017746561
26	0xbf8cb581	-1.0992891
27	0xbf5ce720	-0.8629017
28	0xba845b2a	-0.001009797
29	0xbac379a9	-0.0014913577
30	0xbf070e70	-0.52756405
31	0xbfb4e0a5	-1.4131056
32	0xbedc8184	-0.43067563
33	0xbe89beb0	-0.26903296
34	0x40150862	2.3286366
35	0xbf5b5e44	-0.8569071
36	0x3cd64639	0.026156532
37	0xc01a84f9	-2.414366
38	0xbe5bc116	-0.21460375
39	0xbfef340a	-1.8687756
40	0xc0d58525	-6.672503
41	0xbea376b4	-0.319265
42	0xbebb0b35	-0.36531988
43	0x3bc2b6a2	0.0059421817
44	0xbe9cf9e3	-0.30659398
45	0xbf5bcc59	-0.85858685
46	0xc13010cd	-11.004102
47	0xbebe6977	-0.37189838
48	0xbf2b4689	-0.66904503
49	0xbf1c6457	-0.61090606
50	0xbc96f6fc	-0.018428318
51	0xbea804dc	-0.32816207
52	0xbe4a7a4b	-0.19773214
53	0xbf3d8a8a	-0.7403952
54	0xbf27d904	-0.65565515
55	0xbed2988a	-0.41132003
56	0x3b22405e	0.0024757604
57	0xc03f8e59	-2.9930632
58	0xbf36b233	-0.7136566
59	0xc1843adf	-16.528746
60	0xc0893b61	-4.2884984
61	0xbf00a00e	-0.50244224
62	0xbf1edd4e	-0.62056434
63	0xbedd6e8d	-0.43248406
