src/Models/real1/1500_critic.pt (torch_old, 22186 bytes, 7 tensors)

fc1.weight f4 [32, 28]
0	0xbf418fc8	-0.7561002
1	0xbf39c7ab	-0.72570294
2	0xbf381f0f	-0.7192239
3	0xbe5d8a56	-0.21634802
4	0x3d5b9908	0.05361274
5	0x3ebe6c61	0.37192062
6	0x3e80486d	0.25055256
7	0x3eb3ed0c	0.3514179
8	0x3e93e927	0.2888882
9	0x3ed40043	0.4140645
10	0x3f01c46e	0.5069035
11	0x3eb1719a	0.34656984
12	0x3e5cb749	0.21554293
13	0xbda3f44f	-0.080055825
14	0xbe821e2f	-0.25413653
15	0xbed036a5	-0.4066669
16	0xbe63ce3f	-0.22246645
17	0x3e37b2ce	0.17939302
18	0x3eaffda1	0.3437319
19	0x3f64be06	0.8935245
20	0x3de3f718	0.11131114
21	0x3eec21b8	0.46119475
22	0xbfa18e46	-1.2621543
23	0xbf4baa79	-0.79556996
24	0x4007b7fe	2.120605
25	0xbac2b7c7	-0.0014855795
26	0xc010fc9c	-2.265418
27	0xbf99b732	-1.2009032
28	0xbea5e3eb	-0.3240045
29	0x3b6810e3	0.0035410456
30	0x3e1f10d3	0.15533762
31	0x3dcd01bc	0.100100964
32	0x3d5fc3fb	0.05463026
33	0xbd3bcb19	-0.045847986
34	0xbe0b7b01	-0.13621141
35	0x3d44b5d8	0.048024982
36	0xbd6e14e2	-0.058125384
37	0xbdac7c9b	-0.08422204
38	0x3d7b2e0c	0.06132321
39	0x3dcc39dc	0.09971973
40	0xbd972d08	-0.07381636
41	0xbe1ce580	-0.15321922
42	0xbd96446e	-0.07337271
43	0x3caea865	0.021320531
44	0xbe05f3a2	-0.1308122
45	0x3d2fe497	0.04294261
46	0x3e0ccf63	0.13750987
47	0x3e7ce312	0.24695995
48	0x3ef0eccd	0.47055665
49	0x3e50971a	0.2037014
50	0xbd816b6e	-0.06319319
51	0xbea8df82	-0.32983023
52	0xbff6b1a8	-1.9272966
53	0xbdb56d24	-0.088587075
54	0x4054daf6	3.3258643
55	0x3f786e43	0.97043246
56	0xbdd1eb93	-0.1025001
57	0xbe27d5a3	-0.1639009
58	0xbcead0b7	-0.028663976
59	0x3d86eae5	0.06587771
60	0xbe2702b4	-0.16309625
61	0xbe526c21	-0.2054906
62	0x3b9786d8	0.004624229
63	0xbe026389	-0.12733282
64	0xbe0c0473	-0.13673572
65	0xbad1ff2d	-0.0016021483
66	0xbcdd72b9	-0.027032243
67	0xbca24613	-0.019808805
68	0xbe2ab407	-0.16670237
69	0xbdf411e6	-0.11917476
70	0x3e028a2b	0.1274802
71	0xbe17a8f4	-0.14810544
72	0x3ae6ce5f	0.0017609111
73	0xbe1f26f3	-0.15542202
74	0xbc85481e	-0.01626974
75	0xbe1de2b9	-0.15418519
76	0x3daa45cd	0.08314095
77	0xbd643fb1	-0.055724803
78	0xbe00cd4f	-0.12578319
79	0x3dfb6f6b	0.12277111
80	0x3e0122ba	0.12610903
81	0x3d9517df	0.07279944
82	0x3c8232d6	0.015893381
83	0xbd01b49e	-0.03166639
84	0xbed7654a	-0.42069465
85	0xbe116d62	-0.14201882
86	0x3e497055	0.19671758
87	0x3ef22b9a	0.4729889
88	0x3f63cb12	0.88981736
89	0x3f163a00	0.5868225
90	0x3d7741ed	0.060365606
91	0x3ef97af9	0.48726633
92	0xbdb3bd85	-0.08776382
93	0xbe894523	-0.2681056
94	0x3e9003b8	0.28127837
95	0xbb859f70	-0.0040778443
96	0xbebcf820	-0.36908054
97	0xbddb08f4	-0.10695067
98	0xbeac1b3e	-0.33614534
99	0xbe839b38	-0.2570436
100	0xbe2d2cbc	-0.16911596
101	0xbd92dc02	-0.071708694
102	0x3eca987f	0.3956947
103	0x3f5ace1a	0.85470736
104	0x3efd53b6	0.4947793
105	0x3f300434	0.68756413
106	0xbe426163	-0.18982463
107	0xbe2e7e06	-0.17040262
108	0xbf1fe49a	-0.62458193
109	0x3eacb757	0.33733627
110	0xbf906f18	-1.1283903
111	0x3f07a5a8	0.52987146
112	0xbdc062df	-0.09393858
113	0xbe131d82	-0.14366725
114	0xbdeadfbb	-0.114684545
115	0x3dc709ce	0.09718667
116	0x3df1e0b9	0.118104406
117	0x3a1ade00	0.00059077144
118	0xbdc58a60	-0.096455336
119	0xbdf135a0	-0.11777806
120	0xbe32cadb	-0.17460196
121	0xbcc985b8	-0.024599895
122	0x3cbecd38	0.023291215
123	0x3dcdc692	0.1004764
124	0xbe3362e8	-0.17518198
125	0xbe33b1c7	-0.17548285
126	0x3e230549	0.15919985
127	0xbe250ddb	-0.16118567
128	0xbd828980	-0.06373882
129	0x3dbfad7a	0.0935926
130	0x3dc18ca6	0.09450655
131	0xbd89ea16	-0.067341015
132	0xbe1b0071	-0.15136887
133	0xbdd4b10e	-0.10385333
134	0xbd55d402	-0.05220414
135	0x3da2ef62	0.07955815
136	0x3dbe17ce	0.09281884
137	0x3e2e3325	0.17011698
138	0x3b31ac40	0.0027110726
139	0xbd1b2250	-0.03787452
140	0xbd5cdae0	-0.053919673
141	0x3fb838ad	1.4392296
142	0x4006ee51	2.1082957
143	0x3f882082	1.0634921
144	0xbf347d5f	-0.705038
145	0x3d581163	0.052750956
146	0xbe19367d	-0.14962192
147	0xbdfda98e	-0.123858556
148	0xbefef324	-0.49794877
149	0x3e5f8382	0.2182751
150	0x3efec53e	0.4975986
151	0x3c8556b7	0.0162767
152	0x3f046e47	0.5173077
153	0x3defe70f	0.11713993
154	0x3df9760d	0.121807195
155	0x3e1ebbba	0.155013
156	0xbd5db9cf	-0.05413228
157	0x3e5a4ddf	0.21318768
158	0xbe7c2ad2	-0.2462571
159	0xbec245fd	-0.37944022
160	0xbeffa699	-0.4993179
161	0x3f8114ba	1.008445
162	0x3e58e7c9	0.21182169
163	0xbd3b7937	-0.045769896
164	0xbf62eedd	-0.88645726
165	0x3e867e4f	0.2626824
166	0xbd9be413	-0.07611861
167	0xbe6cf135	-0.23138888
168	0x3d747150	0.059678376
169	0x3e190dee	0.1494672
170	0xbcffc29d	-0.031220729
171	0xbc29a6a7	-0.010354674
172	0x3d8b3189	0.067965575
173	0x3e3750d3	0.17901926
174	0x3da5bb5f	0.08092379
175	0x3de90a5f	0.11378931
176	0x3dd86a45	0.10567144
177	0x3d660fe3	0.056167495
178	0x3dcca55d	0.09992478
179	0x3d7c22fa	0.061556794
180	0x3df14207	0.11780172
181	0x3e3135a9	0.17305626
182	0x3dfde3e5	0.12396983
183	0x3d6bffca	0.057616986
184	0x3d663f00	0.056212425
185	0xbe21133f	-0.15729998
186	0xbf8613bc	-1.0474772
187	0xbed070a2	-0.40710932
188	0x3c23c2a0	0.009995133
189	0xbcd72bf9	-0.026266085
190	0x3c8f14e2	0.017466012
191	0x3d8cbed9	0.06872339
192	0x3e28e8ff	0.16495131
193	0x3bc60dc0	0.0060441196
194	0xc010a0a2	-2.2598042
195	0xbfe7bc13	-1.8104271
196	0x3e45d4c4	0.19319445
197	0x3e21002f	0.15722726
198	0x3d1ebffe	0.038757317
199	0x3da6ec15	0.08150498
200	0xb73d3e58	-1.1279793e-05
201	0x3e506ee6	0.20354804
202	0x3dd37c26	0.10326414
203	0xbe2e4460	-0.1701827
204	0x3d8a4f23	0.067533754
205	0xbe9977c8	-0.29974198
206	0xbe8545bf	-0.26029775
207	0xbeb0c85e	-0.34527868
208	0x3e14a637	0.14516531
209	0x3e9e3ee4	0.30907357
210	0x3e9e40d0	0.30908823
211	0xbd715520	-0.058919072
212	0xbd0baa77	-0.034098115
213	0xbe833e66	-0.25633544
214	0xbe8d0ca9	-0.2754872
215	0xbe992500	-0.2991104
216	0x3f08933a	0.5334965
217	0x3dc5a710	0.09651005
218	0x3f307551	0.6892901
219	0x3eaa1627	0.33220026
220	0x405dcc8b	3.4656093
221	0xbe41023d	-0.1884851
222	0x403aee53	2.9207962
223	0x3f03cd73	0.51485366
224	0xbe46919d	-0.19391485
225	0xbf9786bc	-1.1837993
226	0xbf4d438b	-0.8018119
227	0xbf3d58f1	-0.7396384
228	0xbe7e0226	-0.24805507
229	0xbea8a07c	-0.3293494
230	0x3c830c01	0.015996935
231	0x3e531861	0.20614769
232	0x3e8d6dc9	0.27622822
233	0x3e9cc6fe	0.3062057
234	0x3f5a7774	0.8533852
235	0x3f84cf6d	1.0375801
236	0x3f3b2430	0.7310209
237	0x3f42e5db	0.7613198
238	0x3ee77b47	0.4521124
239	0x3ec77928	0.38959622
240	0x3e7d5c77	0.24742304
241	0xbee7ac98	-0.45248866
242	0xbe8054ea	-0.25064784
243	0xbe9ffa9f	-0.31245896
244	0xbf29df1d	-0.6635607
245	0xbef4d8c9	-0.47821644
246	0xbedc02e0	-0.42970943
247	0xbe8dc4a6	-0.27689093
248	0x3f82abb8	1.0208654
249	0xbcef67e9	-0.029224353
250	0x3ff9c592	1.9513419
251	0x3e4b43e0	0.19850111
252	0xbe488dbf	-0.19585322
253	0x3eca89a5	0.3955814
254	0x3eaa0015	0.33203188
255	0x3e2fa943	0.17154412

fc1.bias f4 [32]
0	0xbd8715a5	-0.06595925
1	0xbdef5b5b	-0.116873465
2	0xbd11f501	-0.035634045
3	0x3fa6eaad	1.3040367
4	0xbd7a7fc8	-0.061157018
5	0x3fb5fc5e	1.4217641
6	0xbf8a6480	-1.081192
7	0x3f63d2ab	0.8899333
8	0x3f46fa83	0.77726
9	0x3fb425cd	1.4074036
10	0xbe07d0ed	-0.13263293
11	0x3f5d2a0e	0.86392295
12	0xbe48c13e	-0.19604966
13	0x3e96935f	0.2940931
14	0xbf8e5806	-1.1120613
15	0x3f2d5502	0.67707837
16	0x3fb81ad3	1.4383186
17	0x3e70513b	0.23468487
18	0x3f913880	1.1345367
19	0x3d426e8f	0.04746872
20	0x3e52adee	0.20574161
21	0x3ce7130f	0.02820733
22	0x3e078958	0.13235986
23	0xbf48acfb	-0.7838895
24	0xbf7da589	-0.9908071
25	0xbf4361d2	-0.76321137
26	0x3f15812a	0.58400214
27	0xbf3ec468	-0.7451844
28	0x3fb91d7b	1.4462122
29	0x3f964ee3	1.1742824
30	0x3edc85a1	0.430707
31	0x3f90582e	1.127691

fa1.weight f4 [32, 2]
0	0xbd46adfc	-0.04850577
1	0xbe1e4c47	-0.15458785
2	0xbddbad0e	-0.10726367
3	0x3dac9a7e	0.084279045
4	0x3e0ee585	0.13954742
5	0x3d013400	0.03154373
6	0x3f3eed8d	0.74581224
7	0xbeb4c2c1	-0.35304835
8	0x3e2385de	0.15969035
9	0x3d366b80	0.044536114
10	0xbfa7ec67	-1.3119019
11	0xbdba2d2f	-0.09090649
12	0x3ef382ad	0.47560635
13	0x3f39db03	0.7259981
14	0xbd42e260	-0.04757917
15	0xbd303148	-0.04301575
16	0x3f945817	1.1589383
17	0xbe5a00ad	-0.2128932
18	0x3efc9e92	0.4933973
19	0x3e842f7c	0.25817478
20	0x3f8ca6f2	1.0988448
21	0xbf123e9b	-0.5712678
22	0xc05efd79	-3.4842207
23	0xbf624097	-0.88379806
24	0x3e087f27	0.13329755
25	0xbc8fc8c8	-0.017551795
26	0x3f1467cd	0.5797089
27	0xbed5e4f4	-0.4177624
28	0xbd9486d5	-0.0725228
29	0xbdbf3edb	-0.093381606
30	0x3dc57963	0.09642293
31	0x3db1512a	0.08658059
32	0xbe12ec18	-0.14347875
33	0xbd6821da	-0.05667291
34	0x3d99e566	0.075144574
35	0x3d95ded8	0.07317895
36	0x3cc4faa8	0.024045303
37	0xbd6f18e8	-0.05837336
38	0xbd2fb25c	-0.042894706
39	0xbd67792a	-0.056512035
40	0xbf1a8a03	-0.6036684
41	0x3f332b35	0.69987804
42	0xc00ac46c	-2.1682386
43	0xbe09ea0a	-0.13468185
44	0xbdece1ff	-0.11566543
45	0x3e1f2787	0.15542422
46	0x3f4e71d3	0.8064243
47	0x3f3f51f2	0.74734414
48	0xbc38bd10	-0.011275545
49	0xbdbd69de	-0.09248708
50	0xbdc58726	-0.09644918
51	0xbd065564	-0.03279628
52	0x3f4b2080	0.79346466
53	0x3e05ed59	0.13078822
54	0x3dd2c156	0.10290782
55	0xbdb14b07	-0.086568885
56	0xbe1c534c	-0.1526615
57	0xbd269728	-0.040671498
58	0x3fa277fc	1.2692866
59	0xbedb9f8d	-0.42895165
60	0x3ead8a6f	0.3389468
61	0x3f208a2c	0.62710834
62	0x3df00cca	0.11721189
63	0x3d32ec20	0.043682218

fa1.bias f4 [32]
0	0xbf2ccf0f	-0.67503446
1	0xbe7f33a0	-0.24922037
2	0xbf17070c	-0.5899513
3	0x3fff3ea5	1.9940993
4	0xbf1a3ed7	-0.60252136
5	0x3fb3fb53	1.4061073
6	0x40172a24	2.361947
7	0xbf3480a5	-0.70508796
8	0x3fd5d2aa	1.6704915
9	0x40104911	2.2544596
10	0x40047369	2.069544
11	0x3f6c6a1c	0.9234941
12	0xbf10a1df	-0.56496996
13	0x3ff0d543	1.8815082
14	0xbf240c11	-0.6408091
15	0xbe4e6693	-0.20156316
16	0xbf19fa35	-0.6014741
17	0xbe3018ec	-0.17197007
18	0xbf073fa0	-0.5283146
19	0xbe0c4ddc	-0.13701576
20	0x401a40b6	2.4101996
21	0x3f8de0da	1.1084244
22	0xbf127ff3	-0.57226485
23	0x3fda296e	1.7043893
24	0xbece49a6	-0.40290564
25	0xbea69d1a	-0.32541734
26	0x400d3248	2.206194
27	0xbec25ab5	-0.3795983
28	0xbf2d542e	-0.67706573
29	0x400ea998	2.2291012
30	0x3e6b5f8b	0.22985666
31	0xbe61c042	-0.22045997

fca1.weight f4 [64, 64]
0	0x3edbcd69	0.42930153
1	0xbf2c60d1	-0.6733523
2	0x3d1eb2d4	0.038744763
3	0x3d562ad0	0.052286923
4	0x3d2ec8c0	0.04267192
5	0x3ea0a5d8	0.3137653
6	0xbf15ddcc	-0.5854156
7	0x3e474b55	0.1946233
8	0x3dec5da3	0.11541297
9	0x3e74dff4	0.23913556
10	0xbe9b2e39	-0.30308703
11	0x3f974796	1.1818721
12	0x3dbabf42	0.09118511
13	0x3e6d86fb	0.23196022
14	0xbdee86d9	-0.11646814
15	0x3dee2f7a	0.11630149
16	0xbe8ca904	-0.274727
17	0xc0717114	-3.7725267
18	0x3ec7cd6f	0.3902392
19	0xbe80d064	-0.2515899
20	0xc07eebc6	-3.9831405
21	0x3e374c6f	0.17900251
22	0xbe1356d6	-0.14388594
23	0xbe93ef72	-0.2889362
24	0xbec61481	-0.38687518
25	0x40993d06	4.788699
26	0x3e5a40a3	0.2131372
27	0xbf20d2ab	-0.62821454
28	0x3e0fbba8	0.14036429
29	0x3d257bab	0.040401142
30	0x3e1bee34	0.15227586
31	0x3e30e94d	0.17276497
32	0xbd7582c4	-0.05993916
33	0xbdf43a5e	-0.11925195
34	0x3d8b8678	0.06812757
35	0xbe15b9ae	-0.14621612
36	0x3d02dbb4	0.031947806
37	0xbe9013d4	-0.28140128
38	0xbdfaee26	-0.122524545
39	0xbd2b6e9c	-0.041853532
40	0xbea764ce	-0.32694095
41	0xbe830562	-0.25590044
42	0xbe99d124	-0.30042374
43	0x3eff388a	0.49847823
44	0x3d8cddde	0.06878255
45	0xbe92b7ae	-0.2865576
46	0xbd360a38	-0.04444334
47	0x3abfff06	0.0014648146
48	0x3db53eb4	0.0884985
49	0x3db0ff22	0.08642413
50	0x3d6486b5	0.05579253
51	0xbdbdbe9e	-0.09264873
52	0xbe517397	-0.2045425
53	0xbf5051d2	-0.8137485
54	0xbdf32e6e	-0.1187409
55	0xbe17883a	-0.1479806
56	0xbb63fac0	-0.003478691
57	0xbc6bdf70	-0.014396533
58	0xbe600ad4	-0.2187913
59	0x3d8d952a	0.069132164
60	0xbd36345c	-0.044483528
61	0xbe7161db	-0.23572485
62	0xbda58228	-0.08081466
63	0xbdb5c5ce	-0.08875619
64	0xbd2c3c5e	-0.042049758
65	0xbcfb8199	-0.030701445
66	0x3d38ec68	0.04514733
67	0xbe0518b5	-0.12997706
68	0x3d3a1f24	0.045439854
69	0x3c6620de	0.014045922
70	0x3dc9b24a	0.09848459
71	0x3d837aa2	0.06419875
72	0xbc922880	-0.017841578
73	0x3c914dbe	0.017737266
74	0x3d54c37f	0.051944252
75	0xbce50f6e	-0.027961459
76	0x3df766cd	0.120801546
77	0xbdfe5ffb	-0.124206506
78	0xbd938041	-0.07202197
79	0xbced25c5	-0.028948674
80	0xbd220325	-0.03955378
81	0xbaba1f1a	-0.0014199943
82	0x3da83519	0.082132526
83	0xbce6307f	-0.028099297
84	0x3dd3c1af	0.103396766
85	0xbc0d15d0	-0.008611158
86	0x3c816379	0.015794503
87	0xbd46f834	-0.04857655
88	0xbd949d6a	-0.07256587
89	0xbd87e38f	-0.066352
90	0xbe1f960b	-0.1558458
91	0xbd9dd0ea	-0.07705863
92	0xbdfb4319	-0.12268657
93	0x3cd51587	0.026011242
94	0xbdff8cc4	-0.12478021
95	0xbdc8925e	-0.09793542
96	0x3d6f2196	0.05838164
97	0x3db91c3e	0.0903859
98	0x3dde5e3a	0.10857816
99	0xbdf8706e	-0.12130819
100	0xbd2b249c	-0.04178296
101	0x3d05534c	0.03255014
102	0xbd8278d3	-0.06370702
103	0x3dedf1d8	0.11618394
104	0x3d276229	0.040865097
105	0xbdc060af	-0.09393441
106	0xbe018a8a	-0.12650505
107	0xbdcdc66a	-0.1004761
108	0xbd12c27c	-0.035830006
109	0x3d5c223d	0.05374359
110	0x3c85d948	0.01633896
111	0xbd4f1328	-0.05055538
112	0xbdf7090d	-0.12062273
113	0x3da66766	0.081251904
114	0xbd8d72da	-0.06906672
115	0x3d10d88f	0.035362776
116	0xbdb92131	-0.09039534
117	0x3d40222e	0.046907596
118	0x3b8384a0	0.004013613
119	0xbce81cb0	-0.028333992
120	0x3d2d533c	0.042315707
121	0x3d97b776	0.07408039
122	0xbe0a25b1	-0.1349094
123	0x3daaf055	0.08346621
124	0xbd971ed6	-0.07378928
125	0xbbd5c169	-0.0065233004
126	0x3c2e7450	0.010647848
127	0x3d8bb74a	0.06822069
128	0x3f4fef31	0.8122435
129	0xbea8d9ee	-0.32978767
130	0x3d95336f	0.07285201
131	0x3d736318	0.059420675
132	0xbcfac808	-0.03061296
133	0x3ec3b3ae	0.38223022
134	0xbed072a8	-0.40712476
135	0x3e421cd8	0.18956316
136	0x3e8b03c3	0.27151307
137	0x3dbb07bd	0.09132335
138	0xbfabdb2d	-1.3426262
139	0xbeeadaeb	-0.45870146
140	0x3d959383	0.07303526
141	0x3f23ce78	0.6398692
142	0xbe9db7c6	-0.3080427
143	0x3daf5ffb	0.08563229
144	0x3d60426b	0.05475084
145	0xc08a54e8	-4.3228645
146	0x3e1998ce	0.14999697
147	0xbfb83098	-1.438983
148	0x40410064	3.0156488
149	0xbcc0687f	-0.023487328
150	0x3e9cab12	0.30599266
151	0x3e855c8e	0.26047176
152	0xbf7e3c76	-0.99311006
153	0x3fc2dad9	1.5223037
154	0xbc23727c	-0.009976026
155	0x3d609297	0.0548273
156	0x3e287237	0.1644982
157	0x3e270023	0.16308646
158	0xbd9c33ac	-0.07627043
159	0xbdd8da1e	-0.105884776
160	0x3d423df4	0.047422364
161	0xbdbc2a8b	-0.09187802
162	0xbda93390	-0.08261788
163	0xbe9d2eb4	-0.30699694
164	0xbc114dc0	-0.008868635
165	0xbf004113	-0.50099295
166	0xbc428c06	-0.0118742045
167	0x3deb4a6e	0.11488806
168	0xbe9e89c1	-0.30964473
169	0xbe6a5c2b	-0.22886722
170	0xbe9f2a5f	-0.31087014
171	0xbdd96ec5	-0.10616831
172	0x3d563d68	0.052304655
173	0xbe8675b3	-0.26261672
174	0xbca19b10	-0.01972726
175	0x3d9e51d2	0.0773045
176	0x3dcb9690	0.09940827
177	0xbd05a750	-0.032630265
178	0x3d3f63e0	0.046726108
179	0xbc6891f0	-0.01419495
180	0xbd9b7e98	-0.07592505
181	0xbf948f2d	-1.1606194
182	0x3c313350	0.0108154565
183	0x3e12967e	0.1431522
184	0x3c25df70	0.010124072
185	0x3d08aa30	0.03336543
186	0xbe93c604	-0.2886201
187	0x3da123c0	0.07868147
188	0x3dd6a7e2	0.1048124
189	0xbe897a9c	-0.26851356
190	0x3e4eda26	0.20200405
191	0xbd875307	-0.06607633
192	0x3e886e8f	0.2664685
193	0xbe5b9434	-0.21443254
194	0xbd99db6e	-0.07512556
195	0x3e27eb64	0.16398388
196	0x3dd9d116	0.10635583
197	0x3de2c2f0	0.110723376
198	0xbff54325	-1.9161116
199	0x3e5a9e2d	0.21349402
200	0xbcda6627	-0.026660038
201	0xbdb3dc74	-0.087822825
202	0x3b7c04b8	0.003845496
203	0xbf661715	-0.8987897
204	0xbc5d916f	-0.013523444
205	0x3eb16d8e	0.34653896
206	0xbe94a3f7	-0.29031345
207	0xbd2aeea8	-0.041731507
208	0x3d889f26	0.0667098
209	0x40b250c2	5.572358
210	0xbce34c46	-0.027746331
211	0xbfa00ff1	-1.2504865
212	0x3fb6fafa	1.4295342
213	0xbce5abae	-0.028035965
214	0xbf15466e	-0.5831059
215	0xbeba75b1	-0.36417916
216	0xc0482251	-3.1270945
217	0x40240d10	2.5632973
218	0xbd837625	-0.06419019
219	0x3d2021e1	0.03909481
220	0x3d9a46a9	0.075330086
221	0x3e14f0f8	0.14545047
222	0xbdb75f44	-0.08953717
223	0xbcd8333e	-0.026391622
224	0x3cb30830	0.02185449
225	0xbd5d45e0	-0.054021716
226	0xbdec56bc	-0.11539981
227	0xbd7b7b51	-0.0613969
228	0xbd9bc24a	-0.07605417
229	0xbf7d5139	-0.9895206
230	0x3e9be8dc	0.30451095
231	0xbde82582	-0.11335279
232	0xbdf5f7ac	-0.1201013
233	0x3d22befa	0.03973291
234	0xbe6f6e3b	-0.23381893
235	0xc05608d3	-3.3442886
236	0x3c7d37a0	0.015455157
237	0xbe9f794f	-0.3114724
238	0xbdc86d30	-0.09786451
239	0x3dbc74c4	0.09201959
240	0xbc19a430	-0.009377524
241	0x3cb18028	0.021667555
242	0xbcb197f8	-0.02167891
243	0xbd52ead6	-0.05149349
244	0x3e313cd0	0.17308354
245	0xc0066596	-2.0999503
246	0x3b401380	0.0029308498
247	0x3f0205f0	0.5079031
248	0xbd8c4b3c	-0.06850287
249	0xbd6cc804	-0.057807937
250	0x3da3f455	0.08005587
251	0x3d1f22a4	0.038851395
252	0xbd323814	-0.04351051
253	0xbe9be166	-0.30445403
254	0x3d71d819	0.059043977
255	0xbba36000	-0.0049858093

fca1.bias f4 [64]
0	0xbe643aa8	-0.22288
1	0xbe0b4aaa	-0.13602701
2	0xbede1b1d	-0.4338006
3	0xbe41b843	-0.18917947
4	0xbd97a7e8	-0.074050725
5	0x3f8d1c6b	1.1024297
6	0x3f5e66cf	0.86875623
7	0x3f9f7734	1.2458253
8	0x3f8d55c3	1.1041797
9	0x3f1e0d75	0.61739284
10	0xbe7a5f49	-0.24450411
11	0xbed57268	-0.41688848
12	0x3cefdd17	0.029280229
13	0xbda2ab1e	-0.07942794
14	0xbd6df646	-0.058096193
15	0xbd97ed15	-0.07418267
16	0x3d6303fb	0.055423718
17	0x3d9c3cce	0.07628785
18	0xbed0a69b	-0.4075211
19	0x3f692f4f	0.9108781
20	0x3d87b896	0.06627004
21	0xbe2f1e2f	-0.17101358
22	0xbeaa3ade	-0.33248037
23	0xbe8609b9	-0.26179293
24	0xbeb29ba8	-0.3488438
25	0x3b88a7a0	0.004170373
26	0xbef149e9	-0.471267
27	0xbea6991a	-0.32538682
28	0xbd483c6d	-0.04888575
29	0xbca1e3e5	-0.019761989
30	0xbde86aac	-0.11348471
31	0x3ef2b320	0.47402287
32	0xbe8f0264	-0.2793151
33	0xbeeff697	-0.4686782
34	0x3fc084e3	1.5040554
35	0xbeaf05bc	-0.34184062
36	0xbd2b59cd	-0.041833688
37	0x3d0b4b97	0.034007635
38	0xbe34fbd1	-0.17674185
39	0xbea9186b	-0.33026442
40	0xbdd2efdd	-0.102996565
41	0xbed6c499	-0.41946867
42	0xbe948059	-0.29004171
43	0xbe36cb87	-0.17851077
44	0xbe8a1cc7	-0.2697508
45	0xbe89639b	-0.26833805
46	0x3ea593fa	0.3233946
47	0xbe47600c	-0.19470233
48	0xbea24a5c	-0.31697357
49	0xbee883ef	-0.45413157
50	0x3cbf1c76	0.023329
51	0xbe7c680d	-0.24649067
52	0xbef7e2d1	-0.48415235
53	0xbe206161	-0.15662147
54	0xbea36afd	-0.31917563
55	0xbeac350d	-0.33634225
56	0x3d3a3ebc	0.045469984
57	0x3e128812	0.14309719
58	0xbed31111	-0.41223958
59	0x3f1b2cbe	0.60615146
60	0xbe723d2a	-0.23656145
61	0xbed2fbff	-0.41207883
62	0xbe54936c	-0.20759362
63	0xbee0bb27	-0.43892786

fca2.weight f4 [1, 64]
0	0xbf857e7a	-1.0429223
1	0xbcbfd40e	-0.023416545
2	0xbf307c18	-0.6893935
3	0xbfdf6f5f	-1.7455863
4	0xc109279c	-8.57217
5	0x402975cc	2.6478148
6	0x4040ee3c	3.0145407
7	0x401e5359	2.4738371
8	0x3fa422fd	1.2823178
9	0xc19f6885	-19.926035
10	0xbf248130	-0.64259624
11	0xbf42f441	-0.7615395
12	0xbbffd6fc	-0.0078076106
13	0x3b90fbb7	0.004424538
14	0xbfaf7291	-1.3706838
15	0xbc7956e7	-0.015218473
16	0xbb071c55	-0.0020616252
17	0xbb2daaec	-0.0026499582
18	0xbfb29080	-1.3950348
19	0x4035c1af	2.8399465
20	0xbc7df683	-0.0155006675
21	0xbf18398e	-0.5946282
22	0xbf0ac810	-0.5421152
23	0xc055bba4	-3.3395777
24	0xbec1fb0e	-0.37886852
25	0xbae89b94	-0.0017746561
26	0xbf914e88	-1.1352091
27	0xbf48151f	-0.7815723
28	0x3cfb7db1	0.030699583
29	0xbac379a9	-0.0014913577
30	0xbf050e1d	-0.5197466
31	0xc0baa8cd	-5.8331056
32	0xbf343ee7	-0.7040848
33	0xbf1830de	-0.59449565
34	0x401a69c8	2.4127064
35	0xbf993ec9	-1.1972286
36	0x3cd64639	0.026156532
37	0xc0a9639b	-5.293409
38	0xbf4bf4be	-0.7967032
39	0xbfe0ff11	-1.757784
40	0xc1158e9a	-9.347315
41	0xbf3d1f36	-0.7387575
42	0xbf18915e	-0.5959681
43	0x3bc28f48	0.0059374906
44	0xbf21cc62	-0.6320249
45	0xc080ae2f	-4.0212626
46	0xc1156ad6	-9.338583
47	0xbf4eb0f1	-0.8073874
48	0xbfac3831	-1.3454648
49	0xbf983dac	-1.1893821
50	0xbc96f6fc	-0.018428318
51	0xbf223c43	-0.633732
52	0xbf66b6f6	-0.90122926
53	0xbfd904a7	-1.6954545
54	0xbf43ef57	-0.7653708
55	0xbf6137c2	-0.87975705
56	0x3b22405e	0.0024757604
57	0xc0b62634	-5.6921635
58	0xbf686640	-0.9078102
59	0xc1a41ccc	-20.514061
60	0xc07c2872	-3.9399686
61	0xbf3a76d7	-0.72837585
62	0xbf71f5d8	-0.9451575
63	0xbf305788	-0.6888356
