src/Models/real1/4450_critic.pt (torch_old, 22186 bytes, 7 tensors)

fc1.weight f4 [32, 28]
-0.07468621 -1.5960585 -1.2835741 -0.28428587 -0.014389653 0.30451143 0.64756185 0.51370203
0.5855243 0.5874075 0.4428526 0.3989311 0.29517925 -0.10478879 -0.08745336 -0.41091675
-0.36221883 -0.08913901 0.088095434 1.3850552 0.5656203 0.12987693 -0.5220848 -0.037018176
2.9900253 0.101501994 -3.7197926 -2.6220436 -0.6778937 -0.4691935 -0.2134859 0.023467317
0.18904041 0.3237015 0.1617347 0.08949715 -0.040891223 0.1323042 0.16767955 0.14465109
-0.15264069 -0.12938203 -0.09091627 -0.10924796 -0.026023328 -0.25390077 -0.13275859 0.17326666
0.49089983 0.91896296 0.014417741 -0.7376585 -2.7759879 -0.19419141 4.7646346 0.28589246
-0.10255484 -0.16395214 -0.028721428 0.065823 -0.16314746 -0.20554182 0.004566101 -0.12738423
-0.13678698 -0.0016605114 -0.02708973 -0.019866299 -0.1667536 -0.11922946 0.12742893 -0.14815672
0.0017025379 -0.15547328 -0.016327227 -0.15423647 0.08308622 -0.055781353 -0.12583448 0.122716375
0.126058 0.07274468 0.015950968 -0.03172312 -1.0891703 -0.39044824 0.02335116 0.1055714
0.6669323 0.45709202 0.87308335 0.28212035 -0.014161801 -0.38735777 0.08058584 -0.09102373
-0.6807587 0.060187362 -0.16156127 -0.0038277977 -0.4905961 -0.66353166 0.31283656 1.2435808
1.8797785 1.2290177 -0.9534622 -0.8800651 -2.7597148 -0.27190122 -0.81618327 1.250729
-0.07754892 -0.32113993 0.0336356 0.33979127 0.3875893 0.048274335 0.00057268824 0.03959014
0.012288479 0.15740919 0.31214136 0.35459656 0.32860836 0.106805205 0.20831873 0.4328244
0.38195962 0.2273625 0.16869813 0.10654275 0.1478939 -7.662879 0.2960779 0.06508045
-1.7550324 -0.05135874 -0.7553634 -0.6007201 -0.90405875 1.5764089 2.8014898 0.9768871
0.144392 0.17409799 -0.97876143 -0.44683188 -0.60852605 -0.15441737 0.058857262 0.16422771
-0.17285891 0.044310886 -0.16336654 -0.05667319 0.051850855 0.1865758 -0.59664315 -0.82228506
-0.45159844 0.92666876 1.2889426 -0.87150437 -1.4030461 -0.4608662 0.55531204 1.807116
0.1073484 0.12945972 0.07930862 0.2447052 0.21586357 0.22640392 0.2625439 0.31315076
0.30181038 0.2246987 0.19287165 0.21873903 0.16413336 0.11520173 0.1318832 -0.056793272
0.24983332 0.20957275 -6.2720404 -0.37354437 0.34892634 -0.3323869 -0.01326219 0.03786868
0.49755377 -0.07668752 -2.8421814 -1.731435 0.4456054 0.8127989 0.921902 0.6170016
0.20059705 -0.23260196 -0.5849231 -0.5563184 -0.51753086 -0.37662005 -0.613526 -0.1441585
0.24516474 0.18400155 0.4963823 -0.10966834 -0.16006695 -0.8797229 -0.20869131 0.054932773
0.6487312 0.5909264 1.1968968 0.65303266 6.3002033 -0.046978895 4.683129 1.1640718
0.12611581 -0.6664625 -1.8931915 -1.5493873 -0.89223903 -0.49277642 0.047954783 0.46730602
0.45443475 0.445014 0.6136404 0.70434004 0.8780979 0.95415616 0.65336275 0.6369198
0.55807245 0.30075482 -0.19878884 -0.667429 -0.74793154 -0.6144624 -0.16374354 0.08252109
4.343901 0.016635362 4.0753293 -1.0668268 -0.6196888 0.09119343 -0.017906146 0.13207224
00000000: 15f5 98bd a54b ccbf 284c a4bf eb8d 91be
00000010: 94c2 6bbc ece8 9b3e 9dc6 253f fa81 033f
00000020: ece4 153f 5760 163f 93bd e23e b240 cc3e
00000030: bc21 973e 819b d6bd bf1a b3bd ae63 d2be
00000040: bf74 b9be 838e b6bd 616b b43d 7d49 b13f
00000050: 7ecc 103f 75fe 043e 59a7 05bf 5fa0 17bd
00000060: 935c 3f40 47e0 cf3d 1511 6ec0 90cf 27c0
00000070: 718a 2dbf 213a f0be 0c9c 5abe 883e c03c
00000080: cf93 413e 34bc a53e c89d 253e 484a b73d
00000090: 8e7d 27bd c17a 073e 30b4 2b3e 6a1f 143e
000000a0: d74d 1cbe b97c 04be 4f32 babd 65bd dfbd
000000b0: e02e d5bc 48ff 81be def1 07be d16c 313e
000000c0: 3957 fb3e 2841 6b3f 6438 6c3c 30d7 3cbf
000000d0: c9a9 31c0 1dda 46be e377 9840 7f60 923e
000000e0: 4608 d2bd 12e3 27be 3349 ebbc 36ce 863d
000000f0: 2110 27be 8e79 52be 3b9f 953b 0371 02be
00000100: e311 0cbe 84a5 d9ba 48eb ddbc a6be a2bc
00000110: 75c1 2abe 932e f4bd bb7c 023e 65b6 17be
00000120: b127 df3a 6334 1fbe adc0 85bc 2af0 1dbe
00000130: 1c29 aa3d fd7a 64bd c1da 00be b952 fb3d
00000140: 5915 013e 2afb 943d 9bab 823c 1af0 01bd
00000150: ef69 8bbf d5e8 c7be ef4a bf3c d135 d83d
00000160: 13bc 2a3f f707 ea3e 6482 5f3f 1472 903e
00000170: e606 68bc c253 c6be 300a a53d a66a babd
00000180: 3446 2ebf 0687 763d 5170 25be cadb 7abb
00000190: 692f fbbe 36dd 29bf 1d2c a03e a82d 9f3f
000001a0: 959c f03f 7450 9d3f 1916 74bf f24b 61bf
000001b0: 2b9f 30c0 a336 8bbe 63f1 50bf e317 a03f
000001c0: f8d1 9ebd 746c a4be 7cc5 093d 1ff9 ad3e
000001d0: 1b72 c63e 4fbb 453d 7520 163a 4529 223d
000001e0: 9e55 493c e02f 213e fed0 9f3e ae8d b53e
000001f0: 5b3f a83e b0bc da3d 8151 553e 299b dd3e
00000200: 3690 c33e b7d1 683e 34bf 2c3e 1633 da3d
00000210: 8071 173e 4e36 f5c0 8697 973e e648 853d
00000220: e7a4 e0bf 8b5d 52bd 7f5f 41bf cbc8 19bf
00000230: 6570 67bf c4c7 c93f 9c4b 3340 4615 7a3f
00000240: 7fdb 133e be46 323e 1c90 7abf 26c7 e4be
00000250: 5dc8 1bbf 961f 1ebe 5014 713d 4f2b 283e
00000260: ed01 31be 557f 353d 8f49 27be 2622 68bd
00000270: 9061 543d ba0d 3f3e 9bbd 18bf 4681 52bf
00000280: e937 e7be 2a3a 6d3f 12fc a43f e91a 5fbf
00000290: 0497 b3bf a8f6 ebbe ee28 0e3f 944f e73f
000002a0: 7ad9 db3d 1791 043e 8f6c a23d 0094 7a3e
000002b0: 570b 5d3e 6ed6 673e 276c 863e 4c55 a03e
000002c0: e486 9a3e 6a17 663e 2580 453e 20fd 5f3e
000002d0: 9312 283e e2ee eb3d 640c 073e 10a0 68bd
000002e0: 4ed4 7f3e 3d9a 563e 8eb4 c8c0 3541 bfbe
000002f0: 79a6 b23e 9e2e aabe a849 59bc 301c 1b3d
00000300: 5ebf fe3e 590e 9dbd 4de6 35c0 a99f ddbf
00000310: 6426 e43e 9713 503f c501 6c3f d1f3 1d3f
00000320: 5069 4d3e 352f 6ebe 85bd 15bf e26a 0ebf
00000330: e77c 04bf 58d4 c0be 0a10 1dbf 499e 13be
00000340: 770c 7b3e e76a 3c3e d225 fe3e cb99 e0bd
00000350: 97e8 23be 8535 61bf 2db3 55be 3001 613d
00000360: 3f13 263f f446 173f ea33 993f 262d 273f
00000370: 449b c940 f16c 40bd 31dc 9540 4e00 953f
00000380: 8124 013e 499d 2abf 1954 f2bf 5352 c6bf
00000390: c769 64bf 314d fcbe 3c6c 443d bc42 ef3e
000003a0: acab e83e e0d8 e33e 8a17 1d3f a14f 343f
000003b0: 06cb 603f 9443 743f c842 273f 2d0d 233f
000003c0: d6dd 0e3f 89fc 993e 4d8f 4bbe a0dc 2abf
000003d0: 7178 3fbf 684d 1dbf 63ac 27be d100 a93d
000003e0: 3d01 8b40 e246 883c 1969 8240 c88d 88bf
000003f0: eda3 1ebf 9fc3 ba3d e9af 92bc f23d 073e

fc1.bias f4 [32]
0.015853701 0.26757842 -0.035690606 2.057452 0.37806118 2.263817 -1.6429201 0.7221433
1.033736 1.43099 -0.19715476 1.3827238 -0.19604966 -0.15452889 -1.4796671 0.5035688
1.9115652 1.0130043 0.63739556 0.44054985 1.016248 0.02820733 -0.36565796 -1.3324312
-2.9206638 0.3619501 -0.47872233 -1.8379382 1.2542332 1.0078074 0.83903635 0.4599264
00000000: 9fdf 813c 0a00 893e 5030 12bd 4bad 0340
00000010: 3c91 c13e 61e2 1040 354b d2bf 62de 383f
00000020: 7651 843f ae2a b73f f0e2 49be 18fd b03f
00000030: 3ec1 48be d23c 1ebe bb65 bdbf e3e9 003f
00000040: 2bae f43f 20aa 813f 5b2c 233f c08f e13e
00000050: 6a14 823f 0f13 e73c 8537 bbbe 1b8d aabf
00000060: 28ec 3ac0 8651 b93e 181b f5be 8f41 ebbf
00000070: b78a a03f d5ff 803f 16cb 563f 797b eb3e

fa1.weight f4 [32, 2]
-0.04850577 -0.15458785 -0.10726367 0.084279045 0.13954742 0.03154373 0.7414262 -0.324715
0.15969035 0.044536114 -1.3499545 -0.12237158 0.4582055 0.8164516 -0.04757917 -0.04301575
1.1366099 -0.03951252 0.48428935 0.31917617 1.0867759 -0.46965495 -4.5788107 -2.0305996
0.13329755 -0.017551795 0.573835 -0.39366844 -0.0725228 -0.093381606 0.09642293 0.08658059
-0.14347875 -0.05667291 0.075144574 0.07317895 0.024045303 -0.05837336 -0.042894706 -0.056512035
-0.6185694 0.7197572 -2.1972773 -0.38279057 -0.11566543 0.15542422 0.7984755 0.81537056
-0.011275545 -0.09248708 -0.09644918 -0.03279628 0.7827264 0.20617098 0.10290782 -0.086568885
-0.1526615 -0.040671498 1.2350029 -0.2957379 0.25320065 1.1543845 0.11721189 0.043682218
00000000: fcad 46bd 474c 1ebe 0ead dbbd 7e9a ac3d
00000010: 85e5 0e3e 0034 013d 1cce 3d3f 0b41 a6be
00000020: de85 233e 806b 363d 4fcb acbf f39d fabd
00000030: e999 ea3e f902 513f 60e2 42bd 4831 30bd
00000040: 6f7c 913f e1d7 21bd c6f4 f73e 0f6b a33e
00000050: 791b 8b3f 9d76 f0be 9e85 92c0 58f5 01c0
00000060: 277f 083e c8c8 8fbc dae6 123f e98e c9be
00000070: d586 94bd db3e bfbd 6379 c53d 2a51 b13d
00000080: 18ec 12be da21 68bd 66e5 993d d8de 953d
00000090: a8fa c43c e818 6fbd 5cb2 2fbd 2a79 67bd
000000a0: 905a 1ebf 0242 383f 31a0 0cc0 20fd c3be
000000b0: ffe1 ecbd 8727 1f3e e468 4c3f 20bc 503f
000000c0: 10bd 38bc de69 bdbd 2687 c5bd 6455 06bd
000000d0: c260 483f 7c1e 533e 56c1 d23d 074b b1bd
000000e0: 4c53 1cbe 2897 26bd 9314 9e3f f56a 97be
000000f0: 84a3 813e dfc2 933f ca0c f03d 20ec 323d

fa1.bias f4 [32]
-0.67503446 -0.24922037 -0.5899513 2.1463943 -0.60252136 1.5618101 2.4976003 -0.70508796
1.8107898 2.3986573 2.2253125 1.7464764 -0.56496996 2.034647 -0.6408091 -0.20156316
-0.6014741 -0.17197007 -0.5283146 -0.13701576 2.547102 1.2560518 -0.57226485 1.8446072
-0.40290564 -0.32541734 2.3444626 -0.3795983 -0.67706573 2.3734634 0.23479894 -0.22045997
00000000: 0fcf 2cbf a033 7fbe 0c07 17bf 865e 0940
00000010: d73e 1abf 65e9 c73f afd8 1f40 a580 34bf
00000020: f6c7 e73f 9a83 1940 856b 0e40 8a8c df3f
00000030: dfa1 10bf a837 0240 110c 24bf 9366 4ebe
00000040: 35fa 19bf ec18 30be a03f 07bf dc4d 0cbe
00000050: b803 2340 4ec6 a03f f37f 12bf 171c ec3f
00000060: a649 cebe 1a9d a6be ad0b 1640 b55a c2be
00000070: 2e54 2dbf d3e6 1740 226f 703e 42c0 61be

fca1.weight f4 [64, 64]
0.5490858 -0.6043465 0.038719304 0.33942893 -0.23754014 0.7274713 -0.41506258 0.36894667
-0.6302246 0.47908077 -0.33268458 1.3674451 0.09118511 -0.14414677 0.5288951 0.21923938
-0.059174523 -1.719682 0.6721591 -0.4248443 -2.9553792 0.17900251 -0.032878116 -0.7205099
-1.7197196 3.5635562 0.6174633 -0.72216916 0.29959428 0.43156266 0.8013431 1.1285279
-0.05993916 -0.11925195 0.06812757 -0.020594211 0.031947806 -0.10333686 -0.25317588 -0.041853532
-0.24513385 -0.28396058 -0.14115046 1.3870368 0.06878255 -0.13003875 -0.04444334 0.0014648146
0.0884985 0.08642413 0.05579253 -0.09264873 -0.31910175 -0.35311615 -0.1187409 -0.31687543
-0.003478691 -0.014396533 -0.22226562 0.069132164 -0.044483528 -0.12655586 -0.19932036 -0.08875619
-0.042049758 -0.030701445 0.04514733 -0.12997706 0.045439854 0.014045923 0.09848459 0.064198755
-0.017841578 0.017737268 0.051944256 -0.027961459 0.120801546 -0.124206506 -0.07202197 -0.028948674
-0.03955378 -0.0014199943 0.08213253 -0.028099297 0.103396766 -0.008611158 0.015794504 -0.04857655
-0.07256587 -0.066352 -0.1558458 -0.07705863 -0.12268657 0.026011243 -0.12478021 -0.09793542
0.05838164 0.0903859 0.10857816 -0.12130819 -0.04178296 0.032550145 -0.06370702 0.11618394
0.0408651 -0.09393441 -0.12650505 -0.1004761 -0.035830006 0.053743593 0.01633896 -0.05055538
-0.12062273 0.081251904 -0.06906672 0.035362776 -0.09039534 0.0469076 0.004013613 -0.028333992
0.042315707 0.07408039 -0.1349094 0.08346621 -0.07378928 -0.0065233004 0.010647848 0.06822069
0.71142673 0.17276922 0.07283409 0.07363505 -3.5647244 0.5237117 -3.5906718 0.57389116
-0.103024945 0.18417053 -0.09778243 -3.382987 0.07303526 1.1998374 0.7964888 0.5261685
0.32712305 -5.1705904 -0.0010309385 -1.0051856 1.9438251 -0.023487328 1.6084176 0.63087463
1.3367448 -0.62824196 -0.041575976 0.08593296 0.17670137 -0.2301623 -0.02273043 -0.49706745
0.047422364 -0.09187802 -0.08261788 -0.2665521 -0.008868635 -0.42170408 0.15575688 0.11488806
-0.20958179 -0.11131199 -0.2848481 -0.01758729 0.052304655 -0.23374452 -0.01972726 0.0773045
0.09940827 -0.032630265 0.046726108 -0.01419495 0.08342827 -1.2092822 0.0108154565 0.34818706
0.010124072 0.03336543 -0.18195885 0.07868147 0.1048124 -0.21824247 0.74194336 -0.06607633
-0.06927481 -0.28583023 -0.07512556 -0.114072494 -2.148427 0.15966816 -0.49669403 -0.057451952
-0.032295458 -0.1296123 -0.093774326 -0.35084903 -0.013523444 0.03229824 -0.17075112 -0.069700666
0.23544799 0.16884135 -0.01385958 -0.91226405 0.60815054 -0.028035965 2.2297294 0.01965166
-3.2485 3.6885943 -0.026836472 0.0826978 0.3573069 0.037582092 -0.07459808 -0.03581525
0.02185449 -0.054021716 -0.11539981 -0.48070672 -0.07605417 -1.4686145 0.7336169 -0.11335279
-0.21579209 0.22072127 -0.8710415 -2.0686138 0.015455157 -0.901126 -0.09786451 0.09201959
-0.009377524 0.021667555 -0.02167891 -0.05149349 0.5347553 -4.6976132 0.0029308498 1.0742037
-0.06850287 -0.057807937 0.19564423 0.038851395 -0.04351051 -0.6380585 1.1541612 -0.0049858093
00000000: e390 0c3f 74b6 1abf 2298 1e3d a1c9 ad3e
00000010: b93d 73be 8f3b 3a3f 1583 d4be 94e6 bc3e
00000020: 6656 21bf 134a f53e a255 aabe 7108 af3f
00000030: 42bf ba3d 369b 13be ab65 073f 4a80 603e
00000040: fc60 72bd 8a1e dcbf 9e12 2c3f 3185 d9be
00000050: ef24 3dc0 6f4c 373e 34ab 06bd 5673 38bf
00000060: c61f dcbf 4e11 6440 1312 1e3f 14e0 38bf
00000070: 6c64 993e c8f5 dc3e d224 4d3f 9a73 903f
00000080: c482 75bd 5e3a f4bd 7886 8b3d 31b5 a8bc
00000090: b4db 023d 47a2 d3bd 45a0 81be 9c6e 2bbd
000000a0: 5e04 7bbe 4863 91be bf89 10be 6c8a b13f
000000b0: dedd 8c3d e128 05be 380a 36bd 06ff bf3a
000000c0: b43e b53d 22ff b03d b586 643d 9ebe bdbd
000000d0: 4e61 a3be a4cb b4be 6e2e f3bd 7f3d a2be
000000e0: c0fa 63bb 70df 6bbc 9999 63be 2a95 8d3d
000000f0: 5c34 36bd dc97 01be a31a 4cbe cec5 b5bd
00000100: 5e3c 2cbd 9981 fbbc 68ec 383d b518 05be
00000110: 241f 3a3d df20 663c 4ab2 c93d a37a 833d
00000120: 8028 92bc bf4d 913c 80c3 543d 6e0f e5bc
00000130: cd66 f73d fb5f febd 4180 93bd c525 edbc
00000140: 2503 22bd 1a1f baba 1a35 a83d 7f30 e6bc
00000150: afc1 d33d d015 0dbc 7a63 813c 34f8 46bd
00000160: 6a9d 94bd 8fe3 87bd 0b96 1fbe ead0 9dbd
00000170: 1943 fbbd 8815 d53c c48c ffbd 5e92 c8bd
00000180: 9621 6f3d 3e1c b93d 3a5e de3d 6e70 f8bd
00000190: 9c24 2bbd 4d53 053d d378 82bd d8f1 ed3d
000001a0: 2a62 273d af60 c0bd 8a8a 01be 6ac6 cdbd
000001b0: 7cc2 12bd 3e22 5c3d 48d9 853c 2813 4fbd
000001c0: 0d09 f7bd 6667 a63d da72 8dbd 8fd8 103d
000001d0: 3121 b9bd 2f22 403d a084 833b b01c e8bc
000001e0: 3c53 2d3d 76b7 973d b125 0abe 55f0 aa3d
000001f0: d61e 97bd 69c1 d5bb 5074 2e3c 4ab7 8b3d
00000200: 1020 363f 6aea 303e 0a2a 953d f9cd 963d
00000210: 7224 64c0 f811 063f 91cd 65c0 88ea 123f
00000220: befe d2bd 3397 3c3e 2842 c8bd dc82 58c0
00000230: 8393 953d 4694 993f b1e6 4b3f fbb2 063f
00000240: ac7c a73e 7a75 a5c0 8e20 87ba eca9 80bf
00000250: 43cf f83f 7f68 c0bc a1e0 cd3f 0081 213f
00000260: 741a ab3f 77d4 20bf 924b 2abd 9ffd af3d
00000270: 34f1 343e aaaf 6bbe 2b35 babc a07f febe
00000280: f43d 423d 8b2a bcbd 9033 a9bd 8479 88be
00000290: c04d 11bc 99e9 d7be bb7e 1f3e 6e4a eb3d
000002a0: 9c9c 56be 8af7 e3bd 9cd7 91be 3813 90bc
000002b0: 683d 563d b95a 6fbe 109b a1bc d251 9e3d
000002c0: 9096 cb3d 50a7 05bd e063 3f3d f091 68bc
000002d0: 71dc aa3d c2c9 9abf 5033 313c 9345 b23e
000002e0: 70df 253c 30aa 083d 6c53 3abe c023 a13d
000002f0: e2a7 d63d f47a 5fbe 00f0 3d3f 0753 87bd
00000300: f4df 8dbd 5758 92be 6edb 99bd d79e e9bd
00000310: d47f 09c0 0d80 233e ae4e febe bd52 6bbd
00000320: 3e48 04bd 16b9 04be c10c c0bd 7ca2 b3be
00000330: 6f91 5dbc 294b 043d 62d9 2ebe 39bf 8ebd
00000340: 4719 713e bfe4 2c3e 4b13 63bc 238a 69bf
00000350: c1af 1b3f aeab e5bc e3b3 0e40 85fc a03c
00000360: 6de7 4fc0 ee11 6c40 29d8 dbbc 775d a93d
00000370: eef0 b63e aeef 193d e1c6 98bd 03b3 12bd
00000380: 3008 b33c e045 5dbd bc56 ecbd 311f f6be
00000390: 4ac2 9bbd 8ffb bbbf 51ce 3b3f 8225 e8bd
000003a0: 9af8 5cbe c204 623e 93fc 5ebf 2b64 04c0
000003b0: a037 7d3c 32b0 66bf 306d c8bd c474 bc3d
000003c0: 30a4 19bc 2880 b13c f897 b1bc d6ea 52bd
000003d0: b9e5 083f d952 96c0 8013 403b 827f 893f
000003e0: 3c4b 8cbd 04c8 6cbd f656 483e a422 1f3d
000003f0: 1438 32bd cd57 23bf 8ebb 933f 0060 a3bb

fca1.bias f4 [64]
-0.23650734 -0.13602701 -0.40825808 -0.31035525 -0.1766367 1.4205589 1.0455297 1.5719008
1.4179858 0.4870357 -0.38872108 -0.5077445 0.008218009 -0.07942794 -0.08427541 -0.07418267
0.028354606 0.043654263 -0.42834592 1.194218 0.066270046 -0.10198193 -0.5418562 -0.020198695
-0.167397 0.004170373 -0.12623101 -0.1819485 -0.04888575 -0.039326534 -0.232665 0.93073475
-0.37988842 -0.6839267 1.8298823 -0.44619775 -0.041833688 -0.10000389 -0.1618408 -0.42682454
-0.3360607 -0.5168149 -0.32451925 -0.17851077 -0.24025081 -0.082932875 0.09941865 -0.32800433
-0.48108336 -0.64186466 0.023329 -0.28415188 -0.06271694 0.07443724 -0.3898945 -0.20327279
0.029920986 0.45355195 -0.4031378 0.69137055 -0.30136427 -0.48993453 -0.046339408 -0.729782
00000000: fb2e 72be aa4a 0bbe 3407 d1be e2e6 9ebe
00000010: 40e0 34be e0d4 b53f ebd3 853f 0c34 c93f
00000020: 8f80 b53f be5c f93e 7306 c7be 8bfb 01bf
00000030: d4a4 063c 1eab a2bd 9698 acbd 15ed 97bd
00000040: eb47 e83c d0ce 323d 2850 dbbe 23dc 983f
00000050: 97b8 873d e7db d0bd 17b7 0abf bc77 a5bc
00000060: 1f6a 2bbe a0a7 883b b442 01be b550 3abe
00000070: 6d3c 48bd dc14 21bd bc3f 6ebe a244 6e3f
00000080: bc80 c2be d215 2fbf 9539 ea3f 0874 e4be
00000090: cd59 2bbd d7ce ccbd 98b9 25be bf88 dabe
000000a0: 2610 acbe fb4d 04bf 6327 a6be 87cb 36be
000000b0: 4f04 76be b6d8 a9bd 019c cb3d 2ff0 a7be
000000c0: 8f50 f6be 3e51 24bf 761c bf3c 5b7c 91be
000000d0: bd71 80bd 8d72 983d 40a0 c7be be26 50be
000000e0: db1c f53c f637 e83e 1468 cebe a9fd 303f
000000f0: 6b4c 9abe b3d8 fabe 64ce 3dbd fed2 3abf

fca2.weight f4 [1, 64]
-1.2911197 -0.023416545 -0.872082 -1.1413554 -25.179379 2.8061752 3.0153503 2.6160226
1.4373865 -34.34785 -0.5586409 -0.78401345 -0.04307676 0.004424538 -1.1526219 -0.015218473
0.017486146 0.005774133 -1.3410796 2.9013052 -0.0155006675 -0.70574176 -0.5136247 -4.5977955
-0.65521204 -0.0017746561 -0.73192656 -0.98128533 0.030699583 0.018744972 -0.4211863 -6.855223
-0.70937747 -0.4706165 2.5738864 -1.7786505 0.026156532 -5.015849 -1.0626959 -1.7534221
-20.15276 -0.8822146 -0.36678198 0.005937491 -0.57654846 -2.826738 -15.846284 -1.067248
-1.4592972 -1.0459243 -0.018428318 -0.5655212 -0.7861733 -1.2252187 -0.89977944 -1.3554313
-0.016228506 -12.880546 -0.81489 -37.637688 -12.182759 -0.8785719 -1.5084394 -0.812601
00000000: 6943 a5bf 0ed4 bfbc c440 5fbf ef17 92bf
00000010: 5e6f c9c1 6098 3340 80fb 4040 ea6c 2740
00000020: 48fc b73f 3364 09c2 1703 0fbf 1bb5 48bf
00000030: 4271 30bd b7fb 903b 1d89 93bf e756 79bc
00000040: 1b3f 8f3c f034 bd3b 7fa8 abbf fcae 3940
00000050: 83f6 7dbc 7eab 34bf e97c 03bf 2421 93c0
00000060: fabb 27bf 949b e8ba 8a5f 3bbf 8435 7bbf
00000070: b17d fb3c 0e8f 993c bba5 d7be fd5d dbc0
00000080: c399 35bf a5f4 f0be 8eba 2440 d2aa e3bf
00000090: 3946 d63c d681 a0c0 6b06 88bf 2370 e0bf
000000a0: da38 a1c1 d1d8 61bf d9ca bbbe 498f c23b
000000b0: ae98 13bf 47e9 34c0 618a 7dc1 959b 88bf
000000c0: 40ca babf d9e0 85bf fcf6 96bc ffc5 10bf
000000d0: a742 49bf f7d3 9cbf f257 66bf c67e adbf
000000e0: a5f1 84bc b716 4ec1 a29c 50bf fe8c 16c2
000000f0: 95ec 42c1 17ea 60bf 8b14 c1bf 9e06 50bf
