src/Models/trained/1150_critic.pt (torch_old, 22186 bytes, 7 tensors)

fc1.weight f4 [32, 28]
-0.7380849 -0.7265699 -0.570094 -0.41014653 -0.21278477 0.35474044 0.15857583 0.33920953
0.28899816 0.42414585 0.46756494 0.34489188 0.2518725 -0.0035116589 -0.32909077 -0.31674534
-0.13102952 0.24010451 0.39692643 0.84787834 0.13165388 0.2512313 -1.1120243 -0.77963006
2.4269567 0.06581003 -2.200527 -0.9285859 -0.23238629 -0.0663131 0.024301607 0.049683794
0.08904114 -0.0047177547 -0.039961226 0.06962075 -0.043777797 -0.0046623196 0.09908064 0.07914157
-0.040613998 -0.14875597 -0.07352881 -0.00096885604 -0.15594174 0.02649309 0.191234 0.21959431
0.435595 0.2500282 -0.06568012 -0.23275846 -1.5365245 -0.14226323 2.969475 0.8427285
-0.07081861 -0.13222 0.0030064646 0.097541854 -0.13143185 -0.17383644 0.03628666 -0.09565849
-0.10505353 0.030088626 0.00466232 0.011886507 -0.13504562 -0.087517865 0.15918116 -0.116417624
0.033458114 -0.12373711 0.015424505 -0.12249659 0.114821 -0.024040863 -0.09409832 0.15445448
0.15766878 0.10448922 -0.01575725 -1.3217403e-05 -0.4799427 0.0838744 0.40189272 0.38532296
0.62923646 0.5693912 0.07041215 0.50541216 0.07088123 -0.33739838 0.330837 0.020327015
-0.21307682 -0.08785706 -0.20984969 -0.07306036 -0.011969735 0.23462522 0.17867272 0.6500244
0.44225046 0.72023803 0.041745335 -0.23431307 0.31694537 0.19231564 -0.97938335 0.58584976
-0.09393858 -0.14366725 -0.114684545 0.09718667 0.118104406 0.00059077144 -0.096455336 -0.11777806
-0.17460196 -0.024599895 0.023291215 0.1004764 -0.17518198 -0.17548285 0.15919985 -0.16118567
-0.06373882 0.0935926 0.09450655 -0.067341015 -0.15136887 -0.10385333 -0.05220414 0.07955815
0.09281884 0.17011698 0.0027110726 -0.03787452 0.20978898 1.0431575 1.5781265 1.1735001
-0.6293908 -0.013712167 -0.21998389 -0.22450115 -0.5595342 0.262358 0.42918396 -0.23698364
0.28690097 0.0622296 0.09006728 0.07476619 -0.16308156 0.062576786 -0.11257481 -0.23582062
-0.45798805 0.90470856 0.052796792 0.21537554 -0.2566686 0.34075317 0.0020701105 0.13486435
0.091085 0.23305021 0.03689651 -0.0340638 0.07798312 0.14061742 0.02787389 0.04311651
0.10849979 0.0010288971 0.1385383 -0.011111862 0.066968426 0.17627417 0.17712204 0.14638825
0.10495832 -0.11359654 -0.9500043 -0.48149905 -0.031245843 -0.17704858 -0.018258736 0.10324723
-0.3281877 0.0089132255 -2.1695247 -1.8293699 0.10668746 0.076954335 0.18338348 0.07717396
-0.12069642 0.12110861 0.0729448 -0.20499866 0.09158161 -0.21671571 -0.22971937 -0.36994904
0.2185848 0.25386715 0.29173496 -0.07531735 -0.06279314 -0.37312 -0.20342804 -0.22901466
0.5362943 0.18580046 0.65024227 0.245758 3.2420545 -0.12344553 2.6747448 0.3589929
-0.02977584 -1.0424416 -0.7300802 -0.69994193 -0.089614876 -0.37508395 -0.10626549 0.122681394
0.38703525 0.062342606 0.65873086 1.0711339 0.54514426 0.69965994 0.39750493 0.33484727
0.14965464 -0.53848714 -0.22304456 -0.3672244 -0.5790811 -0.123787455 -0.46457478 -0.11001652
1.4265116 -0.0773253 1.5841243 0.074560605 -0.17812091 0.3547646 0.40083426 0.16107102
00000000: 22f3 3cbf 7c00 3abf aef1 11bf bafe d1be
00000010: 40e4 59be 8aa0 b53e b461 223e dfac ad3e
00000020: 91f7 933e a529 d93e ac64 ef3e ab95 b03e
00000030: 6ff5 803e dc23 66bb 967e a8be 722c a2be
00000040: 9a2c 06be f5dd 753e f139 cb3e 8e0e 593f
00000050: 46d0 063e 64a1 803e d056 8ebf d695 47bf
00000060: 4253 1b40 69c7 863d 6fd5 0cc0 ceb7 6dbf
00000070: acf6 6dbe 2acf 87bd 2a14 c73c 3c81 4b3d
00000080: 345b b63d 6597 9abb 62ae 23bd 5395 8e3d
00000090: 5950 33bd 5fc6 98bb caea ca3d fa14 a23d
000000a0: dd5a 26bd 7c53 18be 4696 96bd d4fa 7dba
000000b0: 31af 1fbe 0908 d93c d8d2 433e 55dd 603e
000000c0: 4f06 df3e b203 803e 4c83 86bd 3c58 6ebe
000000d0: d6ac c4bf 74ad 11be e10b 3e40 0ebd 573f
000000e0: 5909 91bd ae64 07be 1b08 453b 06c4 c73d
000000f0: 1296 06be 2e02 32be 52a1 143d 99e8 c3bd
00000100: 4e26 d7bd 6c7c f63c 60c6 983b a0bf 423c
00000110: 6649 0abe 913c b3bd 6300 233e 5d6c eebd
00000120: 600b 093d e269 fdbd 10b7 7c3c 7edf fabd
00000130: 4627 eb3d 58f1 c4bc 9fb6 c0bd 5129 1e3e
00000140: ed73 213e 72fe d53d 5915 81bc 50c0 5db7
00000150: 0dbb f5be 57c6 ab3d e2c4 cd3e 0d49 c53e
00000160: a415 213f 9fc3 113f 3f34 903d b162 013f
00000170: 2e2a 913d 7bbf acbe 7863 a93e d784 a63c
00000180: cf30 5abe 67ee b3bd d6e2 56be aca0 95bd
00000190: b51c 44bc 9841 703e fbf5 363e 0068 263f
000001a0: a76e e23e 8561 383f 28fd 2a3d c4ef 6fbe
000001b0: aa46 a23e 64ee 443e deb8 7abf 40fa 153f
000001c0: df62 c0bd 821d 13be bbdf eabd ce09 c73d
000001d0: b9e0 f13d 00de 1a3a 608a c5bd a035 f1bd
000001e0: dbca 32be b885 c9bc 38cd be3c 92c6 cd3d
000001f0: e862 33be c7b1 33be 4905 233e db0d 25be
00000200: 8089 82bd 7aad bf3d a68c c13d 16ea 89bd
00000210: 7100 1bbe 0eb1 d4bd 02d4 55bd 62ef a23d
00000220: ce17 be3d 2533 2e3e 40ac 313b 5022 1bbd
00000230: ecd2 563e 2f86 853f 0d00 ca3f 4035 963f
00000240: c11f 21bf ffa8 60bc 7543 61be a1e3 65be
00000250: a23d 0fbf ca53 863e 00be db3e d7ab 72be
00000260: afe4 923e 77e4 7e3d 3275 b83d 041f 993d
00000270: dafe 26be 4228 803d 9f8d e6bd f67a 71be
00000280: 697d eabe fb9a 673f 7341 583d 688b 5c3e
00000290: 116a 83be 3377 ae3e b1aa 073b e119 0a3e
000002a0: c68a ba3d b7a4 6e3e cb20 173d 7c86 0bbd
000002b0: 9db5 9f3d 03fe 0f3e c957 e43c f09a 303d
000002c0: 2335 de3d 0fdc 863a fcdc 0d3e 870e 36bc
000002d0: be26 893d 3781 343e 7b5f 353e cde6 153e
000002e0: 63f4 d63d 4ea5 e8bd 7b33 73bf 0b87 f6be
000002f0: 48f7 ffbc 394c 35be 5893 95bc 4973 d33d
00000300: 3808 a8be c708 123c 7ed9 0ac0 cb28 eabf
00000310: f47e da3d 3c9a 9d3d e1c8 3b3e 620d 9e3d
00000320: af2f f7bd ca07 f83d 1564 953d 2beb 51be
00000330: 248f bb3d b9ea 5dbe 8e3b 6bbe f669 bdbe
00000340: b2d4 5f3e e0fa 813e 495e 953e fc3f 9abd
00000350: b199 80bd 9609 bfbe 714f 50be d282 6abe
00000360: 954a 093f 7a42 3e3e 4776 263f fca7 7b3e
00000370: d27d 4f40 03d1 fcbd 052f 2b40 ebcd b73e
00000380: 76ec f3bc ba6e 85bf 89e6 3abf 652f 33bf
00000390: 0188 b7bd 010b c0be b9a1 d9bd 6240 fb3d
000003a0: 7c29 c63e f65a 7f3d 96a2 283f ea1a 893f
000003b0: 938e 0b3f ea1c 333f c485 cb3e 1a71 ab3e
000003c0: 113f 193e 4bda 09bf cb65 64be d604 bcbe
000003d0: a93e 14bf 4784 fdbd bfdc edbe 5750 e1bd
000003e0: ef97 b63f ba5c 9ebd 96c4 ca3f 3bb3 983d
000003f0: 5465 36be b5a3 b53e 263a cd3e cdef 243e

fc1.bias f4 [32]
0.028625809 -0.33225995 -0.0039556175 1.2750266 -0.061157018 1.5905464 -0.9731191 1.0066602
0.9383492 1.4210148 -0.004472689 0.8092486 -0.19604966 0.27796024 -0.9787078 0.8524358
1.3966459 0.09117625 1.2109969 0.07695066 -0.07821296 0.02820733 0.2024572 -0.6998025
-0.7865271 -1.0263085 0.684576 -0.70089203 1.5116141 1.2327392 0.5002053 1.111867
00000000: ac80 ea3c fa1d aabe 209e 81bb 1234 a33f
00000010: c87f 7abd 0697 cb3f 551e 79bf 3eda 803f
00000020: a737 703f d0e3 b53f a28f 92bb eb2a 4f3f
00000030: 3ec1 48be ce50 8e3e 988c 7abf 3c39 5a3f
00000040: 4bc5 b23f 9dba ba3d f201 9b3f 4f98 9d3d
00000050: 1e2e a0bd 0f13 e73c f150 4f3e 4226 33bf
00000060: d759 49bf 145e 83bf 5f40 2f3f a96d 33bf
00000070: 927c c13f 66ca 9d3f 740d 003f a851 8e3f

fa1.weight f4 [32, 2]
-0.04850577 -0.15458785 -0.10726367 0.084279045 0.13954742 0.03154373 0.71717745 -0.36501533
0.15969035 0.044536114 -1.3350257 -0.09036652 0.46094766 0.7124613 -0.04757917 -0.04301575
1.130546 -0.21683145 0.4672318 0.26033595 1.0648636 -0.585479 -3.942999 -0.90461755
0.13329755 -0.017551795 0.5496988 -0.42315662 -0.0725228 -0.093381606 0.09642293 0.08658059
-0.14347875 -0.05667291 0.075144574 0.07317895 0.024045303 -0.05837336 -0.042894706 -0.056512035
-0.62501854 0.70415795 -2.1383922 -0.15629925 -0.11566543 0.15542422 0.7970293 0.73081934
-0.011275545 -0.09248708 -0.09644918 -0.03279628 0.7669846 0.12572691 0.10290782 -0.086568885
-0.1526615 -0.040671498 1.2407851 -0.43976375 0.5123406 0.5507974 0.11721189 0.043682218
00000000: fcad 46bd 474c 1ebe 0ead dbbd 7e9a ac3d
00000010: 85e5 0e3e 0034 013d f198 373f 4ae3 babe
00000020: de85 233e 806b 363d 1fe2 aabf 1512 b9bd
00000030: 5501 ec3e dd63 363f 60e2 42bd 4831 30bd
00000040: bbb5 903f 1009 5ebe 0239 ef3e c14a 853e
00000050: 734d 883f f4e1 15bf 185a 7cc0 0495 67bf
00000060: 277f 083e c8c8 8fbc 10b9 0c3f fca7 d8be
00000070: d586 94bd db3e bfbd 6379 c53d 2a51 b13d
00000080: 18ec 12be da21 68bd 66e5 993d d8de 953d
00000090: a8fa c43c e818 6fbd 5cb2 2fbd 2a79 67bd
000000a0: 3701 20bf b243 343f 6bdb 08c0 e90c 20be
000000b0: ffe1 ecbd 8727 1f3e 1d0a 4c3f fa16 3b3f
000000c0: 10bd 38bc de69 bdbd 2687 c5bd 6455 06bd
000000d0: 1a59 443f 8ebe 003e 56c1 d23d 074b b1bd
000000e0: 4c53 1cbe 2897 26bd 0cd2 9e3f b728 e1be
000000f0: c128 033f 0f01 0d3f ca0c f03d 20ec 323d

fa1.bias f4 [32]
-0.67503446 -0.24922037 -0.5899513 1.9601604 -0.60252136 1.384578 2.3297098 -0.70508796
1.6322086 2.2201004 2.0327203 0.73299736 -0.56496996 1.8466642 -0.6408091 -0.20156316
-0.6014741 -0.17197007 -0.5283146 -0.13701576 2.3825371 1.1127411 -0.57226485 1.6694419
-0.40290564 -0.32541734 2.1720204 -0.3795983 -0.67706573 2.1920478 0.13833955 -0.22045997
00000000: 0fcf 2cbf a033 7fbe 0c07 17bf 89e6 fa3f
00000010: d73e 1abf da39 b13f f719 1540 a580 34bf
00000020: 36ec d03f 2016 0e40 1718 0240 b7a5 3b3f
00000030: dfa1 10bf 7e5f ec3f 110c 24bf 9366 4ebe
00000040: 35fa 19bf ec18 30be a03f 07bf dc4d 0cbe
00000050: 7d7b 1840 4d6e 8e3f f37f 12bf 46b0 d53f
00000060: a649 cebe 1a9d a6be 6202 0b40 b55a c2be
00000070: 2e54 2dbf 834a 0c40 e2a8 0d3e 42c0 61be

fca1.weight f4 [64, 64]
0.16468564 -0.7323683 0.053561054 0.030115481 0.04267192 0.3137512 -0.30796328 0.23040813
-0.018771533 0.2031349 -0.37857553 1.2685093 0.09118511 0.27306783 0.004041444 0.047439203
-0.26081535 -2.0479605 0.40518606 -0.20784748 -1.9350963 0.17900251 -0.12859766 -0.18807697
-0.6463425 3.9961674 0.090736784 -0.50143975 0.14673705 0.07074286 0.16917604 0.121440545
-0.05993916 -0.11925195 0.06812757 -0.14773081 0.031947806 -0.29339716 -0.11324292 -0.041853532
-0.32679588 -0.2508606 -0.3029015 0.36519107 0.06878255 -0.28984925 -0.04444334 0.0014648146
0.0884985 0.08642413 0.05579253 -0.09264873 -0.19734348 -0.84604573 -0.1187409 -0.13735856
-0.003478691 -0.014396533 -0.21445149 0.069132164 -0.044483528 -0.23571953 -0.24523185 -0.08875619
-0.042049758 -0.030701445 0.04514733 -0.12997706 0.045439854 0.014045922 0.09848459 0.06419875
-0.017841578 0.017737266 0.051944252 -0.027961459 0.120801546 -0.124206506 -0.07202197 -0.028948674
-0.03955378 -0.0014199943 0.082132526 -0.028099297 0.103396766 -0.008611158 0.015794503 -0.04857655
-0.07256587 -0.066352 -0.1558458 -0.07705863 -0.12268657 0.026011242 -0.12478021 -0.09793542
0.05838164 0.0903859 0.10857816 -0.12130819 -0.04178296 0.03255014 -0.06370702 0.11618394
0.040865097 -0.09393441 -0.12650505 -0.1004761 -0.035830006 0.05374359 0.01633896 -0.05055538
-0.12062273 0.081251904 -0.06906672 0.035362776 -0.09039534 0.046907596 0.004013613 -0.028333992
0.042315707 0.07408039 -0.1349094 0.08346621 -0.07378928 -0.0065233004 0.010647848 0.06822069
0.74249345 -0.28117487 0.084492475 0.10865178 -0.03061296 0.29880565 -0.121665314 0.02654106
0.36469254 0.10393015 -1.2261993 0.6044338 0.07303526 0.51169145 -0.37418023 0.18644643
0.122910015 -2.4867423 0.12148141 -1.5525553 2.2257237 -0.023487328 0.26874116 0.052080445
-1.2488561 0.917804 0.12265615 0.27204415 0.13044898 0.13141166 -0.046179984 -0.035296507
0.047422364 -0.09187802 -0.08261788 -0.31155983 -0.008868635 -0.5136377 -0.06382007 0.11488806
-0.32302332 -0.26328436 -0.30602053 -0.002799031 0.052304655 -0.26248953 -0.01972726 0.0773045
0.09940827 -0.032630265 0.046726108 -0.01419495 -0.12755653 -1.1543238 0.0108154565 0.079307124
0.010124072 0.03336543 -0.31762576 0.07868147 0.1048124 -0.2723541 -0.011172359 -0.06607633
0.24342261 -0.16110799 -0.07512556 0.055163823 0.10635583 0.16295172 -2.895762 0.28928843
0.0808413 -0.0725149 -0.060094032 2.0203676 -0.013523444 0.53021085 -0.43965322 -0.012616373
0.05688069 4.929057 -0.021644168 -2.4827113 1.5028582 -0.028035965 -0.15201521 -0.39287364
-3.1866345 1.2967489 -0.1657928 0.029218314 0.08726509 0.090150945 -0.005510248 0.048804536
0.02185449 -0.054021716 -0.11539981 -0.08052865 -0.07605417 -0.9853966 0.33660325 -0.11335279
-0.13385177 0.057496626 -0.2704193 -3.1328204 0.015455157 -0.338429 -0.09786451 0.09201959
-0.009377524 0.021667555 -0.02167891 -0.05149349 0.20905517 -2.1021955 0.0029308498 0.54345876
-0.06850287 -0.057807937 0.091374114 0.038851395 -0.04351051 -0.32580432 0.11952081 -0.0049858093
00000000: 5aa3 283e 7d7c 3bbf d662 5b3d beb4 f63c
00000010: c0c8 2e3d ffa3 a03e 5dad 9dbe 1cf0 6b3e
00000020: c2c6 99bc 9802 503e a7d4 c1be 835e a23f
00000030: 42bf ba3d 8ccf 8b3e 176e 843b 9c4f 423d
00000040: 9789 85be c911 03c0 8c74 cf3e f8d5 54be
00000050: 3cb1 f7bf 6f4c 373e 1baf 03be 4097 40be
00000060: b476 25bf 35c1 7f40 35d4 b93d 5b5e 00bf
00000070: 3d42 163e a2e1 903d 7c3c 2d3e d2b5 f83d
00000080: c482 75bd 5e3a f4bd 7886 8b3d bf46 17be
00000090: b4db 023d 2738 96be e7eb e7bd 9c6e 2bbd
000000a0: ca51 a7be cd70 80be e815 9bbe 53fa ba3e
000000b0: dedd 8c3d 1f67 94be 380a 36bd 06ff bf3a
000000c0: b43e b53d 22ff b03d b586 643d 9ebe bdbd
000000d0: 6914 4abe 7496 58bf 6e2e f3bd b9a7 0cbe
000000e0: c0fa 63bb 70df 6bbc 2c99 5bbe 2a95 8d3d
000000f0: 5c34 36bd 7660 71be 0f1e 7bbe cec5 b5bd
00000100: 5e3c 2cbd 9981 fbbc 68ec 383d b518 05be
00000110: 241f 3a3d de20 663c 4ab2 c93d a27a 833d
00000120: 8028 92bc be4d 913c 7fc3 543d 6e0f e5bc
00000130: cd66 f73d fb5f febd 4180 93bd c525 edbc
00000140: 2503 22bd 1a1f baba 1935 a83d 7f30 e6bc
00000150: afc1 d33d d015 0dbc 7963 813c 34f8 46bd
00000160: 6a9d 94bd 8fe3 87bd 0b96 1fbe ead0 9dbd
00000170: 1943 fbbd 8715 d53c c48c ffbd 5e92 c8bd
00000180: 9621 6f3d 3e1c b93d 3a5e de3d 6e70 f8bd
00000190: 9c24 2bbd 4c53 053d d378 82bd d8f1 ed3d
000001a0: 2962 273d af60 c0bd 8a8a 01be 6ac6 cdbd
000001b0: 7cc2 12bd 3d22 5c3d 48d9 853c 2813 4fbd
000001c0: 0d09 f7bd 6667 a63d da72 8dbd 8fd8 103d
000001d0: 3121 b9bd 2e22 403d a084 833b b01c e8bc
000001e0: 3c53 2d3d 76b7 973d b125 0abe 55f0 aa3d
000001f0: d61e 97bd 69c1 d5bb 5074 2e3c 4ab7 8b3d
00000200: 0d14 3e3f 27f6 8fbe 640a ad3d d384 de3d
00000210: 08c8 fabc 0efd 983e aa2b f9bd a36c d93c
00000220: fbb8 ba3e 55d9 d43d 19f4 9cbf 2cbc 1a3f
00000230: 8393 953d 36fe 023f 8d94 bfbe d0eb 3e3e
00000240: 3fb8 fb3d c926 1fc0 3fcb f83d 22ba c6bf
00000250: 4272 0e40 7f68 c0bc 7198 893e 4e52 553d
00000260: 84da 9fbf 34f5 6a3f 2633 fb3d 5f49 8b3e
00000270: 6b94 053e c790 063e 3927 3dbd 1293 10bd
00000280: f43d 423d 8b2a bcbd 9033 a9bd c584 9fbe
00000290: c04d 11bc c37d 03bf 19b4 82bd 6e4a eb3d
000002a0: 5063 a5be 35cd 86be b9ae 9cbe f36f 37bb
000002b0: 683d 563d 0765 86be 109b a1bc d251 9e3d
000002c0: 9096 cb3d 50a7 05bd e063 3f3d f091 68bc
000002d0: 2e9e 02be e2c0 93bf 5033 313c c66b a23d
000002e0: 70df 253c 30aa 083d d89f a2be c023 a13d
000002f0: e2a7 d63d ff71 8bbe 450c 37bc 0753 87bd
00000300: c743 793e 7ef9 24be 6edb 99bd 76f3 613d
00000310: 16d1 d93d d1dc 263e 2a54 39c0 9d1d 943e
00000320: 2090 a53d b182 94bd 2925 76bd b44d 0140
00000330: 6f91 5dbc e6bb 073f 3a1a e1be e7b4 4ebc
00000340: bafb 683d d6ba 9d40 1c4f b1bc bee4 1ec0
00000350: a85d c03f aeab e5bc e0a9 1bbe bc26 c9be
00000360: d2f1 4bc0 defb a53f 96c5 29be 3f5b ef3c
00000370: 0ab8 b23d 0fa1 b83d 4f8f b4bb 44e7 473d
00000380: 3008 b33c e045 5dbd bc56 ecbd 34ec a4bd
00000390: 4ac2 9bbd f442 7cbf 4357 ac3e 8225 e8bd
000003a0: 7010 09be 9581 6b3d 6674 8abe 2180 48c0
000003b0: a037 7d3c 9146 adbe 306d c8bd c474 bc3d
000003c0: 30a4 19bc 2880 b13c f897 b1bc d6ea 52bd
000003d0: 8f12 563e 5f8a 06c0 8013 403b 1d20 0b3f
000003e0: 3c4b 8cbd 04c8 6cbd 5a22 bb3d a422 1f3d
000003f0: 1438 32bd d3cf a6be 54c7 f43d 0060 a3bb

fca1.bias f4 [64]
-0.21521495 -0.13602701 -0.44926307 -0.17572498 -0.083693445 1.065503 0.83166397 1.1968492
1.0565944 0.54654086 -0.22923106 -0.41687104 0.029280229 -0.07942794 -0.08764801 -0.07416812
0.055423718 0.07628785 -0.3905866 0.85402375 0.081009984 -0.20155638 -0.3176177 -0.29480222
-0.3407863 0.004170373 -0.43959802 -0.33239284 -0.018351182 -0.019761989 -0.12567572 0.24116687
-0.2727403 -0.4544832 1.4551147 -0.23408705 -0.041833688 -0.05437096 -0.19107628 -0.33584982
-0.08769285 -0.39156216 -0.30242077 -0.17851077 -0.2714866 -0.38435978 0.34186554 -0.19668412
-0.28560853 -0.41527078 0.023329 -0.22735253 -0.41989464 -0.1968269 -0.29103753 -0.34671685
0.045469984 -0.09000236 -0.4149052 0.5337544 -0.23795918 -0.4020336 -0.20482165 -0.44989952
00000000: 4f61 5cbe aa4a 0bbe cf05 e6be 40f1 33be
00000010: 7867 abbd 6762 883f eee7 543f 5b32 993f
00000020: 7c3e 873f 1aea 0b3f 8cbb 6abe 1f70 d5be
00000030: 17dd ef3c 1eab a2bd cd80 b3bd 75e5 97bd
00000040: fb03 633d ce3c 9c3d f8fa c7be 4da1 5a3f
00000050: 90e8 a53d cc64 4ebe ca9e a2be 51f0 96be
00000060: 8b7b aebe a0a7 883b fe12 e1be 652f aabe
00000070: 3855 96bc e5e3 a1bc 23b1 00be 73f4 763e
00000080: 9ea4 8bbe 06b2 e8be 3341 ba3f 84b4 6fbe
00000090: cd59 2bbd 15b4 5ebd 80a9 43be 82f4 abbe
000000a0: 4f98 b3bd d67a c8be e5d6 9abe 87cb 36be
000000b0: 4b00 8bbe ceca c4be 0009 af3e 9067 49be
000000c0: 483b 92be 5f9e d4be 761c bf3c 1acf 68be
000000d0: 6efc d6be fe8c 49be df02 95be df84 b1be
000000e0: bc3e 3a3d 2853 b8bd 746e d4be 21a4 083f
000000f0: 92ab 73be 59d7 cdbe c4bc 51be 3b59 e6be

fca2.weight f4 [1, 64]
-0.7467706 -0.023416545 -0.47640932 -1.8669915 -7.3956447 2.596944 2.9136527 2.4223247
1.2415197 -17.17168 -0.4617637 -0.562739 -0.0078076106 0.004424538 -1.2260255 -0.01520065
-0.0020616252 -0.0026499582 -1.3589723 2.7503068 -0.0005944625 -0.4877773 -0.33666906 -2.7231653
-0.23195496 -0.0017746561 -1.1085601 -0.80578625 -0.001009797 -0.0014913577 -0.5101057 -3.508665
-0.53316194 -0.39811355 2.365895 -0.92118627 0.026156532 -3.6125865 -0.47038877 -1.8137325
-7.888059 -0.5165615 -0.4691849 0.0059374906 -0.35370398 -2.3280048 -10.481454 -0.6169208
-0.9349466 -0.93769884 -0.018428318 -0.46666956 -0.5675989 -1.1229823 -0.7103685 -0.6392735
0.0024757604 -3.819628 -0.81131977 -18.365929 -4.3373165 -0.59951806 -0.74412966 -0.6519789
00000000: 5c2c 3fbf 0ed4 bfbc eceb f3be 94f9 eebf
00000010: 1fa9 ecc0 5534 2640 4979 3a40 5e07 1b40
00000020: 1eea 9e3f 9a5f 89c1 4b6c ecbe aa0f 10bf
00000030: fcd6 ffbb b7fb 903b 67ee 9cbf 260c 79bc
00000040: 551c 07bb ecaa 2dbb cef2 adbf 0705 3040
00000050: b4d5 1bba f2bd f9be e35f acbe 5748 2ec0
00000060: 9a85 6dbe 949b e8ba 4ce5 8dbf 0248 4ebf
00000070: 2a5b 84ba a979 c3ba 4a96 02bf f88d 60c0
00000080: 4d7d 08bf 8ad5 cbbe d36a 1740 ddd2 6bbf
00000090: 3946 d63c 9e34 67c0 ccd6 f0be 6328 e8bf
000000a0: fb6a fcc0 603d 04bf 0139 f0be 488f c23b
000000b0: b018 b5be 08fe 14c0 09b4 27c1 86ee 1dbf
000000c0: a958 6fbf 080d 70bf fcf6 96bc 50ef eebe
000000d0: 294e 11bf e2bd 8fbf b6da 35bf 6ea7 23bf
000000e0: 5e40 223b c974 74c0 a7b2 4fbf 6ced 92c1
000000f0: 4ccb 8ac0 047a 19bf 487f 3ebf 17e8 26bf
