src/Models/trained/1600_actor.pt (torch_old, 25545 bytes, 6 tensors)

fa1.weight f4 [64, 28]
00000000: c52c 5bbe 792c 5dbe 1565 fc3e 98bc 1a3f
00000010: 169f 263f 1de8 3b3f 03d5 983e 8b50 933d
00000020: 7d6c 73be 01b6 94be ef0f f8bc ef69 02bf
00000030: 53c0 b8be 3904 3bbe 0564 b5be 4a8e 98be
00000040: 0bb2 d53e b2fa 513e c788 d23d a510 bf3e
00000050: 1fe5 d1bd f3a2 1e3f edc4 433e 778d 82be
00000060: e903 53c0 ab84 16be 6fb7 873f 6fac 0cbe
00000070: 383f 09be cf5a 793d ccd1 b3bd e617 d2bd
00000080: fa85 943d 2790 11be 3f00 703d e311 0cbe
00000090: f95e b03c dfa1 90bd b37c 743d 62e4 81bd
000000a0: 28b9 cabd a3c5 28be 94f9 bcbd 451f 47bd
000000b0: e562 773d 6a8e 733d af37 873d fc6a 75bd
000000c0: 55fb a13d 5014 25be 4db6 edbd 1af0 013d
000000d0: 6afe a7bd 9641 863d 9e77 19be de8b 22be
000000e0: 01ef 093d aa5b 01be 04ac ff3c 438a 03be
000000f0: 1f2d 9bbd eda7 ab3c 67e9 403d 8106 26be
00000100: dd48 513b 86dc ac3d d374 d8bd a02d c2bd
00000110: caf0 fcbd da98 a7bd ccfa ecbd 9a14 6abc
00000120: 8aeb 943d 6a0b f4bd d0c4 ae3d fa3c c4bd
00000130: 82b7 d6bc 03f0 d7bb 79f9 cb3c a18e d5bd
00000140: b68f 86bc c595 a13c 023f a7ba d71c aebd
00000150: 3ab6 0abe caab 56be 84c1 46be 517a 30be
00000160: 8f9a 37be 3a89 27be 8764 a4bd 576e 79bd
00000170: 9e5b acbb d4b3 7fbc 1e01 3fbd ff45 2dbe
00000180: 1456 7fbe cce4 7ebe 2237 8bbe 68ba 88be
00000190: 1979 80be f6bb 52be 775b 66be c673 35be
000001a0: 2aec f3be dc09 aabe bd21 35be aa55 02be
000001b0: 2ece f8be 5bfe 8b3d 49e3 89bf a1d3 fbbd
000001c0: d834 713d f2f1 b9bd 447a 41bd 8016 6ebc
000001d0: 229a f33d 883d cf3c 1e08 b9bd b876 3c3d
000001e0: 8650 f3bd 7b48 e2bd d939 e9bd 40b4 10bd
000001f0: 4358 a8bd 2afa e7bd d444 64bd ce49 c23d
00000200: 681f 46bd 30d5 70bd c049 4e3b da8a f93d
00000210: 1058 04bd 8aa8 43bd c028 933c c4a0 eebd
00000220: 30bf f63c 48b1 4cbd a0a5 523d cf4d adbc
00000230: 5da3 3e3c ae10 233d 2680 a23d b22c d7bd
00000240: 8e5b 10be 451f c73a efac 233d 649c 7f3d
00000250: 7323 453b 321b 3a3c 21e9 c2bd 2000 383d
00000260: d14c 263d 4cc0 16be f9e1 afbd ac38 8e3d
00000270: c2ad 9d3b 24fa 7fbd 633f 16be b612 863d
00000280: aba7 f4bd 7f2e 11be 77a4 363a 6ed5 353d
00000290: 466d 8f3d 0fea 2d3c 1d30 f7bb 8791 87bd
000002a0: ec5d 0dbe 9f7c 11be 31cb 1cbe 0b35 8cbd
000002b0: 1d07 bebd e6e8 19be 8046 54bd ea20 3b3c
000002c0: 40c0 c1bc 39ab 933c fe83 06be e416 843d
000002d0: c248 603b 2c52 ffbd 101c 09be 3651 863c
000002e0: 2575 ab3a 46bd acbd ba12 cdbd d888 38bd
000002f0: 0e4c c8bd 049f b33c 7643 23be c5b1 8ebd
00000300: 21e9 c23b 4a4f 943d ebbb fd3d ee58 dcbc
00000310: 2cfa 0dbe d47f cfbd e9e1 933d a648 efbd
00000320: 9599 f7bd 7f8f 243c 1f78 40bc 2c50 aa3d
00000330: 0ad6 4d3d 8cc3 a9bd a563 0ebe 96e7 bfbd
00000340: 62b7 1ebc 2f11 4abc e278 9e3d 7111 81bd
00000350: c7bd d3bd c9a0 dfbd af31 88bd 55a7 5a3c
00000360: 4745 a43d 44f6 0d3d dd2a 0fbe 4f5f cabd
00000370: 7ad1 e0bd e633 3fbd b3d0 3bbd 80d4 4abd
00000380: 70df a5bd 424d b1bd a067 f1bd 14c6 333d
00000390: da28 73bc fd62 a13b 391d 1dbe a5fe d0bd
000003a0: 1997 c2bd a552 98bc a29e 44bc d557 64bb
000003b0: fd6d 18be 2b06 8cbc 39bc 893c b237 cebd
000003c0: 5e58 19be 8fd4 663c 9885 25bd 9f01 66bd
000003d0: 6f25 533c 9b80 f4bd 6cf2 a9bb 2383 7e3c
000003e0: 6594 ab3d 2eee 8f3c db20 1fbd 552a da3a
000003f0: ab28 9fbd 4752 f03c 4640 2cbe 81b0 893d
-0.21403797 -0.21598996 0.4929587 0.6044402 0.65086496 0.7340105 0.29850015 0.07193097
-0.23771854 -0.29045108 -0.030281035 -0.5094289 -0.36084232 -0.1826333 -0.3542787 -0.29796058
0.41737399 0.20505789 0.102799945 0.37317386 -0.102487795 0.6196739 0.1911809 -0.25498554
-3.2971137 -0.14699046 1.0602854 -0.13737653 -0.13403022 0.060877617 -0.0878025 -0.102584645
0.072521165 -0.14215146 0.058593985 -0.13678698 0.021529661 -0.070621245 0.059689235 -0.06342389
-0.09898597 -0.16481642 -0.09227291 -0.048613805 0.060397048 0.05946199 0.06602418 -0.05991648
0.07909266 -0.1612103 -0.11607037 0.03172312 -0.082028225 0.06555478 -0.14987037 -0.15873668
0.033675198 -0.12632623 0.031209953 -0.12845711 -0.075769655 0.020954097 0.04709759 -0.16213419
0.00319343 0.08440499 -0.105691575 -0.094813585 -0.12350614 -0.08183451 -0.11571273 -0.014287138
0.07271488 -0.119162396 0.08533633 -0.09581943 -0.02621055 -0.006589891 0.024899231 -0.10427595
-0.016425949 0.019724736 -0.0012759867 -0.085015945 -0.13546076 -0.2096397 -0.19409758 -0.1723416
-0.17930053 -0.16360942 -0.080269866 -0.060896244 -0.005259945 -0.015606839 -0.046631925 -0.16921233
-0.2493518 -0.24891967 -0.271905 -0.26704717 -0.2509239 -0.20579514 -0.22495829 -0.17719945
-0.47641116 -0.33210647 -0.17688651 -0.12727991 -0.48594803 0.06835624 -1.0772487 -0.122962244
0.058888286 -0.090793505 -0.047235742 -0.014531732 0.11894633 0.025297895 -0.09034751 0.046011657
-0.11880593 -0.11048981 -0.11387987 -0.03532815 -0.082199596 -0.11327012 -0.055729702 0.094867334
-0.048369795 -0.05879706 0.0031477064 0.12184687 -0.032310545 -0.047768153 0.017963767 -0.11651757
0.030120462 -0.049973756 0.051427484 -0.021155266 0.0116356285 0.03981083 0.079345986 -0.10506572
-0.14097425 0.0015191814 0.039959844 0.062405005 0.0030080944 0.011359023 -0.09517122 0.044921994
0.0406006 -0.14721793 -0.08588023 0.06944403 0.0048119733 -0.062494412 -0.14672618 0.065465376
-0.119460426 -0.14177893 0.0006967256 0.044392996 0.07003264 0.010614886 -0.0075435773 -0.06619554
-0.1380536 -0.14207695 -0.15311886 -0.06846055 -0.092787005 -0.1503025 -0.051825047 0.011421422
-0.023651242 0.018025981 -0.13136289 0.064496785 0.0034223055 -0.12466845 -0.13389611 0.016396146
0.0013081176 -0.084345385 -0.100133374 -0.04505238 -0.09780131 0.02192641 -0.15943703 -0.069675006
0.0059482013 0.07241686 0.12389358 -0.026897874 -0.13864964 -0.10131803 0.07220823 -0.116837785
-0.1208984 0.010043978 -0.011747389 0.08316073 0.05025295 -0.08289251 -0.13905199 -0.093703434
-0.009687277 -0.012333198 0.077379 -0.06302155 -0.103389315 -0.10919339 -0.066501014 0.013345559
0.08021026 0.034658685 -0.13981195 -0.0988146 -0.109774545 -0.046680354 -0.045853328 -0.049519062
-0.08099258 -0.08657314 -0.11787343 0.043890074 -0.014841283 0.0049251304 -0.15343179 -0.102048196
-0.09501476 -0.018594095 -0.012000712 -0.003484239 -0.14885707 -0.017092785 0.016813384 -0.10069217
-0.14975116 0.014088764 -0.040410608 -0.05615389 0.012887343 -0.11938592 -0.0051863696 0.015534195
0.083779134 0.017569628 -0.038849693 0.0016644696 -0.07771429 0.029336108 -0.16821393 0.067231186

fa1.bias f4 [64]
00000000: f149 da3d c1d1 5ebd 37c8 873b 14bb bcbd
00000010: 44f7 5f3d 411b 56be b530 c83d ab2a f4bc
00000020: 9145 e9bd a11c 4cbe 52a1 943c 5839 c23c
00000030: 75a8 46be 9c22 04be 6481 0c3e 62bd 1dbe
00000040: b35e 323d 264a f5bd da44 603d ccb1 323d
00000050: 2d9d 813e c324 9f3d 4989 43bc e407 e3bd
00000060: b3df 06be 2027 1cbe 6408 00bc cd03 0f3d
00000070: abfb bb3d 622f 273d 6f1f 54be 1d84 3ebd
00000080: 56ea 2bbe 0529 253e 8b69 193c 3363 03bd
00000090: fa85 94bd 44f6 0d3e 0218 03be d486 4fbd
000000a0: 4103 933d 6f12 88be 049f 33be 3991 fbbd
000000b0: e374 f4bd 6f14 dd3c 24aa febd 6142 f2bd
000000c0: 5135 8abd d29c 43bc 71ea 1cbe 1af2 563d
000000d0: bea5 043f 609c 38be 482e afbd 3b72 b2bd
000000e0: 62a1 303d 6a0b 743c 9c9f 04be df1e 113d
000000f0: 7bda 02bc 99b7 00be 510a 7cbd ebed 583d
0.106586345 -0.054399256 0.0041437405 -0.0921537 0.05467917 -0.20908834 0.09774915 -0.029805502
-0.11390222 -0.19932796 0.01814333 0.023708984 -0.19400199 -0.12903827 0.13721234 -0.15404275
0.043547343 -0.11977033 0.054753162 0.04362659 0.25315228 0.077706836 -0.011934587 -0.110854894
-0.13171272 -0.152493 -0.0078145005 0.034915734 0.09178861 0.040816672 -0.20715116 -0.04651271
-0.16788611 0.16128929 0.009363542 -0.032077026 -0.072521165 0.13863474 -0.12802127 -0.05066569
0.07178355 -0.26576564 -0.17541128 -0.122835584 -0.11936357 0.026987283 -0.124347955 -0.11829067
-0.067484505 -0.011939244 -0.15323807 0.05247698 0.518154 -0.18028402 -0.08553749 -0.08713194
0.043122657 0.014895299 -0.12951511 0.03542983 -0.00798666 -0.12570037 -0.061533276 0.05296127

fa2.weight f4 [64, 64]
00000000: 84c9 cc3e 01ef 89bd 09c4 093e e19a 8abf
00000010: 98c7 c43d 64b8 ec3d 8e52 ee3d 8592 8e3d
00000020: 19ed debd 8e07 493e 30dc 923c a3b4 32bc
00000030: c967 10be 904f 123e 5e11 09c0 4b50 623d
00000040: 52b2 8a3c 99fb 21bf c29c a73d 3bb0 abbd
00000050: e44e 473f 90c1 9bbf 44cf 293c 2731 53bc
00000060: eb62 743f f908 14bd 3b47 7a3e ee74 49bd
00000070: 2532 5a3e 2e71 0fbf 4b1c 323e 34c0 ecbd
00000080: dd3d da3d 0564 45be 066f 1140 4562 183e
00000090: f9ec 263e 418b 0abd 62c8 933f 90ef 19bc
000000a0: 832c 033d beae a43f fe58 783d 59c1 39bd
000000b0: b09d 923d 16e1 1939 1f5e 75bc a96e cc3d
000000c0: 4164 a63d 3f0f 913c bc11 463c 9bf0 a83d
000000d0: 9724 25bf c121 fcbc 68ba 08bc 0c74 b3be
000000e0: a8a1 ae3d 7f84 adbc 13b0 c53d 6d15 64bd
000000f0: c159 563e 7f68 c03d 2497 173d 21d8 4c3e
00000100: 17da cabf 8261 ba3d 2dcd aa3d 3729 9bbf
00000110: a802 c2bd 6506 353c 7638 ac3d eadb 943d
00000120: 0af2 3a3d 3afb 303e d3d5 eb3d 4774 5c3d
00000130: 5c44 a53d 4656 9abd fb3b 873f 4c4e 0d3e
00000140: 9f60 24bd da99 163f 427a 943c ba53 f43e
00000150: 0547 c63f 2870 7abf beba a23c 3edd b5bd
00000160: 65e2 053f dc09 aa3d f20f 45bf aa23 a73c
00000170: d0cf 253d b769 70bf d7b0 233e cb22 58bc
00000180: 2724 87bd 6176 4bbd 27e6 3f3e 69a3 93bd
00000190: 6f68 243e 4016 5e3c 1a59 c03e b0db 523c
000001a0: 537b 7ebd 4397 4f3f ac13 7f3d 5672 233d
000001b0: b93f 303e 4484 043e acf6 8c3e 99c4 4cbd
000001c0: a05c 7abc 9e88 8fbd 7ec4 dbbd 609c 383e
000001d0: ca88 f2be 05b7 80bd 73d8 1f3d f0da 54be
000001e0: 21e9 c23d 1769 11bd 8c78 043e cea9 48bd
000001f0: c740 533e 0389 453c 54da bcbd 1255 313e
00000200: dbd4 2e3b 50e7 c1bc aa2e 9e3d f023 a5bf
00000210: a4bf a93d 8062 413e 0161 933c 07c5 103e
00000220: 109f 08be 2aec f33d 8fe3 073e eee6 52bb
00000230: 5c02 cbbd de8c 703d 4c71 09bc a874 4b3d
00000240: 1a35 283e 4e69 41be e4e9 a0bb 8d65 a43e
00000250: adff 74be 9a91 6abf 410e 8abd ad0b 2bbc
00000260: 5683 07bf e412 5a3d 18e3 2d3e d40d 46bd
00000270: 8853 2e3e 7969 80bf 2bf5 953d dd1f 98bd
00000280: 19be 26bd d35d c23d a39d b3bf f4d8 c63d
00000290: 0a75 ba3d 49b6 26bc 2af1 4f3f 7222 fabd
000002a0: 911c 30bc eddf 053f 7da1 213d dd93 76bd
000002b0: 7da1 213c d8b1 f13d 6e3b a83e 1360 283e
000002c0: 5124 943d 95d7 d0bc 4093 de3d 8a41 313e
000002d0: 562f 02bf 8d4b a1bc 1cf1 cfbc aa2e 1ebe
000002e0: f709 1b3e 557e 213b 439d cebd 021d 3bbc
000002f0: bd88 473d 6efe eebc 40e9 7a3d 7ec2 063e
00000300: d6c1 9abe e77d ddbd e50c 5b3d b62a c9bd
00000310: 00d0 49b8 7ae2 56bd a4dd 6b3c 324d 953d
00000320: 9c0c bbbd 61ea 803d e40b 8dbd 195f 68bd
00000330: 9ca9 1c3e 341a 33bd fc00 34be 2eb6 b53d
00000340: f788 703d 03e7 4bbd 4be2 023e a1b5 a2bd
00000350: 3b87 89bd 63a8 fdbd aa3f 14be 18fe 54bd
00000360: 54d0 69bd 4557 a13d e0ba 8fbe 793c 9dbd
00000370: 37a1 233d 5d37 34be e2ce ba3d 54f6 293d
00000380: 9659 c93d 26a7 95bd 03f7 f3bd 668e 2c3d
00000390: d101 813d 5e70 dcbc 819f 13bd 7452 2b3d
000003a0: e96f 8abd 6721 1bbe c3ae eb3d 714b 303d
000003b0: acbb 0d3e 3363 033d ca2a a7bc cc09 0e3d
000003c0: e953 9dbd 6e7f 99bc 3897 7a3d 51c5 d5ba
000003d0: bc5e 34bd 12ff 94bd 8393 15bd 4a83 c4bd
000003e0: 9d34 48bc 6a3c 013e d3db 6abd eced d83d
000003f0: a5e2 e33d f356 4ebc d3ac 323c 4a9f 31bd
0.39997494 -0.067350395 0.13453688 -1.0828515 0.09608382 0.11558607 0.1163684 0.0696154
-0.108850665 0.19631788 0.01792726 -0.010907325 -0.14102091 0.14288163 -2.141685 0.055252355
0.016930733 -0.6327453 0.08184196 -0.08383223 0.7785475 -1.2168446 0.010364357 -0.012890137
0.95463437 -0.03614137 0.24441235 -0.04918378 0.21308191 -0.56032073 0.17393605 -0.11560097
0.10656331 -0.19276436 2.2724013 0.14881237 0.16301335 -0.03382421 1.1545527 -0.009395495
0.03202487 1.2865827 0.060631745 -0.045350406 0.07158983 0.00014675068 -0.0149760535 0.09982044
0.08124591 0.017707465 0.012089189 0.08249017 -0.64508957 -0.030777814 -0.008345224 -0.35049474
0.08526927 -0.021181343 0.09652724 -0.055684496 0.20932676 0.09394931 0.037009373 0.20004322
-1.5847806 0.091006294 0.083399154 -1.2121953 -0.09473163 0.011048888 0.084092066 0.07268508
0.045640983 0.17283335 0.11515393 0.05382183 0.08069679 -0.075359866 1.056518 0.13799399
-0.040131208 0.5882851 0.018124703 0.47720128 1.5490423 -0.97827387 0.019864436 -0.08880089
0.52298576 0.08302662 -0.76977456 0.020402748 0.04048139 -0.9391131 0.15985428 -0.013191889
-0.065986924 -0.04967344 0.1874014 -0.072089024 0.16055463 0.0135551095 0.3756798 0.01286976
-0.06212933 0.8109018 0.06227462 0.03990396 0.17211808 0.1294108 0.27531946 -0.049992178
-0.015280873 -0.070084795 -0.10730837 0.18028402 -0.47369987 -0.06284908 0.03902478 -0.20786643
0.09517122 -0.035500612 0.1293661 -0.048990063 0.2063018 0.012056592 -0.0922133 0.17317608
0.0026677165 -0.023669869 0.07723744 -1.2901592 0.08288506 0.18885231 0.017990591 0.1413766
-0.13341928 0.11910279 0.132704 -0.0032181102 -0.099125594 0.05872809 -0.0083888285 0.0496718
0.16426507 -0.18887827 -0.0049106944 0.32108727 -0.23925658 -0.9162842 -0.06741 -0.010439795
-0.5293478 0.05324067 0.1698116 -0.04835303 0.17024052 -1.0032188 0.07322153 -0.074279524
-0.040708635 0.09490552 -1.4032482 0.09709349 0.09104355 -0.010175296 0.8122736 -0.12213601
-0.010748998 0.5229481 0.039460648 -0.060199607 0.009865162 0.11801499 0.3285784 0.164429
0.07233489 -0.025493423 0.108679295 0.17310157 -0.5085348 -0.019689346 -0.025383525 -0.15447488
0.1514052 0.002464195 -0.10088589 -0.01142049 0.04871439 -0.029174056 0.0612576 0.1316013
-0.3022601 -0.108150296 0.053479094 -0.098225996 -4.811585e-05 -0.05246208 0.014396105 0.072901145
-0.091332644 0.06294704 -0.068870336 -0.056731317 0.15299076 -0.04372616 -0.175785 0.08872639
0.05872437 -0.049780857 0.12781636 -0.07944799 -0.06715246 -0.12385633 -0.14477411 -0.052000135
-0.057083443 0.078779735 -0.28072262 -0.0767755 0.03994867 -0.17599244 0.09121491 0.041494682
0.0983154 -0.07307272 -0.11912348 0.04212799 0.062991746 -0.02690905 -0.036040787 0.04182668
-0.067596264 -0.1514946 0.115079425 0.043040697 0.13841122 0.032077026 -0.020406146 0.03467731
-0.0768202 -0.018737521 0.06117937 -0.0016309415 -0.04403566 -0.07275213 -0.03651763 -0.09595354
-0.012219575 0.12620702 -0.057338547 0.10592255 0.111272134 -0.0125939725 0.010905462 -0.0433648

fa2.bias f4 [64]
00000000: bcff a2bf 9679 65bf f488 323f 386d e5bb
00000010: f1af 94bf 4e6b c8be 6782 ff3e fe2e 09bf
00000020: d518 723e 433f 8abc f251 a8bf e87f fcbf
00000030: f70c 5fbb fa79 24be d977 42be 9ba5 23bf
00000040: 51ec b9bd a27e 13bf a167 b43d 9ca4 c6bd
00000050: 6bf3 9ebf 7762 43bf f0ed 5b3f 247d 7dbc
00000060: 8925 eebe 1040 88bf fbf3 bcbf ba75 7abd
00000070: 2899 523f 2f3b 35be ac9f adbf a8dd 24bf
00000080: 1350 cebe c307 6bbf 5b5c 493f d64f f8bc
00000090: 4493 93bf 5175 a83d b094 8fbf 4f02 4abf
000000a0: f1c7 89be 2b62 233d 700c 09bd 2e51 6abf
000000b0: d60d c7bf 891e 25bf 1f70 923f a7e6 06bf
000000c0: 84ea ffbd 0d16 36bf ca58 a2bf 0141 a2be
000000d0: e623 88be 4872 bb3e 0588 bebd e243 95bf
000000e0: 382b 413d 0556 973f f1ef 54bf 9a98 113e
000000f0: 790b 9cbf faf7 9dbf 0882 143f d2c3 a7be
-1.2734294 -0.8963865 0.69740224 -0.0070015453 -1.1616193 -0.39144367 0.49904177 -0.5358733
0.23642285 -0.016875869 -1.3150008 -1.9726534 -0.0034034827 -0.16062155 -0.18991031 -0.6392457
-0.09078277 -0.576151 0.08808828 -0.096993655 -1.2418035 -0.7632212 0.8590994 -0.01547173
-0.46513012 -1.064455 -1.4761957 -0.06114743 0.8226495 -0.17698358 -1.3564353 -0.6440072
-0.40295467 -0.9180872 0.7865655 -0.030311506 -1.1529317 0.08225501 -1.1217251 -0.7890977
-0.26910356 0.039888542 -0.033459127 -0.9153012 -1.5551097 -0.6449972 1.1440467 -0.526957
-0.12495902 -0.71127397 -1.2683346 -0.3169022 -0.26589888 0.36610627 -0.093032874 -1.1661341
0.047160357 1.1823126 -0.8317862 0.14218369 -1.2191001 -1.2341301 0.5801091 -0.32766587

fa3.weight f4 [2, 64]
00000000: d41b ddbf ad52 81c0 dbb6 9540 0526 793d
00000010: b68f 3f40 8fb2 7abf 567b a03f 7e45 3cc0
00000020: 407b 3840 1107 4440 1f30 0f40 8e5d 8ac0
00000030: ee16 16c0 3129 85c0 9813 1c40 5671 923f
00000040: ba28 bbbd daca 82bf ad51 28c0 def4 a540
00000050: e7aa c040 351c 55c0 1c4e 17c0 5206 2e40
00000060: 2fbc ed3f fe35 2bbf f7e6 6bc0 f1fe 0f3f
00000070: fe65 2540 e8b6 0340 76e8 7fc0 244a b440
00000080: 6278 ab40 5c57 cb3e 8666 6340 0061 c23c
00000090: 1876 a6c0 cf61 5bc0 5be2 323b c43b 5bbf
000000a0: 7ffb 2ebe 13b4 bdbf 9183 c2bd e803 7a40
000000b0: b7af 29c0 6e2b 52bf bc2b 293f beba a2be
000000c0: 9cac d0bc 29b8 c340 594c 5bc0 6c1c 89bf
000000d0: 8d8c 7640 45bb a640 5877 1b3c bee7 1a3f
000000e0: b8ba 15bf 0873 3840 2a87 8cc0 2a53 a5bf
000000f0: 9296 97bd c2c9 0ac0 df35 eb3f 505e c340
00000100: 3284 043f fb29 a63e 5403 64bd 4c3d 173d
00000110: a130 993f dc36 0d3b b514 94bf faa3 e1bf
00000120: 700f 6ebd 97b9 243f edb8 38c0 2159 71bf
00000130: 9567 283f 2398 90bf 4441 b3bc ec7b 593f
00000140: 6156 0bbb b177 7c40 ebdf 243f da44 b7bc
00000150: 0440 e83f 4fb9 2cc0 2919 383f 8f4a e9be
00000160: 2742 63bf bb3a de3f 27d2 26c0 22c2 5fbf
00000170: df8a 013e 2b56 afbe 741b 27c0 9491 9b3d
00000180: de05 f13e ea48 05c1 8b0e 323f 65d5 e6ba
00000190: 4b65 b3bf e073 c8be f2b1 d5bf fe7f 5c40
000001a0: 3201 97bb b3a8 7d3f f493 a0bc 57c4 aabf
000001b0: 8001 d7bf 3c8d 1840 9c95 633f 83fd c0bf
000001c0: c10e 31b9 c1c1 17bf 856c 78bf 07e4 09be
000001d0: 866d 4f3d 17fa 2dbd e036 d4bc 2bdc afbf
000001e0: 00b8 3140 6a83 163f 50ea 1040 494d 1e40
000001f0: 0b2f 30c0 882b 43c0 57b9 3040 5198 f2bc
-1.7274117 -4.0413423 4.678571 0.060827274 2.9931464 -0.9792871 1.2537639 -2.9417415
2.8825226 3.0629313 2.237312 -4.3239202 -2.3451495 -4.1612782 2.438696 1.1440837
-0.09138627 -1.0218155 -2.629985 5.186141 6.020862 -3.3298466 -2.3641424 2.7191358
1.8573054 -0.6687926 -3.685972 0.56248385 2.58435 2.0580387 -3.9985633 5.6340504
5.358445 0.39715087 3.5531325 0.023727894 -5.2019157 -3.4278448 0.0027295563 -0.8563807
-0.17088126 -1.4820579 -0.094977506 3.9064884 -2.6513498 -0.8209752 0.6608236 -0.31783098
-0.025472932 6.1162305 -3.426535 -1.0711799 3.8523285 5.21036 0.009488903 0.6050986
-0.58488035 2.882021 -4.3914995 -1.2916005 -0.07401766 -2.1685643 1.8375815 6.1052628
0.51764214 0.32453904 -0.055667236 0.03692369 1.1967965 0.0021547591 -1.1568819 -1.7628167
-0.05812019 0.6434569 -2.886287 -0.94276625 0.65783054 -1.1296428 -0.021881707 0.84954715
-0.0021261203 3.9448054 0.6440417 -0.022371698 1.8144536 -2.6988103 0.7191339 -0.45564696
-0.88772815 1.7361673 -2.6065767 -0.874056 0.12650631 -0.34245428 -2.6110506 0.07596126
0.4707479 -8.330301 0.6955344 -0.0017611204 -1.4015287 -0.39150906 -1.669493 3.445312
-0.004608297 0.9908554 -0.0196018 -1.3341168 -1.6797333 2.3836203 0.8890016 -1.5077366
-0.00016885532 -0.5928002 -0.9704059 -0.13465892 0.05064156 -0.042474832 -0.025905073 -1.3739065
2.7768555 0.5879427 2.2643013 2.473467 -2.7528713 -3.049532 2.7613122 -0.029613646

fa3.bias f4 [2]
00000000: f30e 4340 7d2e cb3d
3.0477874 0.09920976
