src/Models/trained/200_critic.pt (torch_old, 22186 bytes, 7 tensors)

fc1.weight f4 [32, 28]
000000 cf 48 00 bf 47 26 45 bf c6 0a 69 bf ae d7 dc be
       -0.501111 -0.7701153 -0.91032064 -0.431333
000010 7e 0c bb be dc 6a c9 bc 77 5d f8 bc b8 56 91 3e
       -0.36532968 -0.024587087 -0.030318005 0.28386474
000020 7a 61 95 3e 1f 09 ac 3e c2 82 04 3f 34 29 a5 3e
       0.2917593 0.3360071 0.5176202 0.32257998
000030 a3 7a 1b 3e 8a 1b cd bd c3 1e 37 bd 5e d5 74 3c
       0.15183501 -0.10015018 -0.04470707 0.014943449
000040 1d 6c 7a 3d 5c be 02 3e a0 f6 95 3e a4 b5 28 3f
       0.06113826 0.12767929 0.29289722 0.6590216
000050 ac 3c ee 3e 90 74 8f 3c ca a0 34 be 5e 66 0b bf
       0.46530664 0.017511636 -0.17639461 -0.54453075
000060 ac 8c 8f 3f ff 64 2f bd 76 81 ad bf 17 f7 36 bf
       1.1214805 -0.042820927 -1.3555133 -0.7147078
000070 ee 74 99 bd c5 f9 42 be 20 13 39 be 26 8e c7 bc
       -0.07493006 -0.19040592 -0.18073702 -0.024359774
000080 14 3b 65 3c 57 29 50 3d 20 e8 08 bd 53 94 76 bb
       0.013991136 0.050820675 -0.033424497 -0.003762503
000090 3d d9 b3 bc 1f 35 e5 3c 68 78 5a 3d 96 97 e7 3c
       -0.021954173 0.027979432 0.053337485 0.028270524
0000a0 af 34 58 bd 04 c1 27 bd 59 77 50 bc 4a 2d 32 3c
       -0.052784618 -0.04095556 -0.012723767 0.010875056
0000b0 79 41 ef bd 55 02 31 3c 20 29 fb 3d f4 ce 17 3e
       -0.1168241 0.010803779 0.12263703 0.1482504
0000c0 d9 f3 f1 3e 7a 02 91 3e 00 cc be 3d 40 cc fa bc
       0.47256353 0.28322202 0.09316254 -0.030614972
0000d0 a5 01 9d bd f3 ed 09 3b f8 0a ea 3f 68 8a 6a 3e
       -0.07666329 0.002104637 1.8284597 0.2290436
0000e0 59 09 91 bd ae 64 07 be 1b 08 45 3b 06 c4 c7 3d
       -0.07081861 -0.13222 0.0030064646 0.097541854
0000f0 12 96 06 be 2e 02 32 be 52 a1 14 3d 99 e8 c3 bd
       -0.13143185 -0.17383644 0.03628666 -0.09565849
000100 4e 26 d7 bd 6c 7c f6 3c 60 c6 98 3b a0 bf 42 3c
       -0.10505353 0.030088626 0.00466232 0.011886507
000110 66 49 0a be 91 3c b3 bd 63 00 23 3e 5d 6c ee bd
       -0.13504562 -0.087517865 0.15918116 -0.116417624
000120 60 0b 09 3d e2 69 fd bd 10 b7 7c 3c 7e df fa bd
       0.033458114 -0.12373711 0.015424505 -0.12249659
000130 46 27 eb 3d 58 f1 c4 bc 9f b6 c0 bd 51 29 1e 3e
       0.114821 -0.024040863 -0.09409832 0.15445448
000140 ed 73 21 3e 72 fe d5 3d 59 15 81 bc 50 c0 5d b7
       0.15766878 0.10448922 -0.01575725 -1.3217403e-05
000150 c5 27 38 bc 8c f8 cf 3e 04 33 a7 3e ad 99 6e 3e
       -0.011239951 0.40619314 0.3265611 0.2330081
000160 3c 15 9e 3e db 9c 8f 3e 18 ae 75 3e a1 6d 97 3e
       0.30875576 0.2804936 0.23992193 0.29575828
000170 76 c8 b4 3d ca e8 fa bd f9 ae a6 3e 50 40 d7 3d
       0.088272974 -0.12251432 0.3255537 0.105103135
000180 d7 80 17 3e ec 6b b7 3d 8c 66 ee 3c ea 41 00 3e
       0.14795242 0.08956131 0.029101633 0.12525144
000190 0d f0 7b 3e 58 7f 57 3e 84 54 3a 3e 80 75 9c 3e
       0.24603291 0.21044672 0.18196303 0.30558395
0001a0 2d 73 a5 3e 9b 85 d7 3e a0 ad 52 3e 97 f1 53 3e
       0.32314435 0.4209412 0.20574045 0.20697628
0001b0 ec 2f 99 3f de d0 04 bd 02 f9 26 bf 11 9e 1f 3f
       1.196775 -0.032425754 -0.65223706 0.62350565
0001c0 df 62 c0 bd 82 1d 13 be bb df ea bd ce 09 c7 3d
       -0.09393858 -0.14366725 -0.114684545 0.09718667
0001d0 b9 e0 f1 3d 00 de 1a 3a 60 8a c5 bd a0 35 f1 bd
       0.118104406 0.00059077144 -0.096455336 -0.11777806
0001e0 db ca 32 be b8 85 c9 bc 38 cd be 3c 92 c6 cd 3d
       -0.17460196 -0.024599895 0.023291215 0.1004764
0001f0 e8 62 33 be c7 b1 33 be 49 05 23 3e db 0d 25 be
       -0.17518198 -0.17548285 0.15919985 -0.16118567
000200 80 89 82 bd 7a ad bf 3d a6 8c c1 3d 16 ea 89 bd
       -0.06373882 0.0935926 0.09450655 -0.067341015
000210 71 00 1b be 0e b1 d4 bd 02 d4 55 bd 62 ef a2 3d
       -0.15136887 -0.10385333 -0.05220414 0.07955815
000220 ce 17 be 3d 25 33 2e 3e 40 ac 31 3b 50 22 1b bd
       0.09281884 0.17011698 0.0027110726 -0.03787452
000230 40 48 1f 3d c7 1c 13 3f ee 33 6c 3f b5 9b 34 3f
       0.038887262 0.57465786 0.9226674 0.7055009
000240 4c ab 72 3e 62 34 50 bc 78 b0 35 3e 58 e1 22 bd
       0.23698157 -0.012707802 0.17743099 -0.039765686
000250 fd d1 ad be 5e b9 55 be 65 f5 9b 3e 16 15 87 3d
       -0.3394927 -0.20871493 0.3046066 0.06595819
000260 9b fc 18 bd eb bb 16 bd f0 be 4b be f4 b7 97 bd
       -0.03735028 -0.036800306 -0.19897056 -0.07408133
000270 7a e6 2d 3d 4b 6f 80 3d 94 8b 51 be 08 0d 6b be
       0.042456128 0.062712274 -0.20463401 -0.2295419
000280 c4 32 b2 bc 15 21 44 3e b1 5e 9f 3c ec 54 87 3c
       -0.021752723 0.19153245 0.019454332 0.016519986
000290 53 ba 83 3f 75 e8 86 3e 00 30 7e be 6e c6 84 3d
       1.0291237 0.26349226 -0.24822998 0.0648316
0002a0 00 9f 1f 3d 43 50 7c 3e c0 84 67 3e 55 a9 b9 3d
       0.038969994 0.24639992 0.22609234 0.09065501
0002b0 33 c5 86 bd c5 dc 74 3c 0c 17 0d bd 21 96 56 3d
       -0.065805815 0.014945214 -0.034445807 0.052389268
0002c0 1f d4 6a 3d 65 78 9d 3b f6 3c d0 3d 57 f9 64 3d
       0.0573312 0.004805612 0.101678774 0.05590185
0002d0 db 5a 99 3d 23 78 ad 3d 62 3c 05 3e 4b 6f 04 3e
       0.074880324 0.0847018 0.13011315 0.1293308
0002e0 30 9f 6c bd 28 6f 5c be 06 3e 1a bf e9 d6 11 bf
       -0.057769 -0.21526778 -0.6025089 -0.5696855
0002f0 6b b2 a5 be dd 95 3b be c5 8d ed 3d 13 4d 89 3d
       -0.32362685 -0.18318887 0.11599306 0.06704154
000300 00 bd c6 3d c7 fa f1 3c e9 8e f1 bf 2a 83 4b bf
       0.09704018 0.029538525 -1.8871738 -0.79497015
000310 3f c7 43 3d 18 40 2f 3e ad e7 90 3e c8 da 41 3d
       0.047797438 0.17114294 0.28301755 0.047327787
000320 00 39 7f bd ea 64 ae 3c 6b f6 c4 3d ff a2 7a 3c
       -0.06231022 0.021288354 0.09617313 0.01529765
000330 45 bd f5 3d 03 4a 87 bd 0e cf ab bd 6e 7e 89 be
       0.11998991 -0.066059135 -0.08389102 -0.2685427
000340 73 88 39 3d e9 7d a7 3d f1 bc 1a 3e 69 75 30 bd
       0.045296144 0.08178312 0.15111138 -0.04308072
000350 f4 d6 a3 be d5 77 84 be 14 ec 1a be 45 fb 6b bd
       -0.31999934 -0.25872675 -0.15129119 -0.057612676
000360 87 09 93 3d ed 17 0e bd e5 17 cb 3e 4e 26 34 3e
       0.071795516 -0.034690786 0.39666668 0.17592737
000370 3b 2d 2d 40 3b 3e d5 3b 17 f9 b6 3f c1 fa fd 3e
       2.7058856 0.0065076626 1.4294766 0.49605373
000380 94 a6 11 3e ca 82 0a bf 0d 31 99 be 5b f4 f8 3d
       0.14223701 -0.5410582 -0.29920235 0.12155982
000390 4c df 25 3f 2e 28 87 3e e5 13 d9 be 68 27 03 ba
       0.6479385 0.26397842 -0.4239799 -0.00050031254
0003a0 6a 6d 6a 3e f0 cd 7d 3d cf e9 1a 3e 21 35 6e 3e
       0.228933 0.061963975 0.15128253 0.23262455
0003b0 97 03 53 3e 83 02 cb 3e a9 27 68 3e d3 df 96 3e
       0.20606838 0.39650354 0.22671379 0.2946764
0003c0 de 79 03 be 44 6b f4 be 6b 24 97 be a7 c8 ee be
       -0.12839457 -0.47738087 -0.29519972 -0.4663746
0003d0 57 1e ce bd 44 73 1a bd 0e a0 b1 be 14 38 95 3d
       -0.100643806 -0.037707582 -0.34692425 0.07286087
0003e0 24 12 4d 3f bc 5b 8e 3e f9 e3 00 3f 67 66 44 3c
       0.80105805 0.27804363 0.5034786 0.011987305
0003f0 9f d7 10 3e af 62 03 3f 54 6e c3 3e 91 c8 99 3e
       0.14144753 0.51322454 0.3817011 0.30035833

fc1.bias f4 [32]
000000 0f 15 2b 3e 5c d6 36 bf 20 9e 81 bb e5 a9 9a 3f
       0.16707252 -0.71420836 -0.0039556175 1.2083098
000010 c8 7f 7a bd 47 38 aa 3f c4 0e ed be 9f 95 5e 3f
       -0.061157018 1.3298424 -0.46300328 0.86947054
000020 9f 98 15 3f 45 e2 ad 3f de 2f a9 3e 82 43 2e 3f
       0.58436006 1.3584677 0.33044332 0.6807176
000030 3e c1 48 be a1 08 be 3e 2a 3e 40 bf 5c 8d 96 3f
       -0.19604966 0.37115958 -0.75094855 1.176189
000040 3d 2d 98 3f 98 aa ad be 36 7d 75 3f cb b0 de 3d
       1.1888806 -0.33919215 0.9589418 0.10873564
000050 9b 6d f0 be 0f 13 e7 3c 85 14 dc 3e b9 2f d6 be
       -0.46958622 0.02820733 0.42984405 -0.41833284
000060 9f 1e 50 be d3 6c 81 bf 49 74 0a 3f 9e b2 d0 be
       -0.20324181 -1.0111336 0.5408369 -0.40761274
000070 dc 59 b5 3f 7d 58 96 3f ad 33 34 3f f2 36 79 3f
       1.4168048 1.1745754 0.7039135 0.97349465

fa1.weight f4 [32, 2]
000000 fc ad 46 bd 47 4c 1e be 0e ad db bd 7e 9a ac 3d
       -0.04850577 -0.15458785 -0.10726367 0.084279045
000010 85 e5 0e 3e 00 34 01 3d 57 c4 23 3f 20 2c b1 be
       0.13954742 0.03154373 0.63971466 -0.34603977
000020 de 85 23 3e 80 6b 36 3d ed 33 90 bf 6a fa d4 bd
       0.15969035 0.044536114 -1.1265846 -0.10399325
000030 3f 15 c7 3e 83 74 2f 3f 60 e2 42 bd 48 31 30 bd
       0.38883397 0.6853716 -0.04757917 -0.04301575
000040 9b bf 7b 3f 23 37 54 be 9a 5f df 3e b4 5f 7f 3e
       0.9833924 -0.20724158 0.43627626 0.24938852
000050 8e 97 6f 3f 69 9b 0a bf 42 4c 47 c0 70 80 a1 bf
       0.9359063 -0.5414339 -3.1140294 -1.2617321
000060 27 7f 08 3e c8 c8 8f bc 34 aa f0 3e aa 2f c3 be
       0.13329755 -0.017551795 0.47004855 -0.38122302
000070 d5 86 94 bd db 3e bf bd 63 79 c5 3d 2a 51 b1 3d
       -0.0725228 -0.093381606 0.09642293 0.08658059
000080 18 ec 12 be da 21 68 bd 66 e5 99 3d d8 de 95 3d
       -0.14347875 -0.05667291 0.075144574 0.07317895
000090 a8 fa c4 3c e8 18 6f bd 5c b2 2f bd 2a 79 67 bd
       0.024045303 -0.05837336 -0.042894706 -0.056512035
0000a0 88 9b 0c bf 0d 49 24 3f dc 50 eb bf f2 c2 0a be
       -0.5492482 0.64173967 -1.8384051 -0.13550928
0000b0 ff e1 ec bd 87 27 1f 3e 8c c0 2a 3f 88 65 2c 3f
       -0.11566543 0.15542422 0.66700053 0.67342424
0000c0 10 bd 38 bc de 69 bd bd 26 87 c5 bd 64 55 06 bd
       -0.011275545 -0.09248708 -0.09644918 -0.03279628
0000d0 54 31 28 3f 90 24 03 3e 56 c1 d2 3d 07 4b b1 bd
       0.6570027 0.12806916 0.10290782 -0.086568885
0000e0 4c 53 1c be 28 97 26 bd 9b a9 91 3f f5 9e d7 be
       -0.1526615 -0.040671498 1.1379884 -0.42113462
0000f0 46 29 c3 3e fb 26 5f 3e ca 0c f0 3d 20 ec 32 3d
       0.38117427 0.21792214 0.11721189 0.043682218

fa1.bias f4 [32]
000000 0f cf 2c bf a0 33 7f be 0c 07 17 bf 42 85 e2 3f
       -0.67503446 -0.24922037 -0.5899513 1.7696917
000010 d7 3e 1a bf 1b 82 9b 3f 55 f9 08 40 a5 80 34 bf
       -0.60252136 1.214908 2.140218 -0.70508796
000020 c9 d1 b6 3f f8 db 01 40 62 aa ea 3f ea ba 65 bd
       1.4282771 2.0290508 1.8333247 -0.05608646
000030 df a1 10 bf dd 05 d4 3f 11 0c 24 bf 93 66 4e be
       -0.56496996 1.6564289 -0.6408091 -0.20156316
000040 35 fa 19 bf ec 18 30 be a0 3f 07 bf dc 4d 0c be
       -0.6014741 -0.17197007 -0.5283146 -0.13701576
000050 6b c9 0c 40 90 67 83 3f f3 7f 12 bf 27 4c bc 3f
       2.1997936 1.026598 -0.57226485 1.471074
000060 a6 49 ce be 1a 9d a6 be 33 69 fd 3f b5 5a c2 be
       -0.40290564 -0.32541734 1.9797729 -0.3795983
000070 2e 54 2d bf bd ca fe 3f 09 76 9a 3e 42 c0 61 be
       -0.67706573 1.9905621 0.3016818 -0.22045997

fca1.weight f4 [64, 64]
000000 91 06 be 3d 45 db d3 be d6 62 5b 3d 7c ce 04 bd
       0.09278596 -0.41378227 0.053561054 -0.03242348
000010 c0 c8 2e 3d 74 59 1f 3e 67 ce c9 bd 76 72 99 3d
       0.04267192 0.15561467 -0.09853821 0.07492535
000020 df 33 15 3e 5c 60 c9 3d 09 e7 75 3d b6 9b 38 40
       0.14570569 0.09832832 0.060034785 2.8845038
000030 42 bf ba 3d 51 37 dd 3e 9c a2 3a 3d 8a a7 48 3d
       0.09118511 0.43206266 0.045565233 0.048987903
000040 a3 5c 13 3d 8b 96 4a 40 51 19 79 3e a6 2c 2d 3f
       0.035977017 3.1654384 0.24326064 0.67646253
000050 25 9f b4 be 6f 4c 37 3e c9 30 9c bb 16 c6 e7 3b
       -0.35277668 0.17900251 -0.004766558 0.007073174
000060 39 f6 b7 bf 37 4d f6 3e 85 a9 b6 bd f1 21 a5 bd
       -1.4372016 0.48105785 -0.08919052 -0.080631144
000070 39 9e 0b 3e 0c 53 85 3d 40 53 84 3d ad 21 da 3b
       0.13634576 0.065099806 0.06461191 0.0066568465
000080 c4 82 75 bd 5e 3a f4 bd 78 86 8b 3d e0 9c c2 bd
       -0.05993916 -0.11925195 0.06812757 -0.09502578
000090 b4 db 02 3d 93 ed 81 be c5 05 88 bd 9c 6e 2b bd
       0.031947806 -0.25376567 -0.066417255 -0.041853532
0000a0 85 83 8e be c6 ba 4d be c7 0f 7f be 48 d5 b1 3e
       -0.27834716 -0.2009078 -0.24908362 0.34733033
0000b0 de dd 8c 3d 84 f2 73 be 38 0a 36 bd 06 ff bf 3a
       0.06878255 -0.23822981 -0.04444334 0.0014648146
0000c0 b4 3e b5 3d 22 ff b0 3d b5 86 64 3d 9e be bd bd
       0.0884985 0.08642413 0.05579253 -0.09264873
0000d0 ee f3 19 be d3 4e 51 bf 6e 2e f3 bd 89 aa c9 bd
       -0.15034458 -0.817609 -0.1187409 -0.0984698
0000e0 c0 fa 63 bb 70 df 6b bc 96 72 27 be 2a 95 8d 3d
       -0.003478691 -0.014396533 -0.16352305 0.069132164
0000f0 5c 34 36 bd 2e 97 39 be e9 72 d6 be ce c5 b5 bd
       -0.044483528 -0.18124077 -0.41884544 -0.08875619
000100 5e 3c 2c bd 99 81 fb bc 68 ec 38 3d 3e 3e c9 bd
       -0.042049758 -0.030701445 0.04514733 -0.09826325
000110 24 1f 3a 3d 9b 57 3b 3d 4a b2 c9 3d 02 12 c4 3d
       0.045439854 0.045737844 0.09848459 0.09573747
000120 80 28 92 bc e7 99 4a 3d 45 46 ab 3d 6e 0f e5 bc
       -0.017841578 0.04946318 0.08363012 -0.027961459
000130 cd 66 f7 3d fb 5f fe bd 41 80 93 bd c5 25 ed bc
       0.120801546 -0.124206506 -0.07202197 -0.028948674
000140 3d a9 05 bc 1a 1f ba ba 39 2a e9 3d 7f 30 e6 bc
       -0.008158025 -0.0014199943 0.113850065 -0.028099297
000150 af c1 d3 3d d0 15 0d bc 94 62 42 3d 34 f8 46 bd
       0.103396766 -0.008611158 0.047457293 -0.04857655
000160 6a 9d 94 bd 8f e3 87 bd 03 b2 fe bd c2 fd 3a bd
       -0.07256587 -0.066352 -0.12436297 -0.04565216
000170 12 4a ba bd fc 75 6c 3d c4 8c ff bd 0f a5 87 bd
       -0.09096159 0.057729706 -0.12478021 -0.06623279
000180 96 21 6f 3d 3e 1c b9 3d 3a 5e de 3d b8 bd b7 bd
       0.05838164 0.0903859 0.10857816 -0.08971733
000190 9c 24 2b bd eb f1 82 3d 5d fd 04 bd d8 f1 ed 3d
       -0.04178296 0.063937984 -0.03246819 0.11618394
0001a0 62 4b 94 3d 44 cb 7f bd 98 58 c2 bd 54 23 8d bd
       0.07240941 -0.06244971 -0.09489554 -0.06891504
0001b0 7c c2 12 bd e8 c0 ae 3d 48 d9 85 3c 28 13 4f bd
       -0.035830006 0.08532888 0.01633896 -0.05055538
0001c0 0d 09 f7 bd 66 67 a6 3d da 72 8d bd 8f d8 10 3d
       -0.12062273 0.081251904 -0.06906672 0.035362776
0001d0 99 8c 72 bd 34 36 a0 3d a0 84 83 3b 4b de d8 3a
       -0.059216116 0.078228384 0.004013613 0.0016545741
0001e0 3c 53 2d 3d 76 b7 97 3d c7 bd d3 bd 55 f0 aa 3d
       0.042315707 0.07408039 -0.103389315 0.08346621
0001f0 d6 1e 97 bd ba 8f cd 3c 50 74 2e 3c 4a b7 8b 3d
       -0.07378928 0.025092948 0.010647848 0.06822069
000200 ce fe a9 3d d8 e0 21 be 64 0a ad 3d 04 2a 12 3e
       0.08300553 -0.15808427 0.084492475 0.1427384
000210 08 c8 fa bc e4 dd 26 3e b3 27 8c be 44 76 8c 3c
       -0.03061296 0.16295582 -0.27374038 0.017146237
000220 b1 8e 3d 3e ec 92 c8 3d c1 19 1a bc 0d 62 3f 40
       0.18511464 0.09793648 -0.009405554 2.9903595
000230 83 93 95 3d 4b 1f e1 3e e4 de 2a be 84 e1 9a 3d
       0.07303526 0.43969187 -0.16686589 0.07562545
000240 6e 74 25 3e 2c b5 4f 40 09 8d 18 bc 5d 43 ea 3e
       0.16157696 3.2454329 -0.009310969 0.4575452
000250 16 7d 04 3f 7f 68 c0 bc c9 ca f0 bd ba e3 ef 3c
       0.51753366 -0.023487328 -0.11757428 0.029283393
000260 1a 19 a4 bf 92 93 a7 3d 10 8c 75 bd 79 dd 5f bd
       -1.282016 0.08182444 -0.059948027 -0.054654572
000270 f5 a3 b7 3d 0e d3 c7 3d bb 40 39 bd a3 53 91 bd
       0.08966819 0.09757052 -0.045227747 -0.070960306
000280 f4 3d 42 3d 8b 2a bc bd 90 33 a9 bd 90 9d 47 be
       0.047422364 -0.09187802 -0.08261788 -0.19493699
000290 c0 4d 11 bc 1e 48 af be 75 14 7d bd 6e 4a eb 3d
       -0.008868635 -0.3423471 -0.061787087 0.11488806
0002a0 30 59 76 be 3e 3b 5c be 8e fe 31 be ad c8 3f 3e
       -0.2405746 -0.21506974 -0.17382261 0.18728895
0002b0 68 3d 56 3d c1 2c 08 be 10 9b a1 bc d2 51 9e 3d
       0.052304655 -0.13298322 -0.01972726 0.0773045
0002c0 90 96 cb 3d 50 a7 05 bd e0 63 3f 3d f0 91 68 bc
       0.09940827 -0.032630265 0.046726108 -0.01419495
0002d0 35 88 d2 bd 83 6b 5b bf 50 33 31 3c f7 32 17 3d
       -0.10279886 -0.85710925 0.0108154565 0.03691384
0002e0 70 df 25 3c 30 aa 08 3d d2 bf 85 be c0 23 a1 3d
       0.010124072 0.03336543 -0.2612291 0.07868147
0002f0 e2 a7 d6 3d ea fa 25 be 2c 6d d7 be 07 53 87 bd
       0.1048124 -0.16208997 -0.4207548 -0.06607633
000300 6a 11 1d 3e d9 d9 65 3e 6e db 99 bd bc c0 3a 3d
       0.15338674 0.22446384 -0.07512556 0.045593962
000310 16 d1 d9 3d 7e 1f 0e 3e 75 0e 95 c0 0a ae 9a 3e
       0.10635583 0.13879201 -4.658015 0.30210906
000320 10 55 b8 3d 34 76 55 bd c8 7a b8 3e ac eb 82 40
       0.090005994 -0.05211468 0.36031175 4.0912685
000330 6f 91 5d bc 0f 54 48 3f 22 b2 ce be 2a 6c 5f 3d
       -0.013523444 0.78253263 -0.4037028 0.054546513
000340 40 1e 69 3e 14 71 a7 40 ec f9 b4 bc 0c 7c 1d c0
       0.22765446 5.2325535 -0.022091828 -2.4606962
000350 37 b9 26 bc ae ab e5 bc e5 c7 00 3f 12 f6 9b be
       -0.010175995 -0.028035965 0.50305015 -0.30461174
000360 d1 3a 47 bf 8a aa df 3e 96 4e d0 bd 04 f3 ab be
       -0.7782412 0.43684798 -0.10171239 -0.33583844
000370 95 75 92 3d 54 33 85 3d 51 3d dc 3d ab a1 68 bc
       0.07151333 0.06503931 0.10753883 -0.014198701
000380 30 08 b3 3c e0 45 5d bd bc 56 ec bd 1d 7e 54 bd
       0.02185449 -0.054021716 -0.11539981 -0.051878083
000390 4a c2 9b bd 88 c0 2b bf e0 e0 26 3e 82 25 e8 bd
       -0.07605417 -0.67090654 0.1629672 -0.11335279
0003a0 23 98 5c be bd d1 61 bd 21 26 49 be da 44 be bf
       -0.2154241 -0.055131663 -0.19643451 -1.4864762
0003b0 a0 37 7d 3c 4d 85 85 be 30 6d c8 bd c4 74 bc 3d
       0.015455157 -0.26078263 -0.09786451 0.09201959
0003c0 30 a4 19 bc 28 80 b1 3c f8 97 b1 bc d6 ea 52 bd
       -0.009377524 0.021667555 -0.02167891 -0.05149349
0003d0 f3 e9 d4 3d 4d 7b 89 bf 80 13 40 3b ac 22 9a 3e
       0.10396185 -1.0740753 0.0029308498 0.30104578
0003e0 3c 4b 8c bd 04 c8 6c bd ce e6 9b bc a4 22 1f 3d
       -0.06850287 -0.057807937 -0.019030955 0.038851395
0003f0 14 38 32 bd c0 84 ab be 9d 1c 98 be 00 60 a3 bb
       -0.04351051 -0.33499718 -0.2970933 -0.0049858093

fca1.bias f4 [64]
000000 a9 d6 15 be 01 79 d6 bd e1 52 af be df 4a 34 be
       -0.14632668 -0.104722984 -0.3424292 -0.17606686
000010 d4 8e 24 be 2f 0a 56 3f 34 df 27 3f a6 74 70 3f
       -0.1607011 0.8360929 0.65574956 0.9392799
000020 a4 8d 4d 3f 4f 11 db 3e a7 02 cb bd ba 3e 9c be
       0.8029425 0.42786643 -0.09912615 -0.30516607
000030 17 dd ef 3c 1e ab a2 bd 72 17 58 3d 18 3c 2e bd
       0.029280229 -0.07942794 0.052756734 -0.04253778
000040 fa 29 a3 3d ce 3c 9c 3d a8 15 65 be 68 33 14 3f
       0.07966991 0.07628785 -0.22371542 0.5789094
000050 60 f8 a7 3d e7 c7 d1 bd 5c 8a 3c be f3 6d 18 be
       0.08201671 -0.102432065 -0.18412155 -0.14885692
000060 2b a6 78 be a0 a7 88 3b 48 27 a7 be f5 18 75 be
       -0.24282138 0.004170373 -0.32647157 -0.23935302
000070 38 55 96 bc e5 e3 a1 bc 30 de 8a bd 54 44 80 3d
       -0.018351182 -0.019761989 -0.0678066 0.062630326
000080 6a 31 2f be a1 08 aa be 3c 4c 99 3f d7 b8 a3 bd
       -0.17108694 -0.33209708 1.197639 -0.0799424
000090 cd 59 2b bd c7 56 36 be 26 f7 aa bd 28 4e 93 be
       -0.041833688 -0.1780654 -0.08347921 -0.28770566
0000a0 35 8d 13 be 50 d3 8d be df 71 65 be 03 4f 16 be
       -0.14409335 -0.2770028 -0.2240672 -0.14678578
0000b0 37 f5 46 be e0 44 6f be 73 bf c5 3e 15 fc f2 bd
       -0.1942948 -0.23366117 0.38622627 -0.11864487
0000c0 1c b7 1c be af 93 7d be 76 1c bf 3c 14 f8 b2 bd
       -0.15304226 -0.24763368 0.023329 -0.087387234
0000d0 72 33 90 be 0f 41 51 be 2c 0f e8 bd b3 1a 86 be
       -0.2816425 -0.20434974 -0.11331019 -0.26192245
0000e0 bc 3e 3a 3d a1 74 93 be 21 17 a3 be dd 84 c3 3e
       0.045469984 -0.28799918 -0.31853583 0.38187304
0000f0 c5 d8 04 be 5c b5 8b be 4c 7b e8 bd 9c d4 94 be
       -0.12973316 -0.27286804 -0.11351642 -0.29068458

fca2.weight f4 [1, 64]
000000 30 f8 d9 be e4 93 04 3c e6 c1 90 be bc d0 0a c0
       -0.42572165 0.0080919005 -0.28272933 -2.1689901
000010 78 9b 6e c0 0a 67 1d 40 7d 89 2a 40 6f c0 11 40
       -3.728239 2.459414 2.6646416 2.2773702
000020 64 f4 8f 3f db cf 08 c1 c9 5b b8 be bb 37 d3 be
       1.1246457 -8.550746 -0.36007527 -0.41253456
000030 fc d6 ff bb b7 fb 90 3b 55 29 f3 bf a6 68 86 3c
       -0.0078076106 0.004424538 -1.8996989 0.016407322
000040 b2 37 44 b9 ec aa 2d bb ba 1b ab bf 8e a7 23 40
       -0.00018712765 -0.0026499582 -1.3367836 2.5571017
000050 f0 8e d9 39 ca fb 29 bf 85 47 9d be b3 b0 a9 bf
       0.00041495962 -0.66399825 -0.30718628 -1.3257049
000060 4f 61 91 be 94 9b e8 ba 8b e3 04 bf 45 62 48 bf
       -0.28394553 -0.0017746561 -0.51909703 -0.7827495
000070 2a 5b 84 ba a9 79 c3 ba e0 99 06 bf b4 17 86 bf
       -0.001009797 -0.0014913577 -0.52578545 -1.0475984
000080 4e c5 fb be c5 b9 a1 be 0e 95 0e 40 80 a3 76 bf
       -0.4917397 -0.31587043 2.2278476 -0.9634323
000090 39 46 d6 3c dc 7d bc bf 0b 7a aa be b6 cd b0 bf
       0.026156532 -1.4725909 -0.33296236 -1.3812778
0000a0 c5 88 43 c0 cb 28 b9 be 18 71 e2 be 1d 32 1a 3d
       -3.0552227 -0.36163935 -0.4422691 0.037645448
0000b0 7c b3 ea be 78 6d 9a be ec c3 da c0 11 49 01 bf
       -0.4584006 -0.30161643 -6.8364162 -0.50502115
0000c0 5b 76 99 be d6 f2 a2 be fc f6 96 bc 3c 32 e5 be
       -0.2997311 -0.31825894 -0.018428318 -0.44764888
0000d0 71 51 a3 be 3c 90 e3 be b9 36 ec be ea 6c c1 be
       -0.31898072 -0.4444598 -0.461355 -0.37778407
0000e0 5e 40 22 3b 80 45 d4 be 7b 78 19 bf 2f 3d 1a c1
       0.0024757604 -0.41459274 -0.59949464 -9.639937
0000f0 e4 d3 21 bf 9f 57 d3 be b8 91 00 bf 08 7b ce be
       -0.63213944 -0.41277787 -0.5022235 -0.4032824
