src/Models/trained/2450_critic.pt (torch_old, 22186 bytes, 7 tensors)

fc1.weight f4 [32, 28]
000000 ab fc 29 bf 3d 0d 43 bf 89 80 1e bf 69 45 03 be
       -0.66401166 -0.76192075 -0.6191488 -0.12819447
000010 de a1 7c 3d 7d ea 82 3e 3f e3 ce 3e 99 43 cf 3e
       0.061677806 0.25569525 0.4040775 0.4048126
000020 50 2c d1 3e 4c 47 2b 3f f1 cb 10 3f 73 8d b6 3e
       0.4085412 0.66905665 0.5656119 0.35654792
000030 24 c1 52 3d 7e ed ac be c5 f8 e1 be d8 34 2a bf
       0.051453725 -0.33774942 -0.4413511 -0.66486883
000040 e8 e4 84 be a6 61 ef 3e 46 a0 8f 3e 5b c0 61 3f
       -0.25955892 0.46754187 0.28051966 0.88184136
000050 a0 33 16 bd 61 f4 a7 3e d4 3f 81 bf 4d 90 2d bf
       -0.036670327 0.32803634 -1.0097604 -0.6779831
000060 63 7c 4f 3f 72 93 7b bd bb b9 34 c0 3d 24 bb bf
       0.81049174 -0.06141991 -2.823836 -1.4620434
000070 a8 bb a8 be 0a e0 e4 bd ca 79 da ba c2 18 7c 3e
       -0.3295567 -0.111755446 -0.0016668376 0.2461882
000080 cb 21 22 3e d1 a0 67 3d c6 90 91 bd 82 09 8b bd
       0.15833203 0.05654985 -0.071076915 -0.06788923
000090 63 4f 08 be 5b b3 d7 bc 53 f6 2d 3e f5 0e e1 3d
       -0.13311534 -0.02633064 0.16988496 0.10989181
0000a0 d7 75 01 bd 1b 73 02 be af 5f e2 bd 34 18 7f bd
       -0.03160652 -0.12739222 -0.110534064 -0.06227894
0000b0 e8 f1 89 be 3f 02 ad bd b9 94 ac 3d fe 9a 82 3e
       -0.26942372 -0.08447694 0.08426804 0.25508875
0000c0 4e 79 0a 3f cc cc ec 3e b5 23 f8 bd 5b 0a b2 be
       0.54091346 0.46249998 -0.121161856 -0.34773526
0000d0 22 7d 21 c0 8f fa e7 bd 1f f8 61 40 76 b8 4d 3f
       -2.5232625 -0.11327087 3.530769 0.8035959
0000e0 46 08 d2 bd 12 e3 27 be 33 49 eb bc 36 ce 86 3d
       -0.10255484 -0.16395214 -0.028721428 0.065823
0000f0 21 10 27 be 8e 79 52 be 3b 9f 95 3b 03 71 02 be
       -0.16314746 -0.20554182 0.004566101 -0.12738423
000100 e3 11 0c be 84 a5 d9 ba 48 eb dd bc a6 be a2 bc
       -0.13678698 -0.0016605114 -0.02708973 -0.019866299
000110 75 c1 2a be 93 2e f4 bd bb 7c 02 3e 65 b6 17 be
       -0.1667536 -0.11922946 0.12742893 -0.14815672
000120 b1 27 df 3a 63 34 1f be ad c0 85 bc 2a f0 1d be
       0.0017025379 -0.15547328 -0.016327227 -0.15423647
000130 1c 29 aa 3d fd 7a 64 bd c1 da 00 be b9 52 fb 3d
       0.08308622 -0.055781353 -0.12583448 0.122716375
000140 59 15 01 3e 2a fb 94 3d 9b ab 82 3c 1a f0 01 bd
       0.126058 0.07274468 0.015950968 -0.03172312
000150 bb e2 cf be 76 06 e6 be 96 87 a5 3e 95 5f 86 3e
       -0.4060267 -0.44926804 0.32330006 0.26244798
000160 92 3b 1d 3f 20 30 ac 3e af 56 14 3f d2 dd fb 3e
       0.6141902 0.33630466 0.5794477 0.49192673
000170 f9 1e 71 be 07 df 3d be 48 f7 51 3d b0 dd 54 be
       -0.23546971 -0.1854211 0.051261216 -0.20787692
000180 67 1c 09 bf b6 34 08 3d a0 81 e0 be 56 d9 9a be
       -0.53558964 0.033253394 -0.43848896 -0.3024394
000190 9c e5 57 be 32 f7 b0 be 12 6e 14 3f 69 1e 8b 3f
       -0.21083683 -0.34563595 0.57980454 1.0868655
0001a0 f0 c0 8a 3f e6 b2 17 3f 02 1b 0e bf e1 05 19 be
       1.084013 0.5925735 -0.5550996 -0.14943649
0001b0 e8 bc e7 bf 12 6a 18 bc d1 cb 87 bf 0e c4 16 3f
       -1.8104525 -0.009302633 -1.0609075 0.58892906
0001c0 df 62 c0 bd 82 1d 13 be bb df ea bd ce 09 c7 3d
       -0.09393858 -0.14366725 -0.114684545 0.09718667
0001d0 b9 e0 f1 3d 00 de 1a 3a 60 8a c5 bd a0 35 f1 bd
       0.118104406 0.00059077144 -0.096455336 -0.11777806
0001e0 db ca 32 be b8 85 c9 bc 38 cd be 3c 92 c6 cd 3d
       -0.17460196 -0.024599895 0.023291215 0.1004764
0001f0 e8 62 33 be c7 b1 33 be 49 05 23 3e db 0d 25 be
       -0.17518198 -0.17548285 0.15919985 -0.16118567
000200 80 89 82 bd 7a ad bf 3d a6 8c c1 3d 16 ea 89 bd
       -0.06373882 0.0935926 0.09450655 -0.067341015
000210 71 00 1b be 0e b1 d4 bd 02 d4 55 bd 62 ef a2 3d
       -0.15136887 -0.10385333 -0.05220414 0.07955815
000220 ce 17 be 3d 25 33 2e 3e 40 ac 31 3b 50 22 1b bd
       0.09281884 0.17011698 0.0027110726 -0.03787452
000230 df 02 a9 be cf fc 9a 3f e2 f4 08 40 11 dc 30 3f
       -0.33010003 1.2108401 2.1399465 0.69085795
000240 1f 3b 1f bf 87 00 00 3e ba 34 49 bf de a1 4d be
       -0.62199587 0.12500201 -0.7859608 -0.20081279
000250 2e 48 af be b1 66 30 3e 9b 1a a7 3e 01 79 28 bd
       -0.34234756 0.17226674 0.32637486 -0.041131023
000260 5c 17 cc 3d c5 dd 29 3d 8b 65 42 3e f7 3f 8c 3d
       0.09965393 0.04147126 0.18984048 0.06848138
000270 4d 9c 12 be 89 0e 97 bd 3c 05 57 bf 45 09 26 bf
       -0.14317437 -0.07375819 -0.8399236 -0.64857894
000280 5d 6e d7 be 51 9a 99 3f 89 95 0c 3f d2 90 a3 be
       -0.42076388 1.2000219 0.5491567 -0.31946427
000290 87 27 d3 bf bd 39 c9 bd 05 42 ce 3e cf 71 1d 3e
       -1.6496438 -0.09825466 0.40284744 0.15375446
0002a0 20 49 b9 3d 8b 23 0c 3e 90 4a d4 3d 4f c5 79 3d
       0.090471506 0.13685434 0.10365784 0.060979184
0002b0 44 6f 91 3e 28 c7 f2 3d 20 17 da 3c 2c 56 64 3e
       0.284052 0.11854392 0.026622355 0.22298497
0002c0 00 a2 84 3e 39 e9 18 3e eb 4d 08 3e 1a 53 30 3e
       0.25904846 0.14932717 0.13310973 0.172192
0002d0 d7 75 38 3e 3e c6 cc 3d 37 bb 37 3e 6b 6c 3c bd
       0.18013702 0.09998749 0.1794251 -0.046001833
0002e0 af 8e a1 3d 4d f4 97 bd 40 6e e9 bf 23 e2 49 bf
       0.07888543 -0.074196436 -1.8236771 -0.7886068
0002f0 28 da 84 3c fe 5c 0c bf d0 fa 2c 3d c4 75 8d 3d
       0.016217306 -0.54829395 0.04223138 0.06907228
000300 ff 03 e4 3c 07 85 e2 bb fd 27 21 c0 77 a6 11 c0
       0.027833937 -0.0069128308 -2.5180657 -2.2757852
000310 c0 80 a3 3e fa 0c 5c 3e 70 cc dd 3a f3 22 75 3e
       0.31934166 0.21489325 0.0016921889 0.23939113
000320 23 a7 4e 3e c2 f0 18 3e 0d 77 cb 3d fd 50 88 be
       0.20180945 0.14935592 0.099348165 -0.2662429
000330 21 f9 18 be dc 67 01 bf 3f d2 ad be 24 82 83 be
       -0.14938785 -0.505491 -0.33949468 -0.25685227
000340 24 c2 fe 3d 19 55 b0 3e 50 df b9 3e 83 c3 94 bc
       0.12439373 0.34439924 0.36303186 -0.018159634
000350 cc cb 9f bd 41 c7 a6 be 19 16 8b ba b6 e3 9a bd
       -0.07802543 -0.32573894 -0.0010611444 -0.07562964
000360 d2 58 39 3f 31 26 6c 3e 88 ee 48 3f 38 93 ee 3e
       0.72401154 0.23061444 0.7848897 0.46596694
000370 bf 74 69 40 9e 44 ef 3c 5a f6 74 40 28 60 7c 3f
       3.6477506 0.029207524 3.827536 0.9858422
000380 46 b5 06 be 01 ee 8f bf 31 7c 8a bf af 29 6c bf
       -0.13155088 -1.1244508 -1.081915 -0.92251104
000390 ef c2 25 bf 50 cc 66 be 2d dc 3d 3e 57 d1 7e 3e
       -0.6475057 -0.22538877 0.18541022 0.24884544
0003a0 b4 24 e2 3e 59 fc 16 3f c8 4b 38 3f db d5 7e 3f
       0.44168627 0.589788 0.71990633 0.9954507
0003b0 fc fe 63 3f 82 24 2d 3f c1 c7 db 3e 48 53 de 3e
       0.8906095 0.6763383 0.42925838 0.43422914
0003c0 1f e8 17 3e f2 c5 c6 bd d0 ff 95 be 61 6a 1d bf
       0.14834641 -0.09705724 -0.29296732 -0.61490446
0003d0 e0 82 2b bf 85 29 27 bf c1 c3 b8 be 66 0d 63 be
       -0.66996574 -0.6529773 -0.36086848 -0.2217308
0003e0 e3 5d c9 3e 19 8d 18 3e 83 a9 04 40 e0 ce 05 3f
       0.39329442 0.14897574 2.0728462 0.5226879
0003f0 eb c3 9f be c1 72 86 3e a5 92 96 3d da 82 38 3d
       -0.3120416 0.26259425 0.07352189 0.045046665

fc1.bias f4 [32]
000000 8a bf 45 be 78 35 f1 3d 50 30 12 bd 1c 11 bc 3f
       -0.19311348 0.117777765 -0.035690606 1.4692721
000010 c8 7f 7a bd 08 36 c8 3f 63 fa 9b bf 41 ad 51 3f
       -0.061157018 1.5641489 -1.2185787 0.8190499
000020 28 14 2d 3f f2 43 b7 3f be f7 95 be 91 01 87 3f
       0.6760888 1.431761 -0.29290575 1.0547353
000030 3e c1 48 be ad 0a 60 3e 3a 7e a3 bf c2 59 08 3f
       -0.19604966 0.21879072 -1.2772896 0.5326196
000040 56 54 d8 3f a8 e9 09 3f 3d 39 7c 3f 10 97 28 3e
       1.6900737 0.53872156 0.9852484 0.16463876
000050 2e cb d2 3e 0f 13 e7 3c 83 ca 95 3d 60 b3 71 bf
       0.4117064 0.02820733 0.07314017 -0.9441433
000060 d1 b2 c1 bf 86 a2 90 be ff 2e 62 3e 92 dd 7a bf
       -1.5132695 -0.28248996 0.2208824 -0.9799434
000070 d8 5b bb 3f 91 ba 8b 3f e5 04 eb 3e b7 47 9e 3f
       1.4637403 1.091631 0.45902172 1.2365636

fa1.weight f4 [32, 2]
000000 fc ad 46 bd 47 4c 1e be 0e ad db bd 7e 9a ac 3d
       -0.04850577 -0.15458785 -0.10726367 0.084279045
000010 85 e5 0e 3e 00 34 01 3d 59 e2 3b 3f 6b 2e b3 be
       0.13954742 0.03154373 0.73392254 -0.34996352
000020 de 85 23 3e 80 6b 36 3d d0 2a a9 bf ef 16 cb bd
       0.15969035 0.044536114 -1.321619 -0.099164836
000030 69 e9 ed 3e 06 52 3e 3f 60 e2 42 bd 48 31 30 bd
       0.4646714 0.7434391 -0.04757917 -0.04301575
000040 96 71 91 3f 0e a7 15 be 26 69 f9 3e c5 e7 86 3e
       1.1362789 -0.14614508 0.48713034 0.263487
000050 73 8c 89 3f 89 4c 0b bf 32 b4 44 c0 c8 49 a8 bf
       1.0745987 -0.5441366 -3.0734982 -1.3147516
000060 27 7f 08 3e c8 c8 8f bc c2 28 10 3f 45 d9 d4 be
       0.13329755 -0.017551795 0.5631219 -0.41572013
000070 d5 86 94 bd db 3e bf bd 63 79 c5 3d 2a 51 b1 3d
       -0.0725228 -0.093381606 0.09642293 0.08658059
000080 18 ec 12 be da 21 68 bd 66 e5 99 3d d8 de 95 3d
       -0.14347875 -0.05667291 0.075144574 0.07317895
000090 a8 fa c4 3c e8 18 6f bd 5c b2 2f bd 2a 79 67 bd
       0.024045303 -0.05837336 -0.042894706 -0.056512035
0000a0 04 eb 1a bf b8 41 33 3f 78 91 0c c0 38 4b 72 be
       -0.60514855 0.70022154 -2.1963787 -0.23661506
0000b0 ff e1 ec bd 87 27 1f 3e 25 26 4e 3f f0 41 43 3f
       -0.11566543 0.15542422 0.80526954 0.7627249
0000c0 10 bd 38 bc de 69 bd bd 26 87 c5 bd 64 55 06 bd
       -0.011275545 -0.09248708 -0.09644918 -0.03279628
0000d0 bd 95 46 3f dc 54 0a 3e 56 c1 d2 3d 07 4b b1 bd
       0.7757223 0.13508934 0.10290782 -0.086568885
0000e0 4c 53 1c be 28 97 26 bd 00 64 9f 3f 2f 21 b9 be
       -0.1526615 -0.040671498 1.2452393 -0.3615813
0000f0 61 f1 56 3f e0 39 53 3f ca 0c f0 3d 20 ec 32 3d
       0.83962065 0.82510185 0.11721189 0.043682218

fa1.bias f4 [32]
000000 0f cf 2c bf a0 33 7f be 0c 07 17 bf 7b 1c 05 40
       -0.67503446 -0.24922037 -0.5899513 2.0798633
000010 d7 3e 1a bf 28 38 bf 3f 32 ac 1c 40 a5 80 34 bf
       -0.60252136 1.4939013 2.44801 -0.70508796
000020 a4 b0 e0 3f 01 ce 15 40 93 09 0a 40 4c f2 9f 3f
       1.7553906 2.3406985 2.1568344 1.2495818
000030 df a1 10 bf 28 e3 fb 3f 11 0c 24 bf 93 66 4e be
       -0.56496996 1.9678698 -0.6408091 -0.20156316
000040 35 fa 19 bf ec 18 30 be a0 3f 07 bf dc 4d 0c be
       -0.6014741 -0.17197007 -0.5283146 -0.13701576
000050 52 c0 1f 40 f1 a6 95 3f f3 7f 12 bf 5d 55 e5 3f
       2.4961133 1.1691571 -0.57226485 1.7916676
000060 a6 49 ce be 1a 9d a6 be 79 9c 12 40 b5 5a c2 be
       -0.40290564 -0.32541734 2.2908003 -0.3795983
000070 2e 54 2d bf e1 00 14 40 56 b0 3b 3f 42 c0 61 be
       -0.67706573 2.3125536 0.7331594 -0.22045997

fca1.weight f4 [64, 64]
000000 2f 43 ad 3e d5 d1 fa be 22 98 1e 3d 3a e3 27 3e
       0.3384032 -0.48988214 0.038719304 0.16395274
000010 c0 c8 2e 3d b3 e7 da 3e 42 6c 84 bf 70 24 67 3e
       0.04267192 0.42754897 -1.0345538 0.22572494
000020 5f 17 6d bd 12 b8 a2 3e 00 7f 47 be 82 23 a9 3f
       -0.057883617 0.3178106 -0.1948204 1.3213961
000030 42 bf ba 3d eb 39 45 3e d2 0e 06 bf 8f f4 6a 3e
       0.09118511 0.19260375 -0.52366364 0.22944854
000040 3d 5d 9e be 81 99 5b c0 1c 93 bb 3e 1f 20 5b bf
       -0.3093051 -3.4312441 0.36635673 -0.8559589
000050 c7 a8 70 c0 6f 4c 37 3e 9f ef 4d be 08 be e5 be
       -3.7603014 0.17900251 -0.2011094 -0.44871545
000060 89 1f c6 be ba 54 80 40 9e c8 cc 3e 95 c1 37 bf
       -0.38695934 4.0103426 0.3999681 -0.7177976
000070 c9 49 5e 3e 3a 5f 97 3d d8 44 72 3e 3a 3b a6 3e
       0.21707834 0.0739121 0.23659074 0.3246706
000080 c4 82 75 bd 5e 3a f4 bd 78 86 8b 3d 37 eb bd bd
       -0.05993916 -0.11925195 0.06812757 -0.09273379
000090 b4 db 02 3d b3 f4 64 be 54 f3 3f be 9c 6e 2b bd
       0.031947806 -0.2235897 -0.18745166 -0.041853532
0000a0 cd 19 95 be 52 8b 8b be 5d 66 6a be c9 28 71 3f
       -0.29121247 -0.2725473 -0.22890611 0.9420286
0000b0 de dd 8c 3d eb a2 61 be 38 0a 36 bd 06 ff bf 3a
       0.06878255 -0.22034805 -0.04444334 0.0014648146
0000c0 b4 3e b5 3d 22 ff b0 3d b5 86 64 3d 9e be bd bd
       0.0884985 0.08642413 0.05579253 -0.09264873
0000d0 4f 9a 88 be b3 d1 2b bf 6e 2e f3 bd 6c 84 6f be
       -0.26680228 -0.6711685 -0.1187409 -0.23390359
0000e0 c0 fa 63 bb 70 df 6b bc b6 6e 63 be 2a 95 8d 3d
       -0.003478691 -0.014396533 -0.22210202 0.069132164
0000f0 5c 34 36 bd 2e 47 3f be f3 f8 72 bd ce c5 b5 bd
       -0.044483528 -0.18679497 -0.059319448 -0.08875619
000100 5e 3c 2c bd 99 81 fb bc 68 ec 38 3d b5 18 05 be
       -0.042049758 -0.030701445 0.04514733 -0.12997706
000110 24 1f 3a 3d df 20 66 3c 4a b2 c9 3d a3 7a 83 3d
       0.045439854 0.014045923 0.09848459 0.064198755
000120 80 28 92 bc bf 4d 91 3c 80 c3 54 3d 6e 0f e5 bc
       -0.017841578 0.017737268 0.051944256 -0.027961459
000130 cd 66 f7 3d fb 5f fe bd 41 80 93 bd c5 25 ed bc
       0.120801546 -0.124206506 -0.07202197 -0.028948674
000140 25 03 22 bd 1a 1f ba ba 1a 35 a8 3d 7f 30 e6 bc
       -0.03955378 -0.0014199943 0.08213253 -0.028099297
000150 af c1 d3 3d d0 15 0d bc 7a 63 81 3c 34 f8 46 bd
       0.103396766 -0.008611158 0.015794504 -0.04857655
000160 6a 9d 94 bd 8f e3 87 bd 0b 96 1f be ea d0 9d bd
       -0.07256587 -0.066352 -0.1558458 -0.07705863
000170 19 43 fb bd 88 15 d5 3c c4 8c ff bd 5e 92 c8 bd
       -0.12268657 0.026011243 -0.12478021 -0.09793542
000180 96 21 6f 3d 3e 1c b9 3d 3a 5e de 3d 6e 70 f8 bd
       0.05838164 0.0903859 0.10857816 -0.12130819
000190 9c 24 2b bd 4d 53 05 3d d3 78 82 bd d8 f1 ed 3d
       -0.04178296 0.032550145 -0.06370702 0.11618394
0001a0 2a 62 27 3d af 60 c0 bd 8a 8a 01 be 6a c6 cd bd
       0.0408651 -0.09393441 -0.12650505 -0.1004761
0001b0 7c c2 12 bd 3e 22 5c 3d 48 d9 85 3c 28 13 4f bd
       -0.035830006 0.053743593 0.01633896 -0.05055538
0001c0 0d 09 f7 bd 66 67 a6 3d da 72 8d bd 8f d8 10 3d
       -0.12062273 0.081251904 -0.06906672 0.035362776
0001d0 31 21 b9 bd 2f 22 40 3d a0 84 83 3b b0 1c e8 bc
       -0.09039534 0.0469076 0.004013613 -0.028333992
0001e0 3c 53 2d 3d 76 b7 97 3d b1 25 0a be 55 f0 aa 3d
       0.042315707 0.07408039 -0.1349094 0.08346621
0001f0 d6 1e 97 bd 69 c1 d5 bb 50 74 2e 3c 4a b7 8b 3d
       -0.07378928 -0.0065233004 0.010647848 0.06822069
000200 b0 d4 cf 3e 0f b9 19 bf 0a 2a 95 3d fa 8c c3 3d
       0.40591955 -0.60048 0.07283409 0.095483735
000210 08 c8 fa bc 14 de b5 3e 50 d8 88 bf 6a 87 9f 3e
       -0.03061296 0.35520995 -1.0691013 0.31158
000220 5b c4 13 3e e3 67 21 3b 8f 46 97 bf 7c 6f 58 bf
       0.14430372 0.0024628572 -1.1818408 -0.8454511
000230 83 93 95 3d 48 7a 53 3f 1c 0b 6e bd 45 bb 06 3e
       0.07303526 0.8260846 -0.058116063 0.13157375
000240 e0 a5 76 3e 16 3b b3 c0 21 f5 62 3e af a9 ca bf
       0.24086714 -5.6009626 0.22163822 -1.5833033
000250 eb 03 23 40 7f 68 c0 bc bb e6 b9 3e 7a 91 ea 3e
       2.5471141 -0.023487328 0.36308846 0.45814115
000260 9b 67 16 3e ed 20 1b bf 02 e2 00 be 3b f2 aa be
       0.1468796 -0.60597116 -0.12586215 -0.33387932
000270 90 bc 3a 3e d8 d8 17 3e fa a7 d9 be d9 0c 99 be
       0.18235993 0.14828813 -0.42510968 -0.29892614
000280 f4 3d 42 3d 8b 2a bc bd 90 33 a9 bd 95 b0 76 be
       0.047422364 -0.09187802 -0.08261788 -0.24090798
000290 c0 4d 11 bc bc 06 04 bf b7 03 3e bd 6e 4a eb 3d
       -0.008868635 -0.51572776 -0.04639026 0.11488806
0002a0 87 7b 73 be db fa 68 be 34 99 63 be 50 ea 5e 3e
       -0.2377759 -0.22751944 -0.22226411 0.2176907
0002b0 68 3d 56 3d 11 ec 41 be 10 9b a1 bc d2 51 9e 3d
       0.052304655 -0.18937708 -0.01972726 0.0773045
0002c0 90 96 cb 3d 50 a7 05 bd e0 63 3f 3d f0 91 68 bc
       0.09940827 -0.032630265 0.046726108 -0.01419495
0002d0 ee ca 08 be 1e 68 9f bf 50 33 31 3c 57 60 d8 3d
       -0.13358662 -1.2453649 0.0108154565 0.1056525
0002e0 70 df 25 3c 30 aa 08 3d cf 4c 8a be c0 23 a1 3d
       0.010124072 0.03336543 -0.27011725 0.07868147
0002f0 e2 a7 d6 3d 86 b1 46 be b5 58 b1 3e 07 53 87 bd
       0.1048124 -0.19403657 0.3463799 -0.06607633
000300 54 e0 31 3e f6 f8 97 be 6e db 99 bd fb 00 02 3d
       0.1737073 -0.2968213 -0.07512556 0.031739216
000310 16 d1 d9 3d a2 8f 2e 3d 1b 5d 83 c0 58 bf 2b 3e
       0.10635583 0.042617448 -4.1051154 0.1677221
000320 a0 c5 fd 3d d7 72 9b 3d 56 a3 d1 bc b5 f5 2b c0
       0.123912096 0.07590263 -0.02559058 -2.6868718
000330 6f 91 5d bc 42 24 da 3d f7 5d 18 be 44 b9 6c 3c
       -0.013523444 0.10651447 -0.14879595 0.014448468
000340 d3 aa 9d bc 5b d2 92 40 ad 31 e4 3b ef 37 d6 be
       -0.019246494 4.588178 0.0069639296 -0.4183955
000350 8b 5f ac 3f ae ab e5 bc 5e d1 5c bd dd 53 2e be
       1.3466657 -0.028035965 -0.053910606 -0.17024179
000360 fb a0 44 c0 59 58 4f 40 ab 81 93 bd 23 9e 0b 3e
       -3.0723255 3.2397673 -0.072024666 0.13634543
000370 63 3a 81 3b 94 97 2d 3e 07 a9 9c 3c fd 55 f7 bc
       0.003943728 0.16952354 0.019123567 -0.03019237
000380 30 08 b3 3c e0 45 5d bd bc 56 ec bd 3a 85 4c be
       0.02185449 -0.054021716 -0.11539981 -0.19972697
000390 4a c2 9b bd d8 19 92 bf 3f 49 de 3e 82 25 e8 bd
       -0.07605417 -1.1414137 0.43415257 -0.11335279
0003a0 0a 05 31 be fd 89 ba 3d 37 b3 e8 be 88 e2 3e c0
       -0.17287078 0.091083504 -0.4544923 -2.9825764
0003b0 a0 37 7d 3c 23 6f 00 bf 30 6d c8 bd c4 74 bc 3d
       0.015455157 -0.5016958 -0.09786451 0.09201959
0003c0 30 a4 19 bc 28 80 b1 3c f8 97 b1 bc d6 ea 52 bd
       -0.009377524 0.021667555 -0.02167891 -0.05149349
0003d0 41 de 92 3e ef 31 2f c0 80 13 40 3b a4 67 2e 3f
       0.2868519 -2.7374227 0.0029308498 0.68126893
0003e0 3c 4b 8c bd 04 c8 6c bd ad 02 db 3d a4 22 1f 3d
       -0.06850287 -0.057807937 0.1069387 0.038851395
0003f0 14 38 32 bd 79 94 da be 2e ef c2 3e 00 60 a3 bb
       -0.04351051 -0.426914 0.38073105 -0.0049858093

fca1.bias f4 [64]
000000 9c d2 64 be aa 4a 0b be 3a 2d de be 61 9c 6c be
       -0.22345966 -0.13602701 -0.4339388 -0.23106529
000010 e0 3d 97 bb d5 15 a0 3f 5a c3 77 3f 22 a6 b2 3f
       -0.0046155304 1.2506663 0.9678246 1.395695
000020 a8 17 a0 3f 53 d9 02 3f aa f3 8d be 0a 6b ef be
       1.2507219 0.5111286 -0.27724963 -0.46761352
000030 17 dd ef 3c 1e ab a2 bd df 60 98 bd 15 ed 97 bd
       0.029280229 -0.07942794 -0.07440352 -0.07418267
000040 fc 03 63 3d ce 3c 9c 3d c8 14 ca be 28 a5 83 3f
       0.05542372 0.07628785 -0.3946898 1.0284777
000050 97 b8 87 3d 24 b6 06 be 25 06 c9 be ec 40 57 be
       0.066270046 -0.13155419 -0.392625 -0.2102086
000060 6e d2 c8 be a0 a7 88 3b 59 a1 01 bf a3 5f a6 be
       -0.39223045 0.004170373 -0.5063682 -0.3249484
000070 6d 3c 48 bd e5 e3 a1 bc 24 2b 39 be c1 09 2d 3f
       -0.04888575 -0.019761989 -0.18082863 0.6759301
000080 98 64 9a be 68 35 03 bf 97 b1 d3 3f dd 8c 1f bf
       -0.30154872 -0.51253366 1.6538571 -0.62324315
000090 cd 59 2b bd 35 a1 90 3d fb 87 54 be 77 b7 cb be
       -0.041833688 0.07061998 -0.20754997 -0.3978841
0000a0 24 42 6e be 35 75 f0 be 91 68 af be 87 cb 36 be
       -0.23267418 -0.46964422 -0.34259465 -0.17851077
0000b0 1d 3d 9e be 56 e2 77 be f6 74 e5 3e b2 ce 55 be
       -0.30906 -0.24207434 0.44815797 -0.20879629
0000c0 68 83 d1 be e5 21 06 bf 76 1c bf 3c 0f 05 84 be
       -0.40920568 -0.5239547 0.023329 -0.2578511
0000d0 a5 ec fc be ce 21 3d be e8 73 bd be ce 89 9f be
       -0.49399295 -0.18469927 -0.37002492 -0.31159824
0000e0 db 1c f5 3c 0e d2 5e 3e ca 89 df be 55 9d 29 3f
       0.029920986 0.21759817 -0.43659812 0.66255695
0000f0 8f 87 3d be ab a4 ed be e6 27 6a be 63 60 de be
       -0.18508743 -0.46414694 -0.22866783 -0.43432912

fca2.weight f4 [1, 64]
000000 bf 22 84 bf 0e d4 bf bc 7c 87 30 bf c6 82 c3 bf
       -1.0323104 -0.023416545 -0.6895673 -1.5274284
000010 0f dc 5c c1 2f 3f 2e 40 d1 0b 44 40 71 b7 22 40
       -13.803725 2.7226064 3.0632212 2.5424464
000020 50 76 ae 3f e6 7c cf c1 7d b2 19 bf 08 66 2d bf
       1.3629856 -25.935986 -0.60037977 -0.6773381
000030 fc d6 ff bb b7 fb 90 3b bf 8f 9d bf e7 56 79 bc
       -0.0078076106 0.004424538 -1.2309493 -0.015218473
000040 56 1c 07 bb ec aa 2d bb 86 17 bd bf 72 7d 38 40
       -0.0020616255 -0.0026499582 -1.4772804 2.8826566
000050 83 f6 7d bc 5b d9 2a bf e4 49 01 bf 9a 9f a2 c0
       -0.0155006675 -0.6673791 -0.50503373 -5.0819826
000060 20 a1 89 be 94 9b e8 ba 4c d9 78 bf 06 83 3d bf
       -0.2688074 -0.0017746561 -0.9720657 -0.7402805
000070 b1 7d fb 3c a9 79 c3 ba bc ef d3 be e7 47 d5 c0
       0.030699583 -0.0014913577 -0.4139384 -6.665027
000080 11 b0 2a bf 2b b9 11 bf 88 47 1f 40 97 ef 0c c0
       -0.66674906 -0.5692317 2.488741 -2.2021234
000090 39 46 d6 3c 89 f7 cd c0 4d cc 4a bf 15 aa ec bf
       0.026156532 -6.4364667 -0.7921799 -1.8489405
0000a0 c9 29 1b c1 5a 1e 35 bf 20 e1 08 bf 49 8f c2 3b
       -9.697701 -0.7074944 -0.53468513 0.005937491
0000b0 bd 73 42 bf ee ee 84 c0 6c fb ff c0 41 b3 5b bf
       -0.7595785 -4.154166 -7.999441 -0.85820395
0000c0 fe fa df bf ae 81 93 bf fc f6 96 bc 9b 8e 19 bf
       -1.7498472 -1.152395 -0.018428318 -0.59983224
0000d0 1a 9a f3 bf da 74 a9 bf b5 aa 43 bf bd 21 6f bf
       -1.9031403 -1.3238785 -0.76432353 -0.93410856
0000e0 a5 f1 84 bc d8 6f b8 c0 6f d7 55 bf 82 71 d8 c1
       -0.016228506 -5.763653 -0.8353185 -27.055424
0000f0 e8 47 a4 c0 c7 2d 30 bf c7 d3 80 bf 14 99 b4 be
       -5.1337776 -0.6881985 -1.0064629 -0.3527304
