src/Models/trained/2900_critic.pt (torch_old, 22186 bytes, 7 tensors)

fc1.weight f4 [32, 28]
-0.5642296 -1.1964856 -0.9714309 -0.5153022 0.26286027 0.3220307 0.36299008 0.49691457
0.42240745 0.57236487 0.6679761 0.44856176 0.36115852 -0.2717667 -0.4542371 -0.46902058
-0.37425283 0.5622004 0.08554237 0.76881325 -0.040361863 0.6306653 -0.6053166 -0.5685981
1.0087229 0.03115984 -3.1762185 -2.1547482 -0.25780168 -0.11385538 0.03534885 0.14150317
0.12609707 0.108179934 -0.033039313 0.010537848 -0.06481228 0.12020227 0.21236947 0.109554835
-0.111781664 -0.12298296 -0.13033658 -0.0789442 -0.29253697 -0.166848 -0.06270726 0.21999754
0.46832916 0.39126295 -0.17895341 -0.2787644 -2.2065556 -0.15254377 3.8566096 0.58990556
-0.10255484 -0.16395214 -0.028721428 0.065823 -0.16314746 -0.20554182 0.004566101 -0.12738423
-0.13678698 -0.0016605114 -0.02708973 -0.019866299 -0.1667536 -0.11922946 0.12742893 -0.14815672
0.0017025379 -0.15547328 -0.016327227 -0.15423647 0.08308622 -0.055781353 -0.12583448 0.122716375
0.126058 0.07274468 0.015950968 -0.03172312 -0.6806238 -0.53914726 0.32133976 0.026197417
0.6675914 0.5205342 0.7304167 0.6807263 -0.28786924 -0.18497454 0.2831942 -0.30740944
-0.22342116 0.22570196 -0.50445306 -0.020695742 -0.2327757 -0.6905027 0.49200624 1.3885541
1.2410353 0.41284263 -0.7494863 -0.43365797 -2.867712 0.093623556 -1.230713 0.7321126
-0.08924298 0.08230167 -0.061029218 0.03670355 0.34519392 -0.046818595 -0.038694445 0.054056548
-0.11915067 -0.19002287 0.10185036 -0.002474978 -0.19790222 -0.020505806 0.6663894 0.093025506
-0.07103054 0.1429171 0.21523777 0.03644028 -0.32195708 -2.150237 -0.0671725 0.07908363
-0.54875004 0.14824805 -0.577642 -0.049419522 -0.024418661 1.3237773 1.6524388 0.5975337
-0.41399 -0.0466369 -0.93951976 -0.028291686 0.12926152 0.13498402 0.15456957 0.27342683
-0.15164137 0.09471697 0.21780333 0.17287019 -0.34106085 -0.39030653 -0.6740643 -0.99590284
-0.38859722 1.2657689 0.13336957 -0.014974674 -1.8020972 -0.0742379 -0.14387417 0.6513515
0.15797633 0.18233499 0.11131802 -0.0060342755 0.1517261 0.16892304 0.1309286 0.23214851
0.2146211 0.09160015 0.12129901 0.2642338 0.17389834 0.18924612 0.10193125 0.112560384
-0.019428961 -0.08798296 -2.4003742 -0.5825138 0.1885634 -0.2607599 0.048325043 0.13118243
-0.14734142 -0.009820363 -2.4066162 -2.0871074 0.40352356 0.38697308 0.23728824 0.4497643
0.083238564 -0.11628344 -0.13408765 -0.33522752 -0.19374281 -0.64368826 -0.5419668 -0.27239716
0.055001315 0.34233868 0.47731942 0.05102745 -0.11087234 -0.29156795 -0.060231946 0.30233017
0.45584407 0.64333355 1.1351964 0.56750774 3.5436447 0.04911432 4.134431 1.0723683
0.019308768 -1.3401927 -0.98102427 -1.2207153 -0.8592888 -0.37371933 0.10812376 0.49250314
0.42173046 0.5935886 0.6895037 0.8551229 0.7989162 0.6245176 0.5734147 0.54952496
0.30714184 -0.17245498 -0.42911515 -0.52779186 -0.6156091 -0.65643245 -0.3488042 -0.05320479
0.79222655 0.06825973 2.8785062 0.27809936 -0.47141597 0.20636225 0.0838787 0.13321786
00000000: 5a71 10bf 7126 99bf b2af 78bf d8ea 03bf
00000010: 9f95 863e 35e1 a43e d6d9 b93e 966b fe3e
00000020: ca45 d83e 8186 123f 7b00 2b3f e3a9 e53e
00000030: c5e9 b83e 0125 8bbe c491 e8be 7723 f0be
00000040: 119e bfbe 5eec 0f3f d730 af3d f2d0 443f
00000050: 7b52 25bd 4873 213f 07f6 1abf a58f 11bf
00000060: d51d 813f ec42 ff3c 2a47 4bc0 65e7 09c0
00000070: 95fe 83be 022d e9bd f5c9 103d 35e6 103e
00000080: 971f 013e 718d dd3d 3b54 07bd f0a6 2c3c
00000090: 4dbc 84bd 9c2c f63d 6277 593e 495e e03d
000000a0: c9ed e4bd 7dde fbbd f476 05be 7fad a1bd
000000b0: 68c7 95be 34da 2abe aa6c 80bd 0947 613e
000000c0: d7c8 ef3e 9e53 c83e 903f 37be 35ba 8ebe
000000d0: 3538 0dc0 6f34 1cbe b1d2 7640 0d04 173f
000000e0: 4608 d2bd 12e3 27be 3349 ebbc 36ce 863d
000000f0: 2110 27be 8e79 52be 3b9f 953b 0371 02be
00000100: e311 0cbe 84a5 d9ba 48eb ddbc a6be a2bc
00000110: 75c1 2abe 932e f4bd bb7c 023e 65b6 17be
00000120: b127 df3a 6334 1fbe adc0 85bc 2af0 1dbe
00000130: 1c29 aa3d fd7a 64bd c1da 00be b952 fb3d
00000140: 5915 013e 2afb 943d 9bab 823c 1af0 01bd
00000150: 5d3d 2ebf 8e05 0abf a586 a43e f79b d63c
00000160: 45e7 2a3f bb41 053f 97fc 3a3f 1444 2e3f
00000170: 9963 93be f769 3dbe d5fe 903e c564 9dbe
00000180: 84c8 64be 6a1e 673e d623 01bf 1e8a a9bc
00000190: c15c 6ebe c9c4 30bf 3ee8 fb3e 24bc b13f
000001a0: 3fda 9e3f 1c60 d33e 56de 3fbf 6b08 debe
000001b0: 9888 37c0 b5bd bf3d 0188 9dbf bb6b 3b3f
000001c0: 06c5 b6bd c78d a83d c6f9 79bd 7656 163d
000001d0: 42bd b03e dbc4 3fbd 117e 1ebd 666a 5d3d
000001e0: 4405 f4bd 5b95 42be ec96 d03d 3e33 22bb
000001f0: e1a6 4abe cbfb a7bc 7f98 2a3f 2884 be3d
00000200: 7678 91bd dc58 123e 4a67 5c3e 6742 153d
00000210: 8fd7 a4be 7c9d 09c0 bc91 89bd 99f6 a13d
00000220: e27a 0cbf 56ce 173e 59e0 13bf 206c 4abd
00000230: a509 c8bc 8971 a93f 1d83 d33f f8f7 183f
00000240: 7ff6 d3be 5606 3fbd 5e84 70bf f7c3 e7bc
00000250: 225d 043e 4039 0a3e 7c47 1e3e 9afe 8b3e
00000260: e047 1bbe f9fa c13d d607 5f3e e204 313e
00000270: 879f aebe 42d6 c7be 7a8f 2cbf 7df3 7ebf
00000280: 37f6 c6be b704 a23f 0892 083e 5658 75bc
00000290: 1fab e6bf 0a0a 98bd c053 13be f9be 263f
000002a0: 8cc4 213e 06b6 3a3e b4fa e33d 2cbb c5bb
000002b0: 165e 1b3e 29fa 2c3e 2612 063e 57b8 6d3e
000002c0: a2c5 5b3e dc98 bb3d 9e6b f83d a749 873e
000002d0: 6812 323e bcc9 413e 55c1 d03d 0f86 e63d
000002e0: 7c29 9fbc 6930 b4bd bb9f 19c0 a01f 15bf
000002f0: c416 413e 5282 85be 7bf0 453d b054 063e
00000300: abe0 16be 96e5 20bc 0006 1ac0 2b93 05c0
00000310: a49a ce3e 5621 c63e b0fb 723e 8247 e63e
00000320: fb78 aa3d 0326 eebd 464e 09be f1a2 abbe
00000330: 8464 46be c1c8 24bf 56be 0abf a477 8bbe
00000340: 0f49 613d 0447 af3e 3663 f43e 2902 513d
00000350: 0a11 e3bd 6548 95be c6b5 76bd 05cb 9a3e
00000360: 6564 e93e 82b1 243f 1e4e 913f 3048 113f
00000370: 13cb 6240 192c 493d 424d 8440 5d43 893f
00000380: 6c2d 9e3c 6f8b abbf 6824 7bbf 6640 9cbf
00000390: 5afa 5bbf 2458 bfbe fd6f dd3d 5f29 fc3e
000003a0: 0eed d73e 6cf5 173f 5183 303f 56e9 5a3f
000003b0: c685 4c3f 63e0 1f3f 4ecb 123f abad 0c3f
000003c0: b241 9d3e 0a98 30be fbb4 dbbe 5e1d 07bf
000003d0: 8f98 1dbf f50b 28bf 7796 b2be 44ed 59bd
000003e0: 5ccf 4a3f c2cb 8b3d 7239 3840 0a63 8e3e
000003f0: 6f5d f1be a050 533e 99c8 ab3d 436a 083e

fc1.bias f4 [32]
-0.11845797 0.21847327 -0.035690606 1.5619142 -0.048401892 1.5902387 -1.4471637 0.82767195
0.6651899 1.4389031 -0.38138288 1.1969206 -0.19604966 0.036131363 -1.3441932 0.49869284
1.7261161 0.70505464 0.9792883 0.29549277 0.5769958 0.02820733 0.09544899 -1.0523407
-1.85101 -0.07983054 0.08675768 -1.1446859 1.4483109 1.0246643 0.51852447 1.3071878
00000000: 189a f2bd 75b7 5f3e 5030 12bd ceec c73f
00000010: 1041 46bd f18c cb3f a93c b9bf 4fe2 533f
00000020: e349 2a3f fa2d b83f 9e44 c3be b234 993f
00000030: 3ec1 48be 7bfe 133d 860e acbf ab54 ff3e
00000040: 5ff1 dc3f 767e 343f a3b2 7a3f d44a 973e
00000050: ffb5 133f 0f13 e73c c37a c33d 1ab3 86bf
00000060: e5ed ecbf 327e a3bd 03ae b13d 1185 92bf
00000070: 4062 b93f 3328 833f 05be 043f ee51 a73f

fa1.weight f4 [32, 2]
-0.04850577 -0.15458785 -0.10726367 0.084279045 0.13954742 0.03154373 0.71115553 -0.41661537
0.15969035 0.044536114 -1.339357 -0.04013582 0.44957146 0.7334998 -0.04757917 -0.04301575
1.1169926 -0.20666493 0.46671563 0.23082682 1.0531809 -0.61304694 -2.6546612 -1.4563823
0.13329755 -0.017551795 0.5438071 -0.49103177 -0.0725228 -0.093381606 0.09642293 0.08658059
-0.14347875 -0.05667291 0.075144574 0.07317895 0.024045303 -0.05837336 -0.042894706 -0.056512035
-0.6218618 0.7185241 -2.2114992 -0.1482453 -0.11566543 0.15542422 0.7940178 0.74459463
-0.011275545 -0.09248708 -0.09644918 -0.03279628 0.7575634 0.09654733 0.10290782 -0.086568885
-0.1526615 -0.040671498 1.2241949 -0.420282 0.9645486 0.9583633 0.11721189 0.043682218
00000000: fcad 46bd 474c 1ebe 0ead dbbd 7e9a ac3d
00000010: 85e5 0e3e 0034 013d 4a0e 363f 9c4e d5be
00000020: de85 233e 806b 363d 0d70 abbf 7565 24bd
00000030: 3b2e e63e a5c6 3b3f 60e2 42bd 4831 30bd
00000040: 9df9 8e3f f99f 53be 5af5 ee3e de5d 6c3e
00000050: a2ce 863f a5f0 1cbf f8e5 29c0 bc6a babf
00000060: 277f 083e c8c8 8fbc f136 0b3f 8468 fbbe
00000070: d586 94bd db3e bfbd 6379 c53d 2a51 b13d
00000080: 18ec 12be da21 68bd 66e5 993d d8de 953d
00000090: a8fa c43c e818 6fbd 5cb2 2fbd 2a79 67bd
000000a0: 5632 1fbf 32f1 373f 3489 0dc0 9ecd 17be
000000b0: ffe1 ecbd 8727 1f3e c044 4b3f c19d 3e3f
000000c0: 10bd 38bc de69 bdbd 2687 c5bd 6455 06bd
000000d0: adef 413f 9bba c53d 56c1 d23d 074b b1bd
000000e0: 4c53 1cbe 2897 26bd 6bb2 9c3f 342f d7be
000000f0: a8ec 763f 4c57 753f ca0c f03d 20ec 323d

fa1.bias f4 [32]
-0.67503446 -0.24922037 -0.5899513 2.0996768 -0.60252136 1.512494 2.4689019 -0.70508796
1.7772704 2.3617053 2.1784623 1.134338 -0.56496996 1.9889945 -0.6408091 -0.20156316
-0.6014741 -0.17197007 -0.5283146 -0.13701576 2.515706 1.1757277 -0.57226485 1.8147398
-0.40290564 -0.32541734 2.3108225 -0.3795983 -0.67706573 2.334079 0.643878 -0.22045997
00000000: 0fcf 2cbf a033 7fbe 0c07 17bf 1b61 0640
00000010: d73e 1abf 6799 c13f 7d02 1e40 a580 34bf
00000020: 997d e33f 2e26 1740 ed6b 0b40 fd31 913f
00000030: dfa1 10bf 5f97 fe3f 110c 24bf 9366 4ebe
00000040: 35fa 19bf ec18 30be a03f 07bf dc4d 0cbe
00000050: 5401 2140 3f7e 963f f37f 12bf 6549 e83f
00000060: a649 cebe 1a9d a6be 84e4 1340 b55a c2be
00000070: 2e54 2dbf 8d61 1540 30d5 243f 42c0 61be

fca1.weight f4 [64, 64]
0.34721535 -0.5809925 0.038719304 0.18152958 0.036372505 0.48621863 -0.9684229 0.26857206
-0.20062329 0.32744205 -0.19014655 1.1050451 0.09118511 0.20101388 -0.033979665 0.16470918
-0.2644843 -3.144911 0.37621608 -1.2719743 -3.703104 0.17900251 -0.15030181 -0.4594911
-0.5456942 3.8213837 0.40652183 -0.73667777 0.25575462 0.18928918 0.22438255 0.38321888
-0.05993916 -0.11925195 0.06812757 -0.09370597 0.031947806 -0.22362243 -0.18432939 -0.041853532
-0.2891536 -0.27127853 -0.23062953 0.98042756 0.06878255 -0.22170618 -0.04444334 0.0014648146
0.0884985 0.08642413 0.05579253 -0.09264873 -0.26505038 -0.6744606 -0.1187409 -0.22709943
-0.003478691 -0.014396533 -0.22096762 0.069132164 -0.044483528 -0.18768616 0.019833697 -0.08875619
-0.042049758 -0.030701445 0.04514733 -0.12997706 0.045439854 0.014045923 0.09848459 0.064198755
-0.017841578 0.017737268 0.051944256 -0.027961459 0.120801546 -0.124206506 -0.07202197 -0.028948674
-0.03955378 -0.0014199943 0.08213253 -0.028099297 0.103396766 -0.008611158 0.015794504 -0.04857655
-0.07256587 -0.066352 -0.1558458 -0.07705863 -0.12268657 0.026011243 -0.12478021 -0.09793542
0.05838164 0.0903859 0.10857816 -0.12130819 -0.04178296 0.032550145 -0.06370702 0.11618394
0.0408651 -0.09393441 -0.12650505 -0.1004761 -0.035830006 0.053743593 0.01633896 -0.05055538
-0.12062273 0.081251904 -0.06906672 0.035362776 -0.09039534 0.0469076 0.004013613 -0.028333992
0.042315707 0.07408039 -0.1349094 0.08346621 -0.07378928 -0.0065233004 0.010647848 0.06822069
0.24843612 -0.44842255 0.07283409 0.22399999 -1.3596005 0.38606033 -1.7197666 0.4531138
0.028633138 0.026848134 -0.76317054 -1.5307426 0.07303526 0.8330481 -0.286754 0.18413101
0.40763038 -4.963055 0.18945023 -1.0026692 2.4878054 -0.023487328 0.26782322 0.5187658
0.781927 -0.1264317 -0.2077887 -0.5106226 0.19894774 0.061942045 -0.3292648 -0.3887746
0.047422364 -0.09187802 -0.08261788 -0.19421537 -0.008868635 -0.48951218 -0.03725214 0.11488806
-0.19367799 -0.20397902 -0.16949733 0.22581768 0.052304655 -0.13946865 -0.01972726 0.0773045
0.09940827 -0.032630265 0.046726108 -0.01419495 -0.12931319 -1.2207607 0.0108154565 0.11242009
0.010124072 0.03336543 -0.24124183 0.07868147 0.1048124 -0.14808467 0.32600474 -0.06607633
0.107704595 -0.3274256 -0.07512556 0.011930729 0.15691996 0.063074306 -2.5990534 0.15609866
0.091506764 -0.0027942562 -0.06489209 -1.7389477 -0.013523444 0.07395432 -0.07499242 0.0040933997
0.17911941 3.4573052 -0.02821113 -0.095985934 0.809906 -0.028035965 0.72924495 -0.16768403
-3.4976413 2.3061337 -0.02483373 0.30828208 0.12642458 0.08745254 0.03528343 -0.12770768
0.02185449 -0.054021716 -0.11539981 -0.255892 -0.07605417 -1.1903423 0.4745662 -0.11335279
-0.19178921 0.104706995 -0.5395904 -2.9992256 0.015455157 -0.57956517 -0.09786451 0.09201959
-0.009377524 0.021667555 -0.02167891 -0.05149349 0.32077396 -2.9369156 0.0029308498 0.73650825
-0.06850287 -0.057807937 0.11310982 0.038851395 -0.04351051 -0.4711314 0.4739758 -0.0049858093
00000000: 36c6 b13e edbb 14bf 2298 1e3d e4e2 393e
00000010: 56fb 143d a6f1 f83e 90ea 77bf 4782 893e
00000020: 3170 4dbe 7ca6 a73e c7b5 42be 1e72 8d3f
00000030: 42bf ba3d 95d6 4d3e 432e 0bbd 86a9 283e
00000040: 7c6a 87be 3946 49c0 659f c03e 0ed0 a2bf
00000050: a8ff 6cc0 6f4c 373e b8e8 19be 6b42 ebbe
00000060: 9db2 0bbf 8d91 7440 a123 d03e ea96 3cbf
00000070: 45f2 823e 06d5 413e 8ac4 653e 4435 c43e
00000080: c482 75bd 5e3a f4bd 7886 8b3d eae8 bfbd
00000090: b4db 023d 47fd 64be d8c0 3cbe 9c6e 2bbd
000000a0: f10b 94be 05e5 8abe 262a 6cbe 4dfd 7a3f
000000b0: dedd 8c3d f206 63be 380a 36bd 06ff bf3a
000000c0: b43e b53d 22ff b03d b586 643d 9ebe bdbd
000000d0: afb4 87be 73a9 2cbf 6e2e f3bd c18c 68be
000000e0: c0fa 63bb 70df 6bbc 5645 62be 2a95 8d3d
000000f0: 5c34 36bd cd30 40be 477a a23c cec5 b5bd
00000100: 5e3c 2cbd 9981 fbbc 68ec 383d b518 05be
00000110: 241f 3a3d df20 663c 4ab2 c93d a37a 833d
00000120: 8028 92bc bf4d 913c 80c3 543d 6e0f e5bc
00000130: cd66 f73d fb5f febd 4180 93bd c525 edbc
00000140: 2503 22bd 1a1f baba 1a35 a83d 7f30 e6bc
00000150: afc1 d33d d015 0dbc 7a63 813c 34f8 46bd
00000160: 6a9d 94bd 8fe3 87bd 0b96 1fbe ead0 9dbd
00000170: 1943 fbbd 8815 d53c c48c ffbd 5e92 c8bd
00000180: 9621 6f3d 3e1c b93d 3a5e de3d 6e70 f8bd
00000190: 9c24 2bbd 4d53 053d d378 82bd d8f1 ed3d
000001a0: 2a62 273d af60 c0bd 8a8a 01be 6ac6 cdbd
000001b0: 7cc2 12bd 3e22 5c3d 48d9 853c 2813 4fbd
000001c0: 0d09 f7bd 6667 a63d da72 8dbd 8fd8 103d
000001d0: 3121 b9bd 2f22 403d a084 833b b01c e8bc
000001e0: 3c53 2d3d 76b7 973d b125 0abe 55f0 aa3d
000001f0: d61e 97bd 69c1 d5bb 5074 2e3c 4ab7 8b3d
00000200: 0a66 7e3e a497 e5be 0a2a 953d 4160 653e
00000210: 6407 aebf b3a9 c53e 5021 dcbf 88fe e73e
00000220: 0b90 ea3c 9ef0 db3c 255f 43bf 60ef c3bf
00000230: 8393 953d a442 553f 6cd1 92be d78c 3c3e
00000240: eeb4 d03e 59d1 9ec0 3eff 413e 7757 80bf
00000250: 3438 1f40 7f68 c0bc 2020 893e d6cd 043f
00000260: 5e2c 483f 5077 01be 90c6 54be 2ab8 02bf
00000270: f5b8 4b3e f1b6 7d3d 6595 a8be 770d c7be
00000280: f43d 423d 8b2a bcbd 9033 a9bd 65e0 46be
00000290: c04d 11bc 57a1 fabe b395 18bd 6e4a eb3d
000002a0: 8653 46be e0df 50be b590 2dbe c03c 673e
000002b0: 683d 563d dfd0 0ebe 109b a1bc d251 9e3d
000002c0: 9096 cb3d 50a7 05bd e063 3f3d f091 68bc
000002d0: ad6a 04be e341 9cbf 5033 313c 813c e63d
000002e0: 70df 253c 30aa 083d 1908 77be c023 a13d
000002f0: e2a7 d63d 82a3 17be 18ea a63e 0753 87bd
00000300: 3a94 dc3d 54a4 a7be 6edb 99bd 1b79 433c
00000310: a0af 203e 1a2d 813d e456 26c0 54d8 1f3e
00000320: e667 bb3d d71f 37bb 25e6 84bd d795 debf
00000330: 6f91 5dbc 5d75 973d a095 99bd ed21 863b
00000340: 146b 373e 7d44 5d40 071b e7bc 4694 c4bd
00000350: 0056 4f3f aeab e5bc ccaf 3a3f 5db5 2bbe
00000360: 5bd9 5fc0 b297 1340 1b70 cbbc 26d7 9d3e
00000370: 7275 013e 511a b33d 5c85 103d cdc5 02be
00000380: 3008 b33c e045 5dbd bc56 ecbd 4704 83be
00000390: 4ac2 9bbd 235d 98bf 57fa f23e 8225 e8bd
000003a0: 6464 44be 9f70 d63d 9922 0abf 50f3 3fc0
000003b0: a037 7d3c 625e 14bf 306d c8bd c474 bc3d
000003c0: 30a4 19bc 2880 b13c f897 b1bc d6ea 52bd
000003d0: 7c3c a43e 6df6 3bc0 8013 403b ce8b 3c3f
000003e0: 3c4b 8cbd 04c8 6cbd 1fa6 e73d a422 1f3d
000003f0: 1438 32bd 2338 f1be f5ac f23e 0060 a3bb

fca1.bias f4 [64]
-0.23086178 -0.13602701 -0.4118211 -0.24852997 -0.005694808 1.2747667 0.97638875 1.4481295
1.3016909 0.54836553 -0.28491738 -0.4655833 0.008262421 -0.07942794 -0.058340732 -0.07418267
0.05542372 0.07628785 -0.41268343 1.0650966 0.066270046 -0.10116903 -0.4326943 -0.2304978
-0.41771704 0.004170373 -0.43938887 -0.2886635 -0.04888575 -0.019761989 -0.19698416 0.7931069
-0.3210643 -0.5454937 1.7062618 -0.6112119 -0.041833688 0.07570832 -0.20389295 -0.3913316
-0.23920925 -0.4908011 -0.34103572 -0.17851077 -0.31596544 -0.23513608 0.38653064 -0.18271498
-0.4326955 -0.5607209 0.023329 -0.2570818 -0.5329747 -0.13735777 -0.382651 -0.27794993
0.029920986 0.28906813 -0.44890907 0.7293489 -0.16812576 -0.48054403 -0.18417743 -0.46134666
00000000: 0867 6cbe aa4a 0bbe 37da d2be a47e 7ebe
00000010: 839b babb 8e2b a33f 9df4 793f 4f5c b93f
00000020: cf9d a63f af61 0c3f b1e0 91be ef60 eebe
00000030: 1b5f 073c 1eab a2bd b1f6 6ebd 15ed 97bd
00000040: fc03 633d ce3c 9c3d 3e4b d3be 1655 883f
00000050: 97b8 873d b531 cfbd 1b8a ddbe 9e07 6cbe
00000060: 02df d5be a0a7 883b 94f7 e0be b4cb 93be
00000070: 6d3c 48bd e5e3 a1bc 37b6 49be 0e09 4b3f
00000080: 8a62 a4be 7aa5 0bbf c966 da3f 6278 1cbf
00000090: cd59 2bbd f70c 9b3d 50c9 50be 9e5c c8be
000000a0: 45f3 74be 484a fbbe 3c9c aebe 87cb 36be
000000b0: 39c6 a1be 83c7 70be 58e7 c53e a319 3bbe
000000c0: 448a ddbe 688b 0fbf 761c bf3c 3aa0 83be
000000d0: 0871 08bf 84a7 0cbe d5ea c3be 744f 8ebe
000000e0: db1c f53c bd00 943e 69d7 e5be 9cb6 3a3f
000000f0: 2929 2cbe de09 f6be 0299 3cbe a135 ecbe

fca2.weight f4 [1, 64]
-1.012748 -0.023416545 -0.6225516 -0.9548587 -18.292719 2.7487361 3.0658238 2.570644
1.3912544 -27.961304 -0.5348309 -0.64961207 -0.04300352 0.004424538 -1.3221782 -0.015218473
-0.0020616255 -0.0026499582 -1.4635186 2.8845527 -0.0155006675 -0.7605845 -0.42689705 -6.359959
-0.20370135 -0.0017746561 -0.738565 -0.86710286 0.030699583 -0.0014913577 -0.33103392 -7.8532724
-0.6056932 -0.5079432 2.520011 -1.9525832 0.026156532 -6.699279 -0.888704 -1.8508503
-10.524853 -0.6819841 -0.49924222 0.005937491 -0.7479331 -4.5033717 -11.503999 -0.85025615
-1.7169719 -1.1404442 -0.018428318 -0.5678683 -2.6141908 -0.9255594 -0.84695506 -0.94341445
-0.016228506 -6.67935 -0.76191187 -29.765524 -6.8979607 -0.63090116 -1.1657085 -0.6594767
00000000: baa1 81bf 0ed4 bfbc 8b5f 1fbf 9f71 74bf
00000010: 7d57 92c1 4beb 2f40 7536 4440 6e85 2440
00000020: a014 b23f c0b0 dfc1 aeea 08bf fa4c 26bf
00000030: 7624 30bd b7fb 903b 233d a9bf e756 79bc
00000040: 561c 07bb ecaa 2dbb 9454 bbbf 839c 3840
00000050: 83f6 7dbc aab5 42bf 4092 dabe c984 cbc0
00000060: 1697 50be 949b e8ba 9912 3dbf 74fa 5dbf
00000070: b17d fb3c a979 c3ba 477d a9be 024e fbc0
00000080: b60e 1bbf 9108 02bf dc47 2140 3fee f9bf
00000090: 3946 d63c 7e60 d6c0 1b82 63bf aae8 ecbf
000000a0: cc65 28c1 8396 2ebf ad9c ffbe 498f c23b
000000b0: 8b78 3fbf 9f1b 90c0 6110 38c1 63aa 59bf
000000c0: bcc5 dbbf 13fa 91bf fcf6 96bc d15f 11bf
000000d0: e74e 27c0 76f1 6cbf 0cd2 58bf 9c83 71bf
000000e0: a5f1 84bc 3cbd d5c0 a80c 43bf cb1f eec1
000000f0: 18bc dcc0 bd82 21bf f035 95bf 77d3 28bf
