src/Models/trained/3550_actor.pt (torch_old, 25545 bytes, 6 tensors)

fa1.weight f4 [64, 28]
00000000: df29 ad3e 2e94 ad3d f68e a13d da24 09bd
00000010: c6b8 3b3f a7fb 363f 7fa7 003f 0578 1c3d
00000020: 5d0a 0dbe 7347 03bf a06b bebd 5547 7abe
00000030: 0f9a 23bf 4f95 ecbd 23a4 45bf 66a4 ccbe
00000040: 1918 97be 0ce7 45bd 44ee 823e 95de 893e
00000050: 9aec 6a3d 6aea c73e 0331 213f 1be5 913e
00000060: 6358 b2c0 3293 d2bd 2865 f93f d0ab 553f
00000070: 383f 09be cf5a 793d ccd1 b3bd e617 d2bd
00000080: fa85 943d 2790 11be 3f00 703d e311 0cbe
00000090: f95e b03c dfa1 90bd b37c 743d 62e4 81bd
000000a0: 28b9 cabd a3c5 28be 94f9 bcbd 451f 47bd
000000b0: e562 773d 6a8e 733d af37 873d fc6a 75bd
000000c0: 55fb a13d 5014 25be 4db6 edbd 1af0 013d
000000d0: 6afe a7bd 9641 863d 9e77 19be de8b 22be
000000e0: 01ef 093d aa5b 01be 04ac ff3c 438a 03be
000000f0: 1f2d 9bbd eda7 ab3c 67e9 403d 8106 26be
00000100: dd48 513b 86dc ac3d d374 d8bd a02d c2bd
00000110: caf0 fcbd da98 a7bd ccfa ecbd 9a14 6abc
00000120: 8aeb 943d 6a0b f4bd d0c4 ae3d fa3c c4bd
00000130: 82b7 d6bc 03f0 d7bb 79f9 cb3c a18e d5bd
00000140: b68f 86bc c595 a13c 023f a7ba d71c aebd
00000150: 3ab6 0abe caab 56be 84c1 46be 517a 30be
00000160: 8f9a 37be 3a89 27be 8764 a4bd 576e 79bd
00000170: 9e5b acbb d4b3 7fbc 1e01 3fbd ff45 2dbe
00000180: 1456 7fbe cce4 7ebe 2237 8bbe 68ba 88be
00000190: 1979 80be f6bb 52be 775b 66be c673 35be
000001a0: 2aec f3be dc09 aabe bd21 35be aa55 02be
000001b0: 2ece f8be 5bfe 8b3d 49e3 89bf a1d3 fbbd
000001c0: d834 713d f2f1 b9bd 447a 41bd 8016 6ebc
000001d0: 229a f33d 883d cf3c 1e08 b9bd b876 3c3d
000001e0: 8650 f3bd 7b48 e2bd d939 e9bd 40b4 10bd
000001f0: 4358 a8bd 2afa e7bd d444 64bd ce49 c23d
00000200: 681f 46bd 30d5 70bd c049 4e3b da8a f93d
00000210: 1058 04bd 8aa8 43bd c028 933c c4a0 eebd
00000220: 30bf f63c 48b1 4cbd a0a5 523d cf4d adbc
00000230: 5da3 3e3c ae10 233d 2680 a23d b22c d7bd
00000240: 8e5b 10be 451f c73a efac 233d 649c 7f3d
00000250: 7323 453b 321b 3a3c 21e9 c2bd 2000 383d
00000260: d14c 263d 4cc0 16be f9e1 afbd ac38 8e3d
00000270: c2ad 9d3b 24fa 7fbd 633f 16be b612 863d
00000280: aba7 f4bd 7f2e 11be 77a4 363a 6ed5 353d
00000290: 466d 8f3d 0fea 2d3c 1d30 f7bb 8791 87bd
000002a0: ec5d 0dbe 9f7c 11be 31cb 1cbe 0b35 8cbd
000002b0: 1d07 bebd e6e8 19be 8046 54bd ea20 3b3c
000002c0: 40c0 c1bc 39ab 933c fe83 06be e416 843d
000002d0: c248 603b 2c52 ffbd 101c 09be 3651 863c
000002e0: 2575 ab3a 46bd acbd ba12 cdbd d888 38bd
000002f0: 0e4c c8bd 049f b33c 7643 23be c5b1 8ebd
00000300: 21e9 c23b 4a4f 943d ebbb fd3d ee58 dcbc
00000310: 2cfa 0dbe d47f cfbd e9e1 933d a648 efbd
00000320: 9599 f7bd 7f8f 243c 1f78 40bc 2c50 aa3d
00000330: 0ad6 4d3d 8cc3 a9bd a563 0ebe 96e7 bfbd
00000340: 62b7 1ebc 2f11 4abc e278 9e3d 7111 81bd
00000350: c7bd d3bd c9a0 dfbd af31 88bd 55a7 5a3c
00000360: 4745 a43d 44f6 0d3d dd2a 0fbe 4f5f cabd
00000370: 7ad1 e0bd e633 3fbd b3d0 3bbd 80d4 4abd
00000380: 70df a5bd 424d b1bd a067 f1bd 14c6 333d
00000390: da28 73bc fd62 a13b 391d 1dbe a5fe d0bd
000003a0: 1997 c2bd a552 98bc a29e 44bc d557 64bb
000003b0: fd6d 18be 2b06 8cbc 39bc 893c b237 cebd
000003c0: 5e58 19be 8fd4 663c 9885 25bd 9f01 66bd
000003d0: 6f25 533c 9b80 f4bd 6cf2 a9bb 2383 7e3c
000003e0: 6594 ab3d 2eee 8f3c db20 1fbd 552a da3a
000003f0: ab28 9fbd 4752 f03c 4640 2cbe 81b0 893d
0.33821008 0.08475529 0.07888596 -0.03348241 0.73328817 0.7147774 0.5025558 0.038200397
-0.13773485 -0.512809 -0.092978716 -0.24441274 -0.6390695 -0.11551916 -0.7720358 -0.39969176
-0.29510573 -0.048316047 0.25572407 0.2692763 0.057354547 0.3904603 0.6296541 0.28495106
-5.5732894 -0.102819815 1.9483995 0.8346529 -0.13403022 0.060877617 -0.0878025 -0.102584645
0.072521165 -0.14215146 0.058593985 -0.13678698 0.021529661 -0.070621245 0.059689235 -0.06342389
-0.09898597 -0.16481642 -0.09227291 -0.048613805 0.060397048 0.05946199 0.06602418 -0.05991648
0.07909266 -0.1612103 -0.11607037 0.03172312 -0.082028225 0.06555478 -0.14987037 -0.15873668
0.033675198 -0.12632623 0.031209953 -0.12845711 -0.075769655 0.020954097 0.04709759 -0.16213419
0.00319343 0.08440499 -0.105691575 -0.094813585 -0.12350614 -0.08183451 -0.11571273 -0.014287138
0.07271488 -0.119162396 0.08533633 -0.09581943 -0.02621055 -0.006589891 0.024899231 -0.10427595
-0.016425949 0.019724736 -0.0012759867 -0.085015945 -0.13546076 -0.2096397 -0.19409758 -0.1723416
-0.17930053 -0.16360942 -0.080269866 -0.060896244 -0.005259945 -0.015606839 -0.046631925 -0.16921233
-0.2493518 -0.24891967 -0.271905 -0.26704717 -0.2509239 -0.20579514 -0.22495829 -0.17719945
-0.47641116 -0.33210647 -0.17688651 -0.12727991 -0.48594803 0.06835624 -1.0772487 -0.122962244
0.058888286 -0.090793505 -0.047235742 -0.014531732 0.11894633 0.025297895 -0.09034751 0.046011657
-0.11880593 -0.11048981 -0.11387987 -0.03532815 -0.082199596 -0.11327012 -0.055729702 0.094867334
-0.048369795 -0.05879706 0.0031477064 0.12184687 -0.032310545 -0.047768153 0.017963767 -0.11651757
0.030120462 -0.049973756 0.051427484 -0.021155266 0.0116356285 0.03981083 0.079345986 -0.10506572
-0.14097425 0.0015191814 0.039959844 0.062405005 0.0030080944 0.011359023 -0.09517122 0.044921994
0.0406006 -0.14721793 -0.08588023 0.06944403 0.0048119733 -0.062494412 -0.14672618 0.065465376
-0.119460426 -0.14177893 0.0006967256 0.044392996 0.07003264 0.010614886 -0.0075435773 -0.06619554
-0.1380536 -0.14207695 -0.15311886 -0.06846055 -0.092787005 -0.1503025 -0.051825047 0.011421422
-0.023651242 0.018025981 -0.13136289 0.064496785 0.0034223055 -0.12466845 -0.13389611 0.016396146
0.0013081176 -0.084345385 -0.100133374 -0.04505238 -0.09780131 0.02192641 -0.15943703 -0.069675006
0.0059482013 0.07241686 0.12389358 -0.026897874 -0.13864964 -0.10131803 0.07220823 -0.116837785
-0.1208984 0.010043978 -0.011747389 0.08316073 0.05025295 -0.08289251 -0.13905199 -0.093703434
-0.009687277 -0.012333198 0.077379 -0.06302155 -0.103389315 -0.10919339 -0.066501014 0.013345559
0.08021026 0.034658685 -0.13981195 -0.0988146 -0.109774545 -0.046680354 -0.045853328 -0.049519062
-0.08099258 -0.08657314 -0.11787343 0.043890074 -0.014841283 0.0049251304 -0.15343179 -0.102048196
-0.09501476 -0.018594095 -0.012000712 -0.003484239 -0.14885707 -0.017092785 0.016813384 -0.10069217
-0.14975116 0.014088764 -0.040410608 -0.05615389 0.012887343 -0.11938592 -0.0051863696 0.015534195
0.083779134 0.017569628 -0.038849693 0.0016644696 -0.07771429 0.029336108 -0.16821393 0.067231186

fa1.bias f4 [64]
00000000: ed35 eb3d c1d1 5ebd 37c8 873b 14bb bcbd
00000010: 44f7 5f3d 411b 56be b530 c83d ab2a f4bc
00000020: 9145 e9bd a11c 4cbe 52a1 943c 5839 c23c
00000030: 75a8 46be 9c22 04be 58f5 9a3e 62bd 1dbe
00000040: b35e 323d 54eb a93d da44 603d 7d8b 1f3f
00000050: 01f2 1d3f c324 9f3d 4989 43bc e407 e3bd
00000060: 2560 7bbe 2027 1cbe 19a0 2a3f cd03 0f3d
00000070: abfb bb3d 622f 273d 6f1f 54be 1d84 3ebd
00000080: a96e 4cbe 419b 5f3e 4f36 11bd 3363 03bd
00000090: fa85 94bd 44f6 0d3e c6eb 7dbe d486 4fbd
000000a0: 4103 933d 6f12 88be 049f 33be 3991 fbbd
000000b0: e374 f4bd 6f14 dd3c fc95 5bbf 6142 f2bd
000000c0: 5135 8abd d29c 43bc 71ea 1cbe 1af2 563d
000000d0: c569 813f 609c 38be 482e afbd 3b72 b2bd
000000e0: 62a1 303d 6a0b 743c 9c9f 04be df1e 113d
000000f0: 7bda 02bc 99b7 00be 510a 7cbd eced 583d
0.11484895 -0.054399256 0.0041437405 -0.0921537 0.05467917 -0.20908834 0.09774915 -0.029805502
-0.11390222 -0.19932796 0.01814333 0.023708984 -0.19400199 -0.12903827 0.30265307 -0.15404275
0.043547343 0.082968384 0.054753162 0.6232222 0.61697394 0.077706836 -0.011934587 -0.110854894
-0.24548395 -0.152493 0.6665054 0.034915734 0.09178861 0.040816672 -0.20715116 -0.04651271
-0.19964088 0.21836568 -0.035452183 -0.032077026 -0.072521165 0.13863474 -0.24796972 -0.05066569
0.07178355 -0.26576564 -0.17541128 -0.122835584 -0.11936357 0.026987283 -0.85775733 -0.11829067
-0.067484505 -0.011939244 -0.15323807 0.05247698 1.0110403 -0.18028402 -0.08553749 -0.08713194
0.043122657 0.014895299 -0.12951511 0.03542983 -0.00798666 -0.12570037 -0.061533276 0.052961275

fa2.weight f4 [64, 64]
00000000: 2b89 453f 01ef 89bd 09c4 093e e19a 8abf
00000010: 98c7 c43d 64b8 ec3d 8e52 ee3d 8592 8e3d
00000020: 19ed debd 8e07 493e 30dc 923c a3b4 32bc
00000030: c967 10be 904f 123e ae0b 31c0 4b50 623d
00000040: 52b2 8a3c 0e53 76be c29c a73d d859 80bf
00000050: a280 553f 90c1 9bbf 44cf 293c 2731 53bc
00000060: 4a2c d43d f908 14bd 5e6a c83e ee74 49bd
00000070: 2532 5a3e 2e71 0fbf 4b1c 323e 34c0 ecbd
00000080: dd3d da3d 6713 1abe 3486 3d40 4562 183e
00000090: f9ec 263e 418b 0abd a455 0940 90ef 19bc
000000a0: 832c 033d bfae a43f fe58 783d 59c1 39bd
000000b0: b09d 923d 16e1 1939 c765 49be a96e cc3d
000000c0: 4164 a63d 3f0f 913c bc11 463c 9bf0 a83d
000000d0: 3d7b ffbe c121 fcbc 68ba 08bc 0c74 b3be
000000e0: a8a1 ae3d 7f84 adbc 13b0 c53d 6d15 64bd
000000f0: c159 563e 7f68 c03d 2497 173d 21d8 4c3e
00000100: 0544 29bf 8261 ba3d 2dcd aa3d 3729 9bbf
00000110: a802 c2bd 6506 353c 7638 ac3d eadb 943d
00000120: 0af2 3a3d 3afb 303e d3d5 eb3d 4774 5c3d
00000130: 5c44 a53d 4756 9abd e8a6 b73f 4c4e 0d3e
00000140: 9f60 24bd b6d3 b93f 427a 943c 9cdc 183f
00000150: 7ab3 2740 2870 7abf beba a23c 3edd b5bd
00000160: 8b09 a63d dc09 aa3d 2be4 a5bf aa23 a73c
00000170: d0cf 253d b769 70bf d7b0 233e cb22 58bc
00000180: d264 0cbd 7684 98be e4b1 c6bd 69a3 93bd
00000190: 6f68 243e 4016 5e3c a016 193f b0db 523c
000001a0: 537b 7ebd 4497 4f3f ac13 7f3d 5672 233d
000001b0: b93f 303e 4484 043e 102c 1a3e 99c4 4cbd
000001c0: a05c 7abc 9e88 8fbd 7ec4 dbbd 609c 383e
000001d0: 8f52 e6be 05b7 80bd 73d8 1f3d f0da 54be
000001e0: 21e9 c23d 1769 11bd 8c78 043e cea9 48bd
000001f0: c740 533e 0389 453c 54da bcbd 1255 313e
00000200: ab1f dcbe 50e7 c1bc aa2e 9e3d f023 a5bf
00000210: a4bf a93d 8062 413e 0161 933c 07c5 103e
00000220: 109f 08be 2aec f33d 8fe3 073e eee6 52bb
00000230: 5c02 cbbd df8c 703d 8b82 9abf a874 4b3d
00000240: 1a35 283e 6073 8ebe e4e9 a0bb 8c54 873d
00000250: d191 e6be 9a91 6abf 410e 8abd ad0b 2bbc
00000260: db22 c53e e412 5a3d 4341 963e d40d 46bd
00000270: 8853 2e3e 7969 80bf 2bf5 953d dd1f 98bd
00000280: 19be 26bd e19a 813e 0e2e 863e f4d8 c63d
00000290: 0a75 ba3d 49b6 26bc 5ece 6d3f 7222 fabd
000002a0: 911c 30bc eddf 053f 7da1 213d dd93 76bd
000002b0: 7da1 213c d8b1 f13d 1652 9a3e 1360 283e
000002c0: 5124 943d 95d7 d0bc 4093 de3d 8a41 313e
000002d0: fc02 d4be 8d4b a1bc 1cf1 cfbc aa2e 1ebe
000002e0: f709 1b3e 557e 213b 439d cebd 021d 3bbc
000002f0: bd88 473d 6efe eebc 40e9 7a3d 7ec2 063e
00000300: d6c1 9abe e77d ddbd e50c 5b3d b62a c9bd
00000310: 00d0 49b8 7ae2 56bd a4dd 6b3c 324d 953d
00000320: 9c0c bbbd 61ea 803d e40b 8dbd 195f 68bd
00000330: 9ca9 1c3e 341a 33bd fc00 34be 2eb6 b53d
00000340: f788 703d 03e7 4bbd 4be2 023e a1b5 a2bd
00000350: 3b87 89bd 63a8 fdbd aa3f 14be 18fe 54bd
00000360: 54d0 69bd 4557 a13d e0ba 8fbe 793c 9dbd
00000370: 37a1 233d 5d37 34be e2ce ba3d 54f6 293d
00000380: 9659 c93d 26a7 95bd 03f7 f3bd 668e 2c3d
00000390: d101 813d 5e70 dcbc 819f 13bd 7452 2b3d
000003a0: e96f 8abd 6721 1bbe c3ae eb3d 714b 303d
000003b0: acbb 0d3e 3363 033d ca2a a7bc cc09 0e3d
000003c0: e953 9dbd 6e7f 99bc 3897 7a3d 51c5 d5ba
000003d0: bc5e 34bd 12ff 94bd 8393 15bd 4a83 c4bd
000003e0: 9d34 48bc 6a3c 013e d3db 6abd eced d83d
000003f0: a5e2 e33d f356 4ebc d3ac 323c 4a9f 31bd
0.77162427 -0.067350395 0.13453688 -1.0828515 0.09608382 0.11558607 0.1163684 0.0696154
-0.108850665 0.19631788 0.01792726 -0.010907325 -0.14102091 0.14288163 -2.7663379 0.055252355
0.016930733 -0.2405512 0.08184196 -1.0027418 0.83399403 -1.2168446 0.010364357 -0.012890137
0.1036001 -0.03614137 0.39143652 -0.04918378 0.21308191 -0.56032073 0.17393605 -0.11560097
0.10656331 -0.15046464 2.961316 0.14881237 0.16301335 -0.03382421 2.145852 -0.009395495
0.03202487 1.2865828 0.060631745 -0.045350406 0.07158983 0.00014675068 -0.19667731 0.09982044
0.08124591 0.017707465 0.012089189 0.08249017 -0.4989871 -0.030777814 -0.008345224 -0.35049474
0.08526927 -0.021181343 0.09652724 -0.055684496 0.20932676 0.09394931 0.037009373 0.20004322
-0.66119415 0.091006294 0.083399154 -1.2121953 -0.09473163 0.011048888 0.084092066 0.07268508
0.045640983 0.17283335 0.11515393 0.05382183 0.08069679 -0.07535987 1.4347811 0.13799399
-0.040131208 1.4517734 0.018124703 0.59711623 2.6203294 -0.97827387 0.019864436 -0.08880089
0.08107289 0.08302662 -1.2960256 0.020402748 0.04048139 -0.9391131 0.15985428 -0.013191889
-0.034275837 -0.2978856 -0.09701899 -0.072089024 0.16055463 0.0135551095 0.5980015 0.01286976
-0.06212933 0.8109019 0.06227462 0.03990396 0.17211808 0.1294108 0.15055871 -0.049992178
-0.015280873 -0.070084795 -0.10730837 0.18028402 -0.44984862 -0.06284908 0.03902478 -0.20786643
0.09517122 -0.035500612 0.1293661 -0.048990063 0.2063018 0.012056592 -0.0922133 0.17317608
-0.4299291 -0.023669869 0.07723744 -1.2901592 0.08288506 0.18885231 0.017990591 0.1413766
-0.13341928 0.11910279 0.132704 -0.0032181102 -0.099125594 0.058728095 -1.2071089 0.0496718
0.16426507 -0.278224 -0.0049106944 0.06607923 -0.45033124 -0.9162842 -0.06741 -0.010439795
0.38503155 0.05324067 0.29346666 -0.04835303 0.17024052 -1.0032188 0.07322153 -0.074279524
-0.040708635 0.25313476 0.26207012 0.09709349 0.09104355 -0.010175296 0.92893016 -0.12213601
-0.010748998 0.5229481 0.039460648 -0.060199607 0.009865162 0.11801499 0.30140752 0.164429
0.07233489 -0.025493423 0.108679295 0.17310157 -0.41408527 -0.019689346 -0.025383525 -0.15447488
0.1514052 0.002464195 -0.10088589 -0.01142049 0.04871439 -0.029174056 0.0612576 0.1316013
-0.3022601 -0.108150296 0.053479094 -0.098225996 -4.811585e-05 -0.05246208 0.014396105 0.072901145
-0.091332644 0.06294704 -0.068870336 -0.056731317 0.15299076 -0.04372616 -0.175785 0.08872639
0.05872437 -0.049780857 0.12781636 -0.07944799 -0.06715246 -0.12385633 -0.14477411 -0.052000135
-0.057083443 0.078779735 -0.28072262 -0.0767755 0.03994867 -0.17599244 0.09121491 0.041494682
0.0983154 -0.07307272 -0.11912348 0.04212799 0.062991746 -0.02690905 -0.036040787 0.04182668
-0.067596264 -0.1514946 0.115079425 0.043040697 0.13841122 0.032077026 -0.020406146 0.03467731
-0.0768202 -0.018737521 0.06117937 -0.0016309415 -0.04403566 -0.07275213 -0.03651763 -0.09595354
-0.012219575 0.12620702 -0.057338547 0.10592255 0.111272134 -0.0125939725 0.010905462 -0.0433648

fa2.bias f4 [64]
00000000: 7f0b 07c0 a7e4 8cbf 4289 e23e 386d e5bb
00000010: b668 97bf e4a0 efbd b99d f8bd 4c9e 2abf
00000020: 54a9 4d3f 4178 193e baa0 c3bf 546c 37c0
00000030: 0dc2 d7be 1461 f6be d977 42be 4b13 bdbf
00000040: 51ec b9bd 6ee6 2bbf 875d 903e 0bd0 91be
00000050: fca9 b8bf 0a94 80bf e56a 1b40 a854 89bd
00000060: 4588 b9be ea26 babf d99c cabf 50a4 70be
00000070: 6206 263f 24fe 29bf c93f ccbf 2331 11bf
00000080: 00ed 5bbd f3c8 d7bf 9896 b03f d64f f8bc
00000090: dfe8 b9bf 9aa2 e2bd 2392 9fbf 470d 4abf
000000a0: f1c7 89be ca31 14bc 700c 09bd 0747 91bf
000000b0: 72c3 59bf ff50 24bf 8036 8b3f 8b84 02bf
000000c0: 84ea ffbd 452a 3ebf 0df4 75bf 7eb3 cebf
000000d0: 72df 00bf 5ea9 1d3e 5341 cfbd a912 cabf
000000e0: 8341 8b3e d59a e13f acbd 62bf 43d2 05bf
000000f0: 5086 aebf e3e4 a8bf f8d2 093f d2c3 a7be
-2.1100767 -1.1007279 0.44245344 -0.0070015453 -1.182883 -0.11700609 -0.12139458 -0.6664779
0.803365 0.1498728 -1.5283425 -2.8659868 -0.42140236 -0.4812094 -0.18991031 -1.4771513
-0.09078277 -0.6714848 0.28196356 -0.28479037 -1.4426875 -1.0045178 2.4283993 -0.067056
-0.36236778 -1.4543126 -1.5829116 -0.2350018 0.6485349 -0.6640341 -1.5956966 -0.567156
-0.053692818 -1.68582 1.3795958 -0.030311506 -1.4524192 -0.1106617 -1.2466472 -0.7892651
-0.26910356 -0.009045074 -0.033459127 -1.1349801 -0.8506385 -0.6418609 1.0876007 -0.50983495
-0.12495902 -0.7428325 -0.96075517 -1.6148527 -0.5034095 0.1539664 -0.101198815 -1.5786945
0.2719842 1.7625376 -0.88570666 -0.5227396 -1.3634739 -1.3194851 0.5383754 -0.32766587

fa3.weight f4 [2, 64]
00000000: 60f8 62c0 1cf3 a2c0 02af 9f40 0526 793d
00000010: f7e7 2e40 d62b cdbf d192 6d40 2faa 37c0
00000020: 2a8d 9cbf 2638 a83e a17b 8a40 65bb f5bf
00000030: 676e 97c0 3baa 8cbf 9813 1c40 51a9 683f
00000040: ba28 bbbd 0eab 86bf 35a2 8ec0 3cf0 8640
00000050: 2f5e bc40 35d5 67c0 641f 07c0 e3b4 4340
00000060: fa2e 083f 72f1 69be 6c79 4dc0 3cd8 3d3f
00000070: 80fe 8c40 280d 9240 47f1 5cc0 10ce a140
00000080: 7f4e b540 d91b 27c0 cbfc 4040 0061 c23c
00000090: bea9 acc0 2cb7 8dc0 4285 8b3c c53b 5bbf
000000a0: 80fb 2ebe e1ca 85c0 9183 c2bd d90e 7740
000000b0: 5ac7 213e c740 53bf 1497 5d3f beba a2be
000000c0: 9dac d0bc 2ab8 c340 c262 a2c0 262b 21c0
000000d0: 21e6 8540 b2da 8640 5877 1b3c 1b60 a73f
000000e0: 43a8 45bf 12c5 2a40 9cec 7ec0 bed9 06c0
000000f0: 0f06 9bbe 20c6 08c0 d652 0740 515e c340
00000100: f60b 873e 0ff4 3a3f 3665 883d 4c3d 173d
00000110: 3d2b a13f d1f1 bfbe f5dc 8bbf 384c d5bf
00000120: d6b7 97bf df06 fb3f daa3 1ec0 e606 68bf
00000130: a3a1 073f 6f8f 88bf 4441 b3bc e381 0a40
00000140: 6256 0bbb 2c5d 7640 0c6e ae3e dbd3 bfbf
00000150: 4485 f83f 56fc 91c0 4c00 833e 8623 a6bf
00000160: bf0b 83bf 5f4c 1b40 127c 1ac0 ab13 7fbe
00000170: bdfd ae3f f416 20be 1852 1cc0 97ac 9d3d
00000180: a70c a5bf 5793 08c1 70f2 f03f 65d5 e6ba
00000190: 30d1 bfbf 1ffb 6dbe 8d02 d1bf ff7f 5c40
000001a0: bc54 97bb 6e23 9c3f f493 a0bc 96d6 abbf
000001b0: 8b0d a3be 95a8 1840 f301 353f c856 c1bf
000001c0: c20e 31b9 d6d2 0fbf 8fce 8ebf fcb6 a9bf
000001d0: ef9b 2d3f 2edc 11be 0682 bfbb 5c8d d0bf
000001e0: 0c4a 2c40 8645 9b3f 6bfa fd3f a47f 1b40
000001f0: 5678 22c0 b9b1 39c0 22a7 7240 5198 f2bc
-3.5464096 -5.0921764 4.9901133 0.060827274 2.732908 -1.6029003 3.712086 -2.8697622
-1.223058 0.32855338 4.3275914 -1.9197813 -4.732227 -1.098945 2.438696 0.90883356
-0.09138627 -1.0520952 -4.4573007 4.2168255 5.886497 -3.6223881 -2.111291 3.0579154
0.5319668 -0.2284601 -3.210536 0.7415807 4.406067 4.564106 -3.4522264 5.056404
5.665832 -2.6110747 3.0154293 0.023727894 -5.3957205 -4.42861 0.017031316 -0.85638076
-0.17088127 -4.1810155 -0.094977506 3.8602812 0.15798703 -0.8252072 0.8655865 -0.31783098
-0.025472933 6.116231 -5.0745554 -2.5182586 4.184342 4.214196 0.009488903 1.3076204
-0.7720987 2.6682782 -3.9831915 -2.10704 -0.3027806 -2.1370926 2.114431 6.105263
0.26376313 0.73028654 0.066599295 0.03692369 1.259132 -0.3748918 -1.0926806 -1.6663885
-1.1852977 1.9611472 -2.4787507 -0.90635526 0.52981013 -1.0668772 -0.021881707 2.1641777
-0.0021261205 3.8494368 0.34068334 -1.4986528 1.941567 -4.5620527 0.25586164 -1.2979591
-1.023796 2.4265363 -2.4138227 -0.24909846 1.3671185 -0.15633756 -2.4425106 0.076989345
-1.2894486 -8.535972 1.8823986 -0.0017611204 -1.4985714 -0.23240326 -1.6328903 3.4453123
-0.0046182554 1.2198312 -0.0196018 -1.3424861 -0.3184627 2.3852894 0.707061 -1.5104609
-0.00016885533 -0.56181085 -1.1156787 -1.3258967 0.6781606 -0.14244148 -0.0058443574 -1.629314
2.6920195 1.2130592 1.9842046 2.4296656 -2.5385947 -2.9014723 3.791451 -0.029613646

fa3.bias f4 [2]
00000000: 0e12 5240 0c0f 023e
3.282352 0.12701052
