src/Models/trained/3850_critic.pt (torch_old, 22186 bytes, 7 tensors)

fc1.weight f4 [32, 28]
0	0xbd2345cd	-0.03986149
1	0xbfb61e4e	-1.4227998
2	0xbf9f0a27	-1.2424973
3	0xbf194f2e	-0.59886444
4	0x3d40ac11	0.047039095
5	0x3ef313a2	0.47475916
6	0x3de1e786	0.11030488
7	0x3eaf988c	0.34296072
8	0x3f263edf	0.64939684
9	0x3f40767b	0.75180787
10	0x3f1cd51d	0.61262685
11	0x3efc88f8	0.4932325
12	0x3e1643b3	0.14674263
13	0xbe0f3774	-0.13985997
14	0xbe9c5557	-0.3053386
15	0xbef805cd	-0.48441926
16	0xbefbcff7	-0.49182102
17	0x3ec5521f	0.38539216
18	0xbda7b2e0	-0.081884146
19	0x3f8cd059	1.1001083
20	0x3eeb7407	0.4598696
21	0x3e6fa4ff	0.23402785
22	0xbe75e738	-0.24013984
23	0xbd4a9c3d	-0.049465407
24	0x4023835c	2.5548925
25	0x3d48380e	0.048881583
26	0xc0654892	-3.5825543
27	0xc029bc3a	-2.6521134
28	0xbed91893	-0.4240156
29	0xbe92efac	-0.2869848
30	0xbd8802e1	-0.06641174
31	0x3d545cde	0.051846378
32	0x3ea0542c	0.31314218
33	0x3e8345d6	0.25639218
34	0x3e06dbfb	0.13169853
35	0x3e20ec8d	0.15715237
36	0xbd07f7c8	-0.033195287
37	0x3cff16be	0.031138774
38	0x3d3dde81	0.046354774
39	0x3d13dcd1	0.03609926
40	0xbe373b01	-0.17893602
41	0xbe12db01	-0.14341356
42	0xbe6149b3	-0.2200077
43	0xbe3a6e5b	-0.1820616
44	0xbe061b2a	-0.130963
45	0xbea9ab8d	-0.33138695
46	0xbdb1cff9	-0.08682246
47	0x3d8b5513	0.06803336
48	0x3f0bd61d	0.54623586
49	0x3f4b9a2d	0.7953213
50	0xbd010374	-0.031497434
51	0xbef2e950	-0.47443628
52	0xc018ec0c	-2.3894072
53	0xbe4b23bf	-0.19837855
54	0x40924b5a	4.571698
55	0x3e232100	0.15930557
56	0xbdd20846	-0.10255484
57	0xbe27e312	-0.16395214
58	0xbceb4933	-0.028721428
59	0x3d86ce36	0.065823
60	0xbe271021	-0.16314746
61	0xbe52798e	-0.20554182
62	0x3b959f3b	0.004566101
63	0xbe027103	-0.12738423
64	0xbe0c11e3	-0.13678698
65	0xbad9a584	-0.0016605114
66	0xbcddeb48	-0.02708973
67	0xbca2bea6	-0.019866299
68	0xbe2ac175	-0.1667536
69	0xbdf42e93	-0.11922946
70	0x3e027cbb	0.12742893
71	0xbe17b665	-0.14815672
72	0x3adf27b1	0.0017025379
73	0xbe1f3463	-0.15547328
74	0xbc85c0ad	-0.016327227
75	0xbe1df02a	-0.15423647
76	0x3daa291c	0.08308622
77	0xbd647afd	-0.055781353
78	0xbe00dac1	-0.12583448
79	0x3dfb52b9	0.122716375
80	0x3e011559	0.126058
81	0x3d94fb2a	0.07274468
82	0x3c82ab9b	0.015950968
83	0xbd01f01a	-0.03172312
84	0xbf590f3d	-0.84788877
85	0xbee26e86	-0.44224948
86	0x3e030b16	0.12797198
87	0x3e643e99	0.22289504
88	0x3f589e28	0.8461633
89	0x3ee0f49d	0.43936625
90	0x3f37f527	0.7185845
91	0x3eec14a6	0.46109504
92	0x3dca7bbb	0.09886881
93	0xbed63031	-0.41833642
94	0xbe2c82cc	-0.1684677
95	0x3d8439c5	0.06456331
96	0xbf0b8be2	-0.5451032
97	0x3e73b72f	0.23800348
98	0xbeb0c00a	-0.34521514
99	0x3e40699e	0.1879029
100	0xbec90c2c	-0.392671
101	0xbf31541b	-0.6926896
102	0x3ea4f354	0.32216895
103	0x3fb668f0	1.4250774
104	0x400230c3	2.0342262
105	0x3f602069	0.87549454
106	0xbf5a58cb	-0.8529174
107	0xbf24df2c	-0.64403033
108	0xc00b9daf	-2.1814992
109	0xbefb80e2	-0.49121767
110	0xbf623e90	-0.8837671
111	0x3f759fbc	0.9594686
112	0xbd48fd62	-0.04906977
113	0xbe9b46ad	-0.3032736
114	0x3d79474f	0.06085902
115	0x3e148b7a	0.14506331
116	0x3e9e6dc5	0.30943123
117	0x3dad2081	0.08453465
118	0x3e00c1c7	0.1257392
119	0x3d31d2fc	0.0434141
120	0x3db5985c	0.08866951
121	0x3df04ede	0.11733793
122	0x3e7a7add	0.24460931
123	0x3e7f2092	0.24914768
124	0x3cbeddb6	0.02329908
125	0x3e1bf082	0.15228465
126	0x3e283010	0.16424584
127	0x3ed311c4	0.41224492
128	0x3ed34999	0.41267088
129	0x3e9b553f	0.30338475
130	0x3e2eefb5	0.17083628
131	0x3e839c12	0.2570501
132	0x3e7c232f	0.24622796
133	0xc0c5234c	-6.1605587
134	0x3dc407dd	0.09571812
135	0x3dd54ac8	0.10414654
136	0xbfbe2ec8	-1.4858027
137	0xbd342856	-0.04398378
138	0xbef2e4a7	-0.47440073
139	0xbf2337a6	-0.6375679
140	0xbf64c6a7	-0.8936562
141	0x3feaffb0	1.835928
142	0x402e8262	2.726708
143	0x3f798b5c	0.9747827
144	0xbe2d3d21	-0.1691785
145	0x3e5f3894	0.21798927
146	0xbf93e88d	-1.1555344
147	0x3d807fc2	0.06274368
148	0xbf36bf86	-0.7138599
149	0xbdd98af3	-0.106222056
150	0x3e691c36	0.22764668
151	0x3e8ada8f	0.27119872
152	0xbdc8806a	-0.09790118
153	0xbe31e0b3	-0.17370872
154	0xbe6b82ab	-0.22999065
155	0xbe1989d1	-0.14993979
156	0x3e21961b	0.15779917
157	0xbe908fd2	-0.28234726
158	0xbf39c519	-0.7256637
159	0xbe84648d	-0.25857964
160	0xbe8f5343	-0.2799321
161	0x3f83e7f4	1.0305161
162	0x3f4404df	0.7656993
163	0xbf634a53	-0.88785285
164	0xbff50c0b	-1.91443
165	0x3d9f5141	0.0777917
166	0x3f26382c	0.6492946
167	0x3fcb307b	1.587417
168	0x3c858ecc	0.016303442
169	0x3e0a263d	0.13491149
170	0x3dc98927	0.09840613
171	0x3e9b8070	0.30371428
172	0x3e50fb20	0.20408297
173	0x3e30bd8b	0.17259805
174	0x3e5d549d	0.21614309
175	0x3e8a8c0b	0.2705997
176	0x3e74f5a1	0.23921825
177	0x3e984b49	0.29744938
178	0x3e9842bf	0.29738423
179	0x3e8c6e56	0.2742793
180	0x3e7c2436	0.24623188
181	0x3e88764f	0.26652762
182	0x3daad42a	0.08341248
183	0x3d0e2f97	0.034713354
184	0x3dc0ed8a	0.09420307
185	0xbd234d43	-0.039868604
186	0xc0ad88e8	-5.422962
187	0xbf038ed6	-0.51389825
188	0x3ea2e931	0.31818536
189	0xbf1faa92	-0.62369645
190	0xbe0c7bc6	-0.13719091
191	0xbd2b33f5	-0.041797597
192	0x3f5e6295	0.86869174
193	0xbd4e0191	-0.050294463
194	0xc026bceb	-2.6052806
195	0xbfe82280	-1.8135529
196	0x3eb2ae37	0.3489854
197	0x3f291daf	0.6606092
198	0x3f157ec3	0.5839655
199	0x3f2e7738	0.68150663
200	0x3e1d245b	0.153459
201	0x3dbb4da5	0.09145669
202	0xbe7d1d0e	-0.24718115
203	0xbec78ec0	-0.38976097
204	0xbef0e575	-0.47050062
205	0xbe97fb4d	-0.29683915
206	0xbe9dd6a8	-0.30827832
207	0xbe5a8870	-0.2134111
208	0x3e992699	0.2991226
209	0x3e2ae2b1	0.16688038
210	0x3e78b98a	0.24289528
211	0x3e3f70eb	0.18695419
212	0xbe0f4bc1	-0.13993742
213	0xbefeacb1	-0.49741128
214	0xbd75a62c	-0.059972927
215	0xbac04a73	-0.0014670625
216	0x3ec0a20b	0.3762363
217	0x3ef62c01	0.48080447
218	0x3f953e37	1.1659611
219	0x3f094ed4	0.5363591
220	0x40a0d518	5.0260124
221	0xbea608ff	-0.32428738
222	0x408c1381	4.377381
223	0x3f8c5816	1.0964382
224	0x3ec89a8e	0.39180416
225	0xbf442b22	-0.76628315
226	0xbfa76042	-1.307625
227	0xbfbcb1fb	-1.4741815
228	0xbf4baf5f	-0.7956447
229	0xbf15e816	-0.5855726
230	0x3d3c7d0f	0.046017703
231	0x3e532331	0.20618893
232	0x3eb08f42	0.34484297
233	0x3f35bb1f	0.7098865
234	0x3f23629a	0.6382233
235	0x3f449127	0.76783985
236	0x3f698a59	0.91226727
237	0x3f72d5e6	0.94857633
238	0x3eea07e8	0.45709157
239	0x3ea9e7de	0.33184713
240	0x3e99990b	0.29999575
241	0xbe3e6eee	-0.18597004
242	0xbf11c713	-0.5694439
243	0xbf2add4d	-0.6674393
244	0xbf0fb71a	-0.56138766
245	0xbf0b886e	-0.5450505
246	0x3d8d6c04	0.06905368
247	0x3ea5074a	0.32232124
248	0x402f8e56	2.7430625
249	0x3b5c737e	0.0033638175
250	0x4080fd3d	4.030913
251	0xbeeed8dc	-0.46649826
252	0xbf0fcca1	-0.56171614
253	0x3eb1a467	0.34695742
254	0xbe55fbe3	-0.20896868
255	0x3eabea21	0.33577064

fc1.bias f4 [32]
0	0xbe88e494	-0.2673689
1	0x3e2cc956	0.16873679
2	0xbd123050	-0.035690606
3	0x3fdfe36f	1.7491282
4	0x3e5dcd11	0.21660258
5	0x3ff5878e	1.9181993
6	0xbfba30ce	-1.4546144
7	0x3f4797a9	0.7796579
8	0x3f4a7528	0.79085016
9	0x3fa70a52	1.3050025
10	0xbf07dabc	-0.5306814
11	0x3f9b03dc	1.2110553
12	0xbe48c13e	-0.19604966
13	0x3b8307a4	0.0039987136
14	0xbfb5fe5f	-1.4218253
15	0x3ed44974	0.4146229
16	0x3fd2c6df	1.6466941
17	0x3f5ff687	0.87485546
18	0x3f4e7aa8	0.8065591
19	0x3ed5befd	0.41747275
20	0x3f56a65d	0.838476
21	0x3ce7130f	0.02820733
22	0xbe58e101	-0.21179582
23	0xbf9eeb2a	-1.2415516
24	0xc00ec1bd	-2.2305748
25	0x3e5185fd	0.20461269
26	0xbea4a16a	-0.321544
27	0xbfbf7e7b	-1.4960474
28	0x3fa44d1c	1.2836032
29	0x3f85507f	1.041519
30	0x3f31d839	0.69470555
31	0x3f3f0e95	0.74631625

fa1.weight f4 [32, 2]
0	0xbd46adfc	-0.04850577
1	0xbe1e4c47	-0.15458785
2	0xbddbad0e	-0.10726367
3	0x3dac9a7e	0.084279045
4	0x3e0ee585	0.13954742
5	0x3d013400	0.03154373
6	0x3f46ad20	0.7760792
7	0xbeb185d7	-0.34672424
8	0x3e2385de	0.15969035
9	0x3d366b80	0.044536114
10	0xbfb48692	-1.4103568
11	0xbdf1a793	-0.1179954
12	0x3ee5a683	0.448536
13	0x3f427521	0.75959975
14	0xbd42e260	-0.04757917
15	0xbd303148	-0.04301575
16	0x3f96a937	1.177039
17	0xbda56327	-0.080755524
18	0x3efccbb9	0.49374178
19	0x3e94633b	0.28981957
20	0x3f9072e4	1.1285062
21	0xbf00e4e2	-0.5034925
22	0xc09f16be	-4.971526
23	0xbff3daeb	-1.9051183
24	0x3e087f27	0.13329755
25	0xbc8fc8c8	-0.017551795
26	0x3f1c32ee	0.6101521
27	0xbed6fa6d	-0.41987935
28	0xbd9486d5	-0.0725228
29	0xbdbf3edb	-0.093381606
30	0x3dc57963	0.09642293
31	0x3db1512a	0.08658059
32	0xbe12ec18	-0.14347875
33	0xbd6821da	-0.05667291
34	0x3d99e566	0.075144574
35	0x3d95ded8	0.07317895
36	0x3cc4faa8	0.024045303
37	0xbd6f18e8	-0.05837336
38	0xbd2fb25c	-0.042894706
39	0xbd67792a	-0.056512035
40	0xbf26aa7e	-0.651039
41	0x3f318004	0.6933596
42	0xc014b703	-2.3236701
43	0xbeabf28c	-0.33583486
44	0xbdece1ff	-0.11566543
45	0x3e1f2787	0.15542422
46	0x3f481907	0.7816319
47	0x3f404f3b	0.75120896
48	0xbc38bd10	-0.011275545
49	0xbdbd69de	-0.09248708
50	0xbdc58726	-0.09644918
51	0xbd065564	-0.03279628
52	0x3f4dcf31	0.80394274
53	0x3e33f03a	0.17572108
54	0x3dd2c156	0.10290782
55	0xbdb14b07	-0.086568885
56	0xbe1c534c	-0.1526615
57	0xbd269728	-0.040671498
58	0x3fa2f062	1.2729609
59	0xbeaa3642	-0.3324452
60	0xbf04baca	-0.5184752
61	0x3f379b36	0.7172121
62	0x3df00cca	0.11721189
63	0x3d32ec20	0.043682218

fa1.bias f4 [32]
0	0xbf2ccf0f	-0.67503446
1	0xbe7f33a0	-0.24922037
2	0xbf17070c	-0.5899513
3	0x40081f16	2.1268973
4	0xbf1a3ed7	-0.60252136
5	0x3fc3d7a9	1.5300189
6	0x401ea2b4	2.4786806
7	0xbf3480a5	-0.70508796
8	0x3fe5697d	1.7922817
9	0x40182e03	2.3778083
10	0x400d3358	2.2062588
11	0x3fdb413a	1.712928
12	0xbf10a1df	-0.56496996
13	0x4000e7fc	2.0141592
14	0xbf240c11	-0.6408091
15	0xbe4e6693	-0.20156316
16	0xbf19fa35	-0.6014741
17	0xbe3018ec	-0.17197007
18	0xbf073fa0	-0.5283146
19	0xbe0c4ddc	-0.13701576
20	0x4021815d	2.5235207
21	0x3f9b6219	1.2139312
22	0xbf127ff3	-0.57226485
23	0x3fe98f83	1.8246921
24	0xbece49a6	-0.40290564
25	0xbea69d1a	-0.32541734
26	0x4014f1f0	2.3272667
27	0xbec25ab5	-0.3795983
28	0xbf2d542e	-0.67706573
29	0x4016ad76	2.3543372
30	0x3e9615bc	0.29313457
31	0xbe61c042	-0.22045997

fca1.weight f4 [64, 64]
0	0x3ee28b17	0.44246742
1	0xbf289302	-0.65849316
2	0x3d1e9822	0.038719304
3	0x3e874708	0.2642138
4	0xbea3203c	-0.3186053
5	0x3f285155	0.657491
6	0xbed67ce4	-0.4189216
7	0x3ec00cbe	0.37509722
8	0xbeecf408	-0.4627993
9	0x3f03ed1d	0.5153368
10	0xbe44a749	-0.19204439
11	0x3fc2906f	1.5200328
12	0x3dbabf42	0.09118511
13	0xbdeb3808	-0.114852965
14	0x3eb546f7	0.35405704
15	0x3e5aa733	0.21352844
16	0xbdb0d751	-0.08634818
17	0xc00e9c35	-2.2282841
18	0x3f272b4a	0.6530043
19	0xbf89f877	-1.077895
20	0xc03edaf7	-2.9821146
21	0x3e374c6f	0.17900251
22	0x3dbfbca6	0.09362154
23	0xbf26ee7a	-0.65207636
24	0xbfeca77c	-1.8488612
25	0x4069237a	3.6427903
26	0x3f0da162	0.55324376
27	0xbf4bb7e2	-0.7957746
28	0x3e9202c0	0.28517723
29	0x3eaaa8d0	0.3333192
30	0x3f3467d9	0.7047096
31	0x3f730bd1	0.94939905
32	0xbd7582c4	-0.05993916
33	0xbdf43a5e	-0.11925195
34	0x3d8b8678	0.06812757
35	0x3d685253	0.056719135
36	0x3d02dbb4	0.031947806
37	0xbd79de96	-0.06100329
38	0xbe92d379	-0.28676966
39	0xbd2b6e9c	-0.041853532
40	0xbe4a10a2	-0.19732907
41	0xbe8c427d	-0.27394477
42	0xbd48d12f	-0.049027618
43	0x3fc48a66	1.5354736
44	0x3d8cddde	0.06878255
45	0xbd30ae79	-0.04313514
46	0xbd360a38	-0.04444334
47	0x3abfff06	0.0014648146
48	0x3db53eb4	0.0884985
49	0x3db0ff22	0.08642413
50	0x3d6486b5	0.05579253
51	0xbdbdbe9e	-0.09264873
52	0xbeb53afe	-0.3539657
53	0xbe7bc923	-0.24588446
54	0xbdf32e6e	-0.1187409
55	0xbebecb68	-0.37264562
56	0xbb63fac0	-0.003478691
57	0xbc6bdf70	-0.014396533
58	0xbe4c9a3b	-0.19980709
59	0x3d8d952a	0.069132164
60	0xbd36345c	-0.044483528
61	0xbd5a8925	-0.053353447
62	0xbe98a74a	-0.2981513
63	0xbdb5c5ce	-0.08875619
64	0xbd2c3c5e	-0.042049758
65	0xbcfb8199	-0.030701445
66	0x3d38ec68	0.04514733
67	0xbe0518b5	-0.12997706
68	0x3d3a1f24	0.045439854
69	0x3c6620df	0.014045923
70	0x3dc9b24a	0.09848459
71	0x3d837aa3	0.064198755
72	0xbc922880	-0.017841578
73	0x3c914dbf	0.017737268
74	0x3d54c380	0.051944256
75	0xbce50f6e	-0.027961459
76	0x3df766cd	0.120801546
77	0xbdfe5ffb	-0.124206506
78	0xbd938041	-0.07202197
79	0xbced25c5	-0.028948674
80	0xbd220325	-0.03955378
81	0xbaba1f1a	-0.0014199943
82	0x3da8351a	0.08213253
83	0xbce6307f	-0.028099297
84	0x3dd3c1af	0.103396766
85	0xbc0d15d0	-0.008611158
86	0x3c81637a	0.015794504
87	0xbd46f834	-0.04857655
88	0xbd949d6a	-0.07256587
89	0xbd87e38f	-0.066352
90	0xbe1f960b	-0.1558458
91	0xbd9dd0ea	-0.07705863
92	0xbdfb4319	-0.12268657
93	0x3cd51588	0.026011243
94	0xbdff8cc4	-0.12478021
95	0xbdc8925e	-0.09793542
96	0x3d6f2196	0.05838164
97	0x3db91c3e	0.0903859
98	0x3dde5e3a	0.10857816
99	0xbdf8706e	-0.12130819
100	0xbd2b249c	-0.04178296
101	0x3d05534d	0.032550145
102	0xbd8278d3	-0.06370702
103	0x3dedf1d8	0.11618394
104	0x3d27622a	0.0408651
105	0xbdc060af	-0.09393441
106	0xbe018a8a	-0.12650505
107	0xbdcdc66a	-0.1004761
108	0xbd12c27c	-0.035830006
109	0x3d5c223e	0.053743593
110	0x3c85d948	0.01633896
111	0xbd4f1328	-0.05055538
112	0xbdf7090d	-0.12062273
113	0x3da66766	0.081251904
114	0xbd8d72da	-0.06906672
115	0x3d10d88f	0.035362776
116	0xbdb92131	-0.09039534
117	0x3d40222f	0.0469076
118	0x3b8384a0	0.004013613
119	0xbce81cb0	-0.028333992
120	0x3d2d533c	0.042315707
121	0x3d97b776	0.07408039
122	0xbe0a25b1	-0.1349094
123	0x3daaf055	0.08346621
124	0xbd971ed6	-0.07378928
125	0xbbd5c169	-0.0065233004
126	0x3c2e7450	0.010647848
127	0x3d8bb74a	0.06822069
128	0x3f3ba325	0.73295814
129	0x3df1e8d4	0.118119866
130	0x3d952a0a	0.07283409
131	0x3daf2bb6	0.08553259
132	0xc063ddb5	-3.560407
133	0x3efc8083	0.49316797
134	0xc03e51c7	-2.9737413
135	0x3efe7593	0.49699077
136	0xbb9769db	-0.0046207733
137	0x3d8022ad	0.06256614
138	0xbe1164e3	-0.14198641
139	0xc0183c03	-2.3786628
140	0x3d959383	0.07303526
141	0x3f8b4429	1.0880176
142	0x3f100923	0.5626394
143	0x3ef20f24	0.47277176
144	0x3ed0efc3	0.40807924
145	0xc08e858a	-4.453801
146	0x3d9d6d60	0.07686877
147	0xc00a4597	-2.1604974
148	0x40030db8	2.0477123
149	0xbcc0687f	-0.023487328
150	0x3f80ca62	1.0061762
151	0x3f22a6ef	0.6353597
152	0x3f977ecb	1.1835569
153	0xbf37bbf1	-0.7177115
154	0xbe30d296	-0.17267832
155	0xbcac6bb3	-0.021047449
156	0x3dd370bc	0.10324237
157	0xbebe9680	-0.37224197
158	0xbdcac3b6	-0.0990061
159	0xbf10cfb4	-0.5656693
160	0x3d423df4	0.047422364
161	0xbdbc2a8b	-0.09187802
162	0xbda93390	-0.08261788
163	0xbe812901	-0.25226596
164	0xbc114dc0	-0.008868635
165	0xbed33b3d	-0.41256133
166	0x3d11bcbb	0.035580378
167	0x3deb4a6e	0.11488806
168	0xbe73eabc	-0.23820013
169	0xbe37a511	-0.17934062
170	0xbe82421f	-0.2544107
171	0x3e5baa03	0.21451573
172	0x3d563d68	0.052304655
173	0xbe51e6e4	-0.20498234
174	0xbca19b10	-0.01972726
175	0x3d9e51d2	0.0773045
176	0x3dcb9690	0.09940827
177	0xbd05a750	-0.032630265
178	0x3d3f63e0	0.046726108
179	0xbc6891f0	-0.01419495
180	0xbce78fdf	-0.028266845
181	0xbf87f1d2	-1.0620673
182	0x3c313350	0.0108154565
183	0x3e4a4807	0.19754039
184	0x3c25df70	0.010124072
185	0x3d08aa30	0.03336543
186	0xbe734947	-0.23758422
187	0x3da123c0	0.07868147
188	0x3dd6a7e2	0.1048124
189	0xbe5a7504	-0.213337
190	0x3ef35e1d	0.4753274
191	0xbd875307	-0.06607633
192	0xbe4f8d47	-0.20268737
193	0xbe93c03c	-0.288576
194	0xbd99db6e	-0.07512556
195	0xbdbe89ed	-0.09303651
196	0xbf555cba	-0.83344615
197	0x3df71f98	0.12066573
198	0xbf96a940	-1.1770401
199	0xbdd53d21	-0.1041205
200	0xbd6a028e	-0.057131343
201	0xbe25ed56	-0.16203818
202	0x3dde9304	0.10867885
203	0xbfe7def3	-1.8114914
204	0xbc5d916f	-0.013523444
205	0x3dc3770c	0.09544191
206	0xbde54b9a	-0.111960605
207	0x3d6b2d4a	0.057416238
208	0x3d758062	0.05993689
209	0xbe87bea4	-0.26512635
210	0x3d9fb0f7	0.07797425
211	0xbf11df02	-0.5698091
212	0x3f2fd82f	0.68689245
213	0xbce5abae	-0.028035965
214	0x3fae94c2	1.3639147
215	0x3e1b7b38	0.15183723
216	0xc00d6a89	-2.2096274
217	0x406050df	3.504936
218	0x3e343c31	0.17601086
219	0x3cac3c22	0.021024767
220	0x3e9c502d	0.3052992
221	0x3eaaec92	0.33383614
222	0xbe0f16af	-0.13973497
223	0x3e27d46c	0.16389626
224	0x3cb30830	0.02185449
225	0xbd5d45e0	-0.054021716
226	0xbdec56bc	-0.11539981
227	0xbef52cbb	-0.4788569
228	0xbd9bc24a	-0.07605417
229	0xbfb74004	-1.4316411
230	0x3f1928ad	0.5982769
231	0xbde82582	-0.11335279
232	0xbe8e95df	-0.27848718
233	0x3e02e345	0.12782009
234	0xbf58b9e6	-0.8465866
235	0xc00c9ff4	-2.1972628
236	0x3c7d37a0	0.015455157
237	0xbf5fa693	-0.8736355
238	0xbdc86d30	-0.09786451
239	0x3dbc74c4	0.09201959
240	0xbc19a430	-0.009377524
241	0x3cb18028	0.021667555
242	0xbcb197f8	-0.02167891
243	0xbd52ead6	-0.05149349
244	0x3ed5099e	0.416089
245	0xc084fff3	-4.156244
246	0x3b401380	0.0029308498
247	0x3f69bfb0	0.91308117
248	0xbd8c4b3c	-0.06850287
249	0xbd6cc804	-0.057807937
250	0x3de440f0	0.11145198
251	0x3d1f22a4	0.038851395
252	0xbd323814	-0.04351051
253	0xbf27da49	-0.6556745
254	0x3f60718b	0.8767325
255	0xbba36000	-0.0049858093

fca1.bias f4 [64]
0	0xbe3ca0fd	-0.18420787
1	0xbe0b4aaa	-0.13602701
2	0xbed83d7f	-0.42234418
3	0xbeaf85d7	-0.342818
4	0xbe14a51f	-0.14516114
5	0x3fae29b9	1.3606483
6	0x3f818e20	1.0121498
7	0x3fc0e9bf	1.5071334
8	0x3fad98b8	1.3562231
9	0x3f1ea585	0.6197131
10	0xbe911f7e	-0.2834434
11	0xbefaf692	-0.49016243
12	0x3c06a4d4	0.008218009
13	0xbda2ab1e	-0.07942794
14	0xbdbcc0e3	-0.09216478
15	0xbd97ed15	-0.07418267
16	0x3ce847eb	0.028354606
17	0x3d9c3cce	0.07628785
18	0xbeda2abf	-0.42610738
19	0x3f91b0f6	1.1382129
20	0x3d87b897	0.066270046
21	0xbe00afc8	-0.12567055
22	0xbee41306	-0.44545764
23	0xbe5047e1	-0.2033992
24	0xbe8a36b2	-0.26994854
25	0x3b88a7a0	0.004170373
26	0xbe3045da	-0.17214146
27	0xbe65b9d2	-0.22434166
28	0xbd483c6d	-0.04888575
29	0xbca1e3e5	-0.019761989
30	0xbe64263d	-0.22280212
31	0x3f5b0e7e	0.8556899
32	0xbea38d23	-0.31943616
33	0xbf11d71c	-0.56968856
34	0x3fe1f13c	1.7651744
35	0xbf1ccf0b	-0.6125342
36	0xbd2b59cd	-0.041833688
37	0x3d876ba7	0.0661233
38	0xbe418704	-0.1889916
39	0xbedee818	-0.43536448
40	0xbecc5291	-0.39906743
41	0xbee6c4db	-0.45072064
42	0xbe9e0e64	-0.30870354
43	0xbe36cb87	-0.17851077
44	0xbe8d7337	-0.27626964
45	0xbbf5dcb4	-0.0075031165
46	0x3d8b034a	0.06787737
47	0xbe947e99	-0.29002836
48	0xbef478fd	-0.47748557
49	0xbf11b6b0	-0.56919384
50	0x3cbf1c76	0.023329
51	0xbe5bea98	-0.21476209
52	0xbd58a83f	-0.052894827
53	0x3c041c12	0.008063333
54	0xbeb3908b	-0.35071215
55	0xbe6f0161	-0.2334037
56	0x3cf51cdb	0.029920986
57	0x3e97f411	0.29678395
58	0xbed04747	-0.4067938
59	0x3f66f3f4	0.9021599
60	0xbeca272d	-0.39483014
61	0xbee78d8f	-0.45225188
62	0xbd81ddb8	-0.063411176
63	0xbf20b1bb	-0.62771195

fca2.weight f4 [1, 64]
0	0xbfa64a2f	-1.2991389
1	0xbcbfd40e	-0.023416545
2	0xbf4125a7	-0.7544808
3	0xbf66db5c	-0.90178466
4	0xc1b5f4a5	-22.744455
5	0x40322aa7	2.7838533
6	0x40408e71	3.008694
7	0x4025b053	2.588887
8	0x3fb558a1	1.4167672
9	0xc205e2d3	-33.471508
10	0xbf0b7026	-0.54468
11	0xbf3de63f	-0.7417945
12	0xbd307142	-0.04307676
13	0x3b90fbb7	0.004424538
14	0xbf918298	-1.1367979
15	0xbc7956e7	-0.015218473
16	0x3c8f3f1b	0.017486146
17	0xbb2daaec	-0.0026499582
18	0xbfab1b68	-1.3367739
19	0x4038d61e	2.8880687
20	0xbc7df683	-0.0155006675
21	0xbf35d233	-0.71023864
22	0xbef36900	-0.47541046
23	0xc097123f	-4.7209773
24	0xbf0c5393	-0.54815024
25	0xbae89b94	-0.0017746561
26	0xbf3bfcff	-0.73432916
27	0xbf7ddc99	-0.9916473
28	0x3cfb7db1	0.030699583
29	0xbac379a9	-0.0014913577
30	0xbe73aac1	-0.23795606
31	0xc0ef740d	-7.4829164
32	0xbf2d2ac7	-0.676434
33	0xbed1a345	-0.40944877
34	0x402300ac	2.546916
35	0xc00dcc3b	-2.2155902
36	0x3cd64639	0.026156532
37	0xc0b17266	-5.5452147
38	0xbf8517aa	-1.0397847
39	0xbfde2b94	-1.7357049
40	0xc18296c2	-16.323612
41	0xbf56d573	-0.8391945
42	0xbec2b3ee	-0.380279
43	0x3bc28f49	0.005937491
44	0xbf4a0181	-0.78908545
45	0xc02e32a3	-2.7218406
46	0xc16db9c4	-14.857853
47	0xbf6e79fe	-0.93154895
48	0xbfb9ea5e	-1.4524648
49	0xbf85bf34	-1.0448976
50	0xbc96f6fc	-0.018428318
51	0xbf195a0a	-0.59903014
52	0xbfb67114	-1.4253259
53	0xbf89e2cc	-1.0772338
54	0xbf541f21	-0.8286
55	0xbf99a34e	-1.2002962
56	0xbc84f1a5	-0.016228506
57	0xc13b09f7	-11.689933
58	0xbf5826d7	-0.84434265
59	0xc20ebb21	-35.682743
60	0xc11ec6f6	-9.923574
61	0xbf5ab357	-0.854299
62	0xbfbbdaa0	-1.4676094
63	0xbf52f862	-0.8241025
