src/Models/trained/4500_critic.pt (torch_old, 22186 bytes, 7 tensors)

fc1.weight f4 [32, 28]
-0.08608755 -1.6157182 -1.2844017 -0.25807548 0.000449592 0.30916122 0.63302267 0.5477107
0.5604935 0.5747067 0.45027262 0.42072177 0.29451796 -0.07710105 -0.0337748 -0.41506186
-0.34996003 -0.086999215 0.07441975 1.3829082 0.58519125 0.115042925 -0.5174677 -0.04581298
2.9638627 0.12189032 -3.6834052 -2.6858125 -0.6637309 -0.46402934 -0.22336003 0.02715318
0.19696747 0.31056687 0.14273618 0.07935575 -0.03061529 0.1318622 0.15837553 0.15790372
-0.15253747 -0.14885733 -0.09175241 -0.090464465 0.007622544 -0.2627606 -0.12792136 0.15792681
0.48012197 0.94295627 0.011627704 -0.72351253 -2.8415685 -0.18597199 4.7899 0.28390706
-0.10255484 -0.16395214 -0.028721428 0.065823 -0.16314746 -0.20554182 0.004566101 -0.12738423
-0.13678698 -0.0016605114 -0.02708973 -0.019866299 -0.1667536 -0.11922946 0.12742893 -0.14815672
0.0017025379 -0.15547328 -0.016327227 -0.15423647 0.08308622 -0.055781353 -0.12583448 0.122716375
0.126058 0.07274468 0.015950968 -0.03172312 -1.0968808 -0.4042991 0.05422168 0.07321494
0.6527804 0.44921398 0.8822393 0.2718424 -0.010829479 -0.37650543 0.04657817 -0.1330437
-0.7074372 0.040729523 -0.20163082 -0.02085376 -0.4746019 -0.676945 0.31092525 1.246864
1.8725387 1.219596 -0.96170586 -0.8866142 -2.8617392 -0.25738668 -0.8118063 1.2460018
-0.07164218 -0.35177627 0.052773014 0.33640206 0.39661613 0.019744907 -0.0213709 0.03782091
0.024126204 0.15732352 0.30568102 0.38274756 0.39192536 0.090068884 0.23100723 0.40091616
0.3870677 0.2271583 0.1290406 0.08956969 0.15857102 -7.7772164 0.27026612 0.07014496
-1.7956758 -0.031216223 -0.77574384 -0.573088 -0.91164744 1.5557119 2.8309553 0.97810656
0.14773804 0.14032558 -0.96062714 -0.45534968 -0.6241954 -0.16098858 0.06379389 0.17474017
-0.1658309 0.035955105 -0.15425915 -0.06624766 0.03702621 0.23529933 -0.55386716 -0.8275176
-0.45612082 0.94996065 1.3143845 -0.87818354 -1.397354 -0.44836006 0.5656369 1.8062279
0.121072724 0.13048445 0.085079275 0.2396537 0.22654797 0.2210659 0.26408815 0.3122104
0.30080828 0.22842565 0.2049314 0.22537152 0.15881728 0.120948784 0.107234806 -0.036771968
0.2543097 0.14866622 -6.3593316 -0.37126198 0.3336256 -0.31694686 0.0076199397 0.050625857
0.47884348 -0.06790118 -2.8422902 -1.7707909 0.44735324 0.8222163 0.9134797 0.63079286
0.21121813 -0.2522357 -0.589581 -0.54280305 -0.51291806 -0.3856135 -0.5981008 -0.12145989
0.19897544 0.14533867 0.49220368 -0.12251786 -0.17420559 -0.886722 -0.23880942 0.03760733
0.64821535 0.58231 1.232254 0.6550554 6.4176106 0.0036917247 4.6853747 1.2132722
0.14004487 -0.6116679 -1.9156016 -1.5075747 -0.8679561 -0.50871867 0.023909949 0.4478631
0.4454855 0.3917382 0.60602325 0.64596164 0.8611604 0.9681189 0.65236837 0.644346
0.57991314 0.3514053 -0.12043651 -0.6593877 -0.7512611 -0.58279794 -0.20241402 0.09660991
4.436106 -0.048696183 4.1527324 -1.0469054 -0.630234 0.104264654 -0.0050631976 0.06250705
00000000: ab4e b0bd dbcf cebf 4667 a4bf 7822 84be
00000010: 37b7 eb39 614a 9e3e c60d 223f c536 0c3f
00000020: 817c 0f3f fa1f 133f 228a e63e d868 d73e
00000030: 0fcb 963e 28e7 9dbd 7257 0abd fd82 d4be
00000040: f62d b3be a52c b2bd 6269 983d 2303 b13f
00000050: 18cf 153f a09b eb3d c378 04bf 64a6 3bbd
00000060: edaf 3d40 a2a1 f93d e9bc 6bc0 5ae4 2bc0
00000070: 45ea 29bf 4195 edbe 7eb8 64be 5970 de3c
00000080: d7b1 493e 9f02 9f3e 6f29 123e 4485 a23d
00000090: ebcc fabc e206 073e 322d 223e 83b1 213e
000000a0: c832 1cbe 0e6e 18be b0e8 bbbd 6f45 b9bd
000000b0: 89c6 f93b 8f88 86be d1fd 02be 91b7 213e
000000c0: 8cd2 f53e 9565 713f 2082 3e3c 1e38 39bf
000000d0: 42dc 35c0 716f 3ebe dc46 9940 445c 913e
000000e0: 4608 d2bd 12e3 27be 3349 ebbc 36ce 863d
000000f0: 2110 27be 8e79 52be 3b9f 953b 0371 02be
00000100: e311 0cbe 84a5 d9ba 48eb ddbc a6be a2bc
00000110: 75c1 2abe 932e f4bd bb7c 023e 65b6 17be
00000120: b127 df3a 6334 1fbe adc0 85bc 2af0 1dbe
00000130: 1c29 aa3d fd7a 64bd c1da 00be b952 fb3d
00000140: 5915 013e 2afb 943d 9bab 823c 1af0 01bd
00000150: 9766 8cbf 4b00 cfbe 8d17 5e3d b7f1 953d
00000160: 9e1c 273f 60ff e53e 6fda 613f ed2e 8b3e
00000170: 216e 31bc 52c5 c0be c0c8 3e3d 9c3c 08be
00000180: 9b1a 35bf 00d4 263d 4f78 4ebe 81d5 aabc
00000190: 05ff f2be 444c 2dbf 9831 9f3e 3d99 9f3f
000001a0: 59af ef3f b91b 9c3f 5b32 76bf 26f9 62bf
000001b0: bc26 37c0 30c8 83be 8ad2 4fbf fd7c 9f3f
000001c0: 23b9 92bd 051c b4be 8428 583d e43c ac3e
000001d0: 4511 cb3e 12c0 a13c 0712 afbc 19ea 1a3d
000001e0: 51a4 c53c 6b19 213e 3982 9c3e 7df7 c33e
000001f0: 71aa c83e 0976 b83d 298d 6c3e e244 cd3e
00000200: bd2d c63e 2f9c 683e 3823 043e 5070 b73d
00000210: 7160 223e f5de f8c0 5260 8a3e 29a8 8f3d
00000220: b4d8 e5bf 2ab9 ffbc 2697 46bf e5b5 12bf
00000230: ba61 69bf 9121 c73f 5f2e 3540 3165 7a3f
00000240: a448 173e 82b1 0f3e a9eb 75bf 9823 e9be
00000250: 45cb 1fbf 31da 24be 5fa6 823d 16ef 323e
00000260: 93cf 29be a945 133d 1cf6 1dbe daac 87bd
00000270: cca8 173d 4ff2 703e 3dca 0dbf 32d8 53bf
00000280: ab88 e9be 9f30 733f c03d a83f a3d0 60bf
00000290: 7fdc b2bf 738f e5be 94cd 103f 7a32 e73f
000002a0: faf4 f73d b79d 053e 0b3e ae3d c867 753e
000002b0: 31fc 673e 195f 623e 9036 873e 0bda 9f3e
000002c0: 8b03 9a3e 6ae8 693e 89d9 513e cbc7 663e
000002d0: ffa0 223e ffb3 f73d ec9d db3d 349e 16bd
000002e0: e234 823e f53b 183e a57f cbc0 0d16 bebe
000002f0: fad0 aa3e dc46 a2be b0b0 f93b 0f5d 4f3d
00000300: f92a f53e c60f 8bbd 15e8 35c0 47a9 e2bf
00000310: 7c0b e53e c47c 523f ced9 693f a47b 213f
00000320: 9149 583e 0a25 81be c8ee 16bf 24f5 0abf
00000330: 994e 03bf 226f c5be 221d 19bf f6bf f8bd
00000340: 38c0 4b3e a9d3 143e 1f02 fc3e a5ea fabd
00000350: f362 32be 3700 63bf 758a 74be 250a 1a3d
00000360: 71f1 253f 4512 153f 80ba 9d3f b6b1 273f
00000370: 115d cd40 ddf0 713b 97ee 9540 814c 9b3f
00000380: ec67 0f3e 4496 1cbf 6f32 f5bf 35f8 c0bf
00000390: 5f32 5ebf 633b 02bf ccde c33c 504e e53e
000003a0: ad16 e43e e991 c83e 5724 1b3f be5d 253f
000003b0: 0275 5c3f a4d6 773f 9d01 273f dcf3 243f
000003c0: 3075 143f 65eb b33e 6ba7 f6bd a2cd 28bf
000003d0: a652 40bf 3f32 15bf 9f45 4fbe 6bdb c53d
000003e0: 95f4 8d40 a675 47bd 2fe3 8440 ff00 86bf
000003f0: 0457 21bf b588 d53d 2ee9 a5bb b203 803d

fc1.bias f4 [32]
0.025800664 0.2688067 -0.035690606 2.068244 0.38682085 2.287356 -1.6566665 0.7133534
1.0418137 1.4476507 -0.16974056 1.3854437 -0.19604966 -0.16857156 -1.4791173 0.5153017
1.9385344 1.0169988 0.6046815 0.44019997 1.0196899 0.02820733 -0.38060746 -1.3443496
-2.9577932 0.37616327 -0.4864219 -1.8495016 1.2558461 1.0059599 0.8498014 0.4449596
00000000: ea5b d33c 08a1 893e 5030 12bd 1c5e 0440
00000010: 620d c63e 0a64 1240 a60d d4bf 549e 363f
00000020: 275a 853f 9e4c b93f 78d0 2dbe 3856 b13f
00000030: 3ec1 48be 069e 2cbe b753 bdbf d0ea 033f
00000040: e521 f83f 042d 823f 68cc 1a3f e461 e13e
00000050: 3385 823f 0f13 e73c fbde c2be a613 acbf
00000060: 7c4c 3dc0 7998 c03e 4b0c f9be 78bc ecbf
00000070: 91bf a03f 4bc3 803f 968c 593f bfd1 e33e

fa1.weight f4 [32, 2]
-0.04850577 -0.15458785 -0.10726367 0.084279045 0.13954742 0.03154373 0.7420837 -0.33048183
0.15969035 0.044536114 -1.3461524 -0.117098756 0.46062404 0.8246155 -0.04757917 -0.04301575
1.1372694 -0.041403897 0.48588374 0.31979847 1.0873761 -0.47507164 -4.543523 -1.9906651
0.13329755 -0.017551795 0.5743269 -0.39940032 -0.0725228 -0.093381606 0.09642293 0.08658059
-0.14347875 -0.05667291 0.075144574 0.07317895 0.024045303 -0.05837336 -0.042894706 -0.056512035
-0.6157728 0.72560704 -2.19211 -0.37945992 -0.11566543 0.15542422 0.8008288 0.8223694
-0.011275545 -0.09248708 -0.09644918 -0.03279628 0.78397304 0.20737047 0.10290782 -0.086568885
-0.1526615 -0.040671498 1.2354637 -0.29914802 0.33910286 1.194023 0.11721189 0.043682218
00000000: fcad 46bd 474c 1ebe 0ead dbbd 7e9a ac3d
00000010: 85e5 0e3e 0034 013d 33f9 3d3f ea34 a9be
00000020: de85 233e 806b 363d b94e acbf 79d1 efbd
00000030: ead6 eb3e 001a 533f 60e2 42bd 4831 30bd
00000040: 0b92 913f 2297 29bd c1c5 f83e a0bc a33e
00000050: 242f 8b3f 973c f3be 8a64 91c0 1dce febf
00000060: 277f 083e c8c8 8fbc 1607 133f 337e ccbe
00000070: d586 94bd db3e bfbd 6379 c53d 2a51 b13d
00000080: 18ec 12be da21 68bd 66e5 993d d8de 953d
00000090: a8fa c43c e818 6fbd 5cb2 2fbd 2a79 67bd
000000a0: 49a3 1dbf 62c1 393f 884b 0cc0 9248 c2be
000000b0: ffe1 ecbd 8727 1f3e 1e03 4d3f cd86 523f
000000c0: 10bd 38bc de69 bdbd 2687 c5bd 6455 06bd
000000d0: 75b2 483f ed58 543e 56c1 d23d 074b b1bd
000000e0: 4c53 1cbe 2897 26bd ad23 9e3f ee29 99be
000000f0: e49e ad3e bfd5 983f ca0c f03d 20ec 323d

fa1.bias f4 [32]
-0.67503446 -0.24922037 -0.5899513 2.1454732 -0.60252136 1.5634522 2.4975874 -0.70508796
1.810167 2.3985045 2.2244856 1.7687689 -0.56496996 2.033881 -0.6408091 -0.20156316
-0.6014741 -0.17197007 -0.5283146 -0.13701576 2.5476985 1.2577693 -0.57226485 1.8445444
-0.40290564 -0.32541734 2.344058 -0.3795983 -0.67706573 2.3727806 0.2265863 -0.22045997
00000000: 0fcf 2cbf a033 7fbe 0c07 17bf 6f4f 0940
00000010: d73e 1abf 341f c83f 79d8 1f40 a580 34bf
00000020: 8db3 e73f 1981 1940 f95d 0e40 0567 e23f
00000030: dfa1 10bf 1b2b 0240 110c 24bf 9366 4ebe
00000040: 35fa 19bf ec18 30be a03f 07bf dc4d 0cbe
00000050: 7e0d 2340 96fe a03f f37f 12bf 081a ec3f
00000060: a649 cebe 1a9d a6be 0c05 1640 b55a c2be
00000070: 2e54 2dbf a3db 1740 3d06 683e 42c0 61be

fca1.weight f4 [64, 64]
0.5447774 -0.5971466 0.038719304 0.34392145 -0.19943206 0.73191446 -0.42202798 0.3640263
-0.6649437 0.4695455 -0.34505147 1.3672832 0.09118511 -0.15136918 0.5559067 0.20983899
-0.057664298 -1.6848116 0.6597861 -0.3651922 -2.9584265 0.17900251 -0.033109445 -0.72308177
-1.7366122 3.4999943 0.6193342 -0.72081095 0.29621476 0.42966774 0.81021196 1.131494
-0.05993916 -0.11925195 0.06812757 -0.03101245 0.031947806 -0.112452485 -0.2549739 -0.041853532
-0.25300893 -0.28926948 -0.15254278 1.3676696 0.06878255 -0.14119768 -0.04444334 0.0014648146
0.0884985 0.08642413 0.05579253 -0.09264873 -0.32127243 -0.3686165 -0.1187409 -0.31677234
-0.003478691 -0.014396533 -0.2284216 0.069132164 -0.044483528 -0.13648973 -0.1915851 -0.08875619
-0.042049758 -0.030701445 0.04514733 -0.12997706 0.045439854 0.014045923 0.09848459 0.064198755
-0.017841578 0.017737268 0.051944256 -0.027961459 0.120801546 -0.124206506 -0.07202197 -0.028948674
-0.03955378 -0.0014199943 0.08213253 -0.028099297 0.103396766 -0.008611158 0.015794504 -0.04857655
-0.07256587 -0.066352 -0.1558458 -0.07705863 -0.12268657 0.026011243 -0.12478021 -0.09793542
0.05838164 0.0903859 0.10857816 -0.12130819 -0.04178296 0.032550145 -0.06370702 0.11618394
0.0408651 -0.09393441 -0.12650505 -0.1004761 -0.035830006 0.053743593 0.01633896 -0.05055538
-0.12062273 0.081251904 -0.06906672 0.035362776 -0.09039534 0.0469076 0.004013613 -0.028333992
0.042315707 0.07408039 -0.1349094 0.08346621 -0.07378928 -0.0065233004 0.010647848 0.06822069
0.75205386 0.17477842 0.07283409 0.075641185 -3.637354 0.5232923 -3.5492465 0.5719573
-0.11141986 0.19594981 -0.11394271 -3.4260871 0.07303526 1.2032332 0.79493093 0.53499466
0.3249994 -5.162373 -0.013918104 -1.0606945 1.9331892 -0.023487328 1.707983 0.6230463
1.3374704 -0.62372625 -0.026135571 0.1288951 0.17988317 -0.21423222 -0.025612013 -0.5029631
0.047422364 -0.09187802 -0.08261788 -0.2682927 -0.008868635 -0.42388356 0.15489396 0.11488806
-0.21068825 -0.11258471 -0.28665146 -0.023508688 0.052304655 -0.23557302 -0.01972726 0.0773045
0.09940827 -0.032630265 0.046726108 -0.01419495 0.08219248 -1.2129275 0.0108154565 0.34794787
0.010124072 0.03336543 -0.18323538 0.07868147 0.1048124 -0.219891 0.7441511 -0.06607633
-0.043326985 -0.25911358 -0.07512556 -0.108111635 -2.2782402 0.16020241 -0.48578116 -0.05455058
-0.033972193 -0.1273621 -0.09563785 -0.37440765 -0.013523444 0.039128557 -0.17142831 -0.08622288
0.21779555 0.2002464 0.001076055 -0.8993212 0.7482775 -0.028035965 2.1902401 0.018234104
-3.2999408 3.6364331 -0.03924493 0.10734908 0.35635146 0.013846003 -0.08104553 -0.058547977
0.02185449 -0.054021716 -0.11539981 -0.48778424 -0.07605417 -1.4747283 0.73753226 -0.11335279
-0.21832389 0.22130303 -0.88014346 -1.9398344 0.015455157 -0.90994334 -0.09786451 0.09201959
-0.009377524 0.021667555 -0.02167891 -0.05149349 0.53810596 -4.7307305 0.0029308498 1.0796727
-0.06850287 -0.057807937 0.19532716 0.038851395 -0.04351051 -0.6439469 1.1709936 -0.0049858093
00000000: 8876 0b3f 99de 18bf 2298 1e3d 7916 b03e
00000010: eb37 4cbe bf5e 3b3f 0d14 d8be a861 ba3e
00000020: c039 2abf 4568 f03e 96aa b0be 2303 af3f
00000030: 42bf ba3d 8600 1bbe e74f 0e3f 08e0 563e
00000040: 6631 6cbd e8a7 d7bf bee7 283f 79fa babe
00000050: dc56 3dc0 6f4c 373e c59d 07bd e31b 39bf
00000060: 4f49 debf e8ff 5f40 b08c 1e3f 1187 38bf
00000070: 76a9 973e 69fd db3e 0d6a 4f3f ccd4 903f
00000080: c482 75bd 5e3a f4bd 7886 8b3d d20d febc
00000090: b4db 023d 7d4d e6bd f08b 82be 9c6e 2bbd
000000a0: 638a 81be 211b 94be 2d34 1cbe cc0f af3f
000000b0: dedd 8c3d 2096 10be 380a 36bd 06ff bf3a
000000c0: b43e b53d 22ff b03d b586 643d 9ebe bdbd
000000d0: d27d a4be 4dbb bcbe 6e2e f3bd fc2f a2be
000000e0: c0fa 63bb 70df 6bbc 5ae7 69be 2a95 8d3d
000000f0: 5c34 36bd f7c3 0bbe e22e 44be cec5 b5bd
00000100: 5e3c 2cbd 9981 fbbc 68ec 383d b518 05be
00000110: 241f 3a3d df20 663c 4ab2 c93d a37a 833d
00000120: 8028 92bc bf4d 913c 80c3 543d 6e0f e5bc
00000130: cd66 f73d fb5f febd 4180 93bd c525 edbc
00000140: 2503 22bd 1a1f baba 1a35 a83d 7f30 e6bc
00000150: afc1 d33d d015 0dbc 7a63 813c 34f8 46bd
00000160: 6a9d 94bd 8fe3 87bd 0b96 1fbe ead0 9dbd
00000170: 1943 fbbd 8815 d53c c48c ffbd 5e92 c8bd
00000180: 9621 6f3d 3e1c b93d 3a5e de3d 6e70 f8bd
00000190: 9c24 2bbd 4d53 053d d378 82bd d8f1 ed3d
000001a0: 2a62 273d af60 c0bd 8a8a 01be 6ac6 cdbd
000001b0: 7cc2 12bd 3e22 5c3d 48d9 853c 2813 4fbd
000001c0: 0d09 f7bd 6667 a63d da72 8dbd 8fd8 103d
000001d0: 3121 b9bd 2f22 403d a084 833b b01c e8bc
000001e0: 3c53 2d3d 76b7 973d b125 0abe 55f0 aa3d
000001f0: d61e 97bd 69c1 d5bb 5074 2e3c 4ab7 8b3d
00000200: 9a86 403f 1df9 323e 0a2a 953d c4e9 9a3d
00000210: 68ca 68c0 7cf6 053f db26 63c0 cb6b 123f
00000220: 1830 e4bd 11a7 483e cc5a e9bd 0345 5bc0
00000230: 8393 953d 8c03 9a3f 9880 4b3f 69f5 083f
00000240: 5266 a63e 2932 a5c0 c208 64bc d6c4 87bf
00000250: be72 f73f 7f68 c0bc 309f da3f f67f 1f3f
00000260: 3b32 ab3f 86ac 1fbf 441a d6bc 14fd 033e
00000270: 4b33 383e b15f 5bbe 49d0 d1bc 31c2 00bf
00000280: f43d 423d 8b2a bcbd 9033 a9bd a95d 89be
00000290: c04d 11bc 4407 d9be 869c 1e3e 6e4a eb3d
000002a0: a9be 57be d092 e6bd fbc3 92be 4b95 c0bc
000002b0: 683d 563d 0e3a 71be 109b a1bc d251 9e3d
000002c0: 9096 cb3d 50a7 05bd e063 3f3d f091 68bc
000002d0: 8854 a83d 3541 9bbf 5033 313c 3926 b23e
000002e0: 70df 253c 30aa 083d 0ea2 3bbe c023 a13d
000002f0: e2a7 d63d 1b2b 61be b080 3e3f 0753 87bd
00000300: a377 31bd 89aa 84be 6edb 99bd a269 ddbd
00000310: b0ce 11c0 1a0c 243e 4fb8 f8be 6e70 5fbd
00000320: 6d26 0bbd 366b 02be c7dd c3bd 5cb2 bfbe
00000330: 6f91 5dbc 4445 203d e78a 2fbe 9f95 b0bd
00000340: cc05 5f3e 640d 4d3e 6a0a 8d3a ea39 66bf
00000350: 1d8f 3f3f aeab e5bc e52c 0c40 b05f 953c
00000360: 3b32 53c0 52bb 6840 4bbf 20bd d6d9 db3d
00000370: b373 b63e 59da 623c 33fb a5bd 01d0 6fbd
00000380: 3008 b33c e045 5dbd bc56 ecbd dbbe f9be
00000390: 4ac2 9bbd e6c3 bcbf eace 3c3f 8225 e8bd
000003a0: 4c90 5fbe 439d 623e 1551 61bf 7e4c f8bf
000003b0: a037 7d3c 0cf2 68bf 306d c8bd c474 bc3d
000003c0: 30a4 19bc 2880 b13c f897 b1bc d6ea 52bd
000003d0: 50c1 093f 2562 97c0 8013 403b b732 8a3f
000003e0: 3c4b 8cbd 04c8 6cbd d803 483e a422 1f3d
000003f0: 1438 32bd b4d9 24bf 1ee3 953f 0060 a3bb

fca1.bias f4 [64]
-0.24521227 -0.13602701 -0.41089934 -0.31391504 -0.1683719 1.4222252 1.0429683 1.5755867
1.421479 0.4542661 -0.39144433 -0.5052181 0.008218009 -0.07942794 -0.08343727 -0.07418267
0.028354606 0.043647923 -0.42571196 1.196226 0.066270046 -0.101144254 -0.5408741 -0.012112214
-0.16226104 0.004170373 -0.1208683 -0.17954051 -0.04888575 -0.039326534 -0.2314199 0.92379975
-0.38838977 -0.68912965 1.833567 -0.44732317 -0.041833688 -0.10613706 -0.16063641 -0.42549437
-0.34591514 -0.5208233 -0.32703316 -0.17851077 -0.24287044 -0.08927409 0.115865365 -0.3274272
-0.4821859 -0.6515296 0.023329 -0.28735682 -0.077726975 0.07600803 -0.39029697 -0.20385198
0.029920986 0.46319443 -0.40164372 0.6702941 -0.29334116 -0.4905441 -0.046429366 -0.7353395
00000000: ed18 7bbe aa4a 0bbe 6661 d2be 79b9 a0be
00000010: af69 2cbe 7a0b b63f fc7f 853f d3ac c93f
00000020: 06f3 b53f 9195 e83e 646b c8be f955 01bf
00000030: d4a4 063c 1eab a2bd 29e1 aabd 15ed 97bd
00000040: eb47 e83c 2ac8 323d ebf6 d9be ef1d 993f
00000050: 97b8 873d b824 cfbd ba76 0abf 4f72 46bc
00000060: c227 26be a0a7 883b cd89 f7bd 78d9 37be
00000070: 6d3c 48bd dc14 21bd 57f9 6cbe 247e 6c3f
00000080: 06db c6be cd6a 30bf 53b2 ea3f 8b07 e5be
00000090: cd59 2bbd 635e d9bd df7d 24be 66da d9be
000000a0: ca1b b1be ad54 05bf e470 a7be 87cb 36be
000000b0: 07b3 78be 56d5 b6bd d24a ed3d 8aa4 a7be
000000c0: 12e1 f6be a5ca 26bf 761c bf3c 6f20 93be
000000d0: 522f 9fbd 19aa 9b3d 01d5 c7be 93be 50be
000000e0: db1c f53c d227 ed3e 3fa4 cdbe 6598 2b3f
000000f0: d030 96be 9928 fbbe b82c 3ebd 363f 3cbf

fca2.weight f4 [1, 64]
-1.2876964 -0.023416545 -0.8775171 -1.1450268 -25.290884 2.8060298 3.011986 2.617393
1.4381772 -34.37666 -0.55794454 -0.7846356 -0.04307676 0.004424538 -1.1513369 -0.015218473
0.017486146 0.0057679876 -1.346796 2.901654 -0.0155006675 -0.6897654 -0.52230155 -4.6918054
-0.66579413 -0.0017746561 -0.7147612 -0.99133325 0.030699583 0.018744972 -0.42756468 -6.822871
-0.7054605 -0.47569463 2.5753026 -1.744563 0.026156532 -4.9761395 -1.0551152 -1.7489516
-20.285524 -0.8845176 -0.37647554 0.005937491 -0.56612533 -2.8729627 -15.863521 -1.0826281
-1.4610896 -1.0495654 -0.018428318 -0.56338626 -0.78937757 -1.2321192 -0.9094783 -1.3699167
-0.016228506 -12.988565 -0.8179991 -37.60579 -12.347759 -0.8834634 -1.5159794 -0.78489405
00000000: 3cd3 a4bf 0ed4 bfbc f6a4 60bf 3d90 92bf
00000010: bb53 cac1 fe95 3340 61c4 4040 5e83 2740
00000020: 3116 b83f b381 09c2 74d5 0ebf e1dd 48bf
00000030: 4271 30bd b7fb 903b 025f 93bf e756 79bc
00000040: 1b3f 8f3c 6301 bd3b d063 acbf b3b4 3940
00000050: 83f6 7dbc 7794 30bf 8eb5 05bf 4523 96c0
00000060: 7c71 2abf 949b e8ba 97fa 36bf 04c8 7dbf
00000070: b17d fb3c 0e8f 993c c2e9 dabe f654 dac0
00000080: 0f99 34bf 3f8e f3be c2d1 2440 d74d dfbf
00000090: 3946 d63c 893c 9fc0 040e 87bf a5dd dfbf
000000a0: c148 a2c1 bf6f 62bf 67c1 c0be 498f c23b
000000b0: 97ed 10bf 9fde 37c0 fbd0 7dc1 8f93 8abf
000000c0: fc04 bbbf 2958 86bf fcf6 96bc 153a 10bf
000000d0: a614 4abf 15b6 9dbf 92d3 68bf 6e59 afbf
000000e0: a5f1 84bc 2ad1 4fc1 6468 51bf 546c 16c2
000000f0: 6c90 45c1 a82a 62bf 9d0b c2bf d1ee 48bf
