src/Models/trained/4800_critic.pt (torch_old, 22186 bytes, 7 tensors)

fc1.weight f4 [32, 28]
00000000: 315b 77bc c74b cdbf 3504 91bf 0af6 50be
00000010: d0ba dd3d 6c85 9c3e 9edf 1c3f f2ef 153f
00000020: 1a84 0f3f 09cb 183f cce9 f43e 9ae0 ff3e
00000030: 4eba e73e 816c 133c 8fce 5b3d a8cc eebe
00000040: 9733 99be bfe8 7bbe 58fe 80bd bc47 9a3f
00000050: de7b fb3e 2c2d 423e 31cd f4be a543 1f3d
00000060: dbad 3240 2dd8 943d b309 74c0 8d83 45c0
00000070: f845 39bf 7a12 0bbf 0522 23be 2283 013e
00000080: 1885 673e 0a16 8d3e cb13 003e d016 c13d
00000090: 1e39 183d b474 153e 7cc5 fc3d 1238 463e
000000a0: 70f9 b8bd ea86 43be ffcc 30be bb2a a1bd
000000b0: 8168 ed3c 86b9 9abe bacb f5bd 53fe 5f3d
000000c0: e882 e53e 67aa 8b3f bf2c 95bd 1bc9 48bf
000000d0: 3f4a 3ec0 ed7c 43be e73c 9c40 3443 973e
000000e0: 4608 d2bd 12e3 27be 3349 ebbc 36ce 863d
000000f0: 2110 27be 8e79 52be 3b9f 953b 0371 02be
00000100: e311 0cbe 84a5 d9ba 48eb ddbc a6be a2bc
00000110: 75c1 2abe 932e f4bd bb7c 023e 65b6 17be
00000120: b127 df3a 6334 1fbe adc0 85bc 2af0 1dbe
00000130: 1c29 aa3d fd7a 64bd c1da 00be b952 fb3d
00000140: 5915 013e 2afb 943d 9bab 823c 1af0 01bd
00000150: 9e04 a6bf a927 cabe db27 d73e 97ec d13d
00000160: 6c67 293f 46e4 ab3e 9fc6 6f3f d689 d73e
00000170: f81e 04bc 9d35 02bf 02df f23d ff2d 27be
00000180: 857a 34bf b502 083d 5937 a5be 629e fcbd
00000190: c45e aabe f0e9 3ebf f719 a23e c5a2 8f3f
000001a0: a16f dc3f da1e a93f 896d 67bf 4646 8abf
000001b0: 3b0a 62c0 8b98 95be 42c9 47bf c7a3 963f
000001c0: 157c 9abc b1c8 8fbe b984 0b3e 4691 c23e
000001d0: 5bec bc3e 1598 ddbc 5636 98bd b64d ef3d
000001e0: ad4e a93d 823f 1b3e df2c d03e a6fd ce3e
000001f0: db48 c23e eaba fd3d 94d4 b73d e4e7 913e
00000200: f696 df3e a17d 543e 6555 0bbc 4e8f 5d3e
00000210: ad2d 983d 7a87 06c1 f50c 773e c11e f83d
00000220: d3d8 ebbf 5d72 c5bd 9dfe 5bbf 75b0 09bf
00000230: 736f 68bf cca9 b23f 2add 3840 c77f 7c3f
00000240: 9fbf 6e3c 170c a93d 840e 7dbf a66f 06bf
00000250: 3aa6 11bf b769 33be c7c6 5c3c 4a76 1e3e
00000260: 4dc5 cebc ea22 243d 912a b1bd fb2f 8cbb
00000270: e507 33bc d4b9 af3e 5e8e 2fbf a4a3 78bf
00000280: 7d83 fabe 12ab 803f c5ee ad3f 27ad 5cbf
00000290: 67e0 b6bf b0fb dabe 924c 103f a83a eb3f
000002a0: fc83 343e bb7c 6e3d fff7 a83d 24d8 873e
000002b0: f50c 8b3e 84c9 453e 2ae7 803e 04ff 9e3e
000002c0: 9c42 973e ba83 883e eeaf 823e 804a 8d3e
000002d0: 95b5 3b3e d9e5 1b3e f1d0 703d 1f01 23bd
000002e0: fe66 7e3e 211b 993d 3aae d7c0 dbc4 03bf
000002f0: ebe5 a93e 871b 3dbe 4086 d23d 07fd c63d
00000300: 3bd6 c43e ed64 e2bd 7bf4 42c0 d7b7 e1bf
00000310: 1374 073f d09f 303f 632b 803f 38e5 213f
00000320: a127 ba3e 0786 91be 4988 05bf 649b ffbe
00000330: e6b0 e2be 534e d5be 95c7 23bf 7434 02be
00000340: abe4 f13d 8d02 013d 305d 0e3f 1d85 63be
00000350: aae7 36be 6e5d 7abf e7fd 93be 1607 2d3d
00000360: aeed 233f c3a4 e03e 4e36 aa3f f893 3d3f
00000370: 34bb d440 76e6 d03d 5f95 9f40 c593 bb3f
00000380: 40bf 843e 53a9 83be 9538 00c0 4f75 aebf
00000390: 5265 5cbf ed10 08bf b7d3 89bd dc3d c53e
000003a0: 81fd e43e 11bf 733e d519 0e3f 381b 123f
000003b0: 0691 463f 61d5 683f 393e 2d3f 2c7b 303f
000003c0: 860e 273f e432 d83e 1fa9 1fbe da47 44bf
000003d0: 5740 5cbf 3bf4 13bf 76ae acbe e452 613e
000003e0: 9f98 9940 d2bc b33b a1f1 8e40 d064 63bf
000003f0: 6ccc 29bf 1164 833d b32d b13d 287d 68be
-0.015097425 -1.603875 -1.1329409 -0.20406356 0.10826647 0.30570543 0.6127871 0.5856925
0.56060946 0.5968481 0.47834623 0.49976045 0.45259327 0.008998037 0.053663787 -0.46640515
-0.29922172 -0.24600504 -0.06298512 1.2053142 0.4911794 0.18962544 -0.478128 0.03888287
2.7918613 0.07267795 -3.813092 -3.0861542 -0.7237239 -0.5432507 -0.15930946 0.1264768
0.22609365 0.27555877 0.1250755 0.09428179 0.037163846 0.145953 0.12342355 0.19357327
-0.090319514 -0.19094434 -0.172657 -0.07869478 0.028980495 -0.30219668 -0.120017484 0.0546859
0.44826436 1.0911378 -0.07283925 -0.7843186 -2.9732816 -0.19090624 4.8824344 0.2954346
-0.10255484 -0.16395214 -0.028721428 0.065823 -0.16314746 -0.20554182 0.004566101 -0.12738423
-0.13678698 -0.0016605114 -0.02708973 -0.019866299 -0.1667536 -0.11922946 0.12742893 -0.14815672
0.0017025379 -0.15547328 -0.016327227 -0.15423647 0.08308622 -0.055781353 -0.12583448 0.122716375
0.126058 0.07274468 0.015950968 -0.03172312 -1.2970159 -0.39483383 0.42022595 0.10250204
0.66173434 0.33572596 0.93662447 0.42097348 -0.008064024 -0.5086306 0.118589416 -0.1632614
-0.7049945 0.033205707 -0.3226879 -0.123348966 -0.33275425 -0.7457571 0.31660435 1.1221548
1.7221566 1.321254 -0.9040151 -1.0802696 -3.5318744 -0.29217944 -0.7804147 1.1768731
-0.018857995 -0.28082803 0.13624848 0.3800146 0.36899075 -0.027050057 -0.07432239 0.11684744
0.08266959 0.15160945 0.40659234 0.40427893 0.3794621 0.12389167 0.08976093 0.2849723
0.43669862 0.20751049 -0.008504246 0.21636698 0.07430587 -8.408075 0.24126036 0.12115241
-1.8425545 -0.09640954 -0.85935384 -0.5378488 -0.9079506 1.3958068 2.8884988 0.9863247
0.014572053 0.08254259 -0.98850274 -0.5251411 -0.56894267 -0.17520796 0.013475127 0.15474811
-0.025240565 0.04007236 -0.08650697 -0.0042781807 -0.010927175 0.34321463 -0.6857661 -0.97124696
-0.48928443 1.0052207 1.3588492 -0.8620171 -1.4287232 -0.42770147 0.5636684 1.8377275
0.17628473 0.05822442 0.082504265 0.2653209 0.27158323 0.19315153 0.25176364 0.31053936
0.29543006 0.26663 0.2552485 0.275959 0.18330987 0.15224399 0.058793012 -0.03979599
0.24843976 0.074758776 -6.740018 -0.5147225 0.33183226 -0.18467532 0.102795124 0.0971623
0.38444695 -0.11054406 -3.046172 -1.7634228 0.5291149 0.68993855 1.001324 0.63240385
0.3635836 -0.28422567 -0.5216108 -0.4992324 -0.44275588 -0.4166132 -0.63976413 -0.12715322
0.11811193 0.031496573 0.5561094 -0.22218747 -0.1786181 -0.9779881 -0.2890465 0.042243086
0.64034545 0.43875703 1.3297822 0.7405391 6.647852 0.10200207 4.986984 1.4654471
0.25927162 -0.25715122 -2.0034535 -1.362955 -0.860921 -0.53150827 -0.067298345 0.38523757
0.44724658 0.23803355 0.55508167 0.5707278 0.7756504 0.9095059 0.6767307 0.68937945
0.65256536 0.42226326 -0.15591858 -0.76672137 -0.86035675 -0.5779454 -0.33726853 0.22004277
4.7998805 0.0054851556 4.4669957 -0.888257 -0.6632755 0.064155705 0.086512946 -0.22703993

fc1.bias f4 [32]
00000000: 4aa7 1b3d 38d3 7a3e 5030 12bd 7e32 0e40
00000010: 3b72 f23e 6a17 1740 e5f6 dabf b265 263f
00000020: 9620 833f 8343 bd3f 2795 a8bd dcd3 bc3f
00000030: 3ec1 48be 4732 9dbe cb2e bebf 0f1f 053f
00000040: dddc 0240 3963 853f 1022 ed3e b627 f63e
00000050: 5993 893f 0f13 e73c 963b debe b49d bbbf
00000060: e5f8 47c0 8195 033f 5860 0cbf 3343 f6bf
00000070: 0a91 9c3f 282d 743f 21d2 723f 2caa 953e
0.038001336 0.24494636 -0.035690606 2.2218318 0.47352776 2.360804 -1.7106596 0.64998925
1.024432 1.4786228 -0.082315736 1.4752154 -0.19604966 -0.3070242 -1.485803 0.52000517
2.0447304 1.0420905 0.4631505 0.48077172 1.0748092 0.02820733 -0.43404835 -1.4657502
-3.1245663 0.514 -0.5483451 -1.9239258 1.2231762 0.953814 0.9485188 0.29231393

fa1.weight f4 [32, 2]
00000000: fcad 46bd 474c 1ebe 0ead dbbd 7e9a ac3d
00000010: 85e5 0e3e 0034 013d 216f 3d3f a3df adbe
00000020: de85 233e 806b 363d 8d3e acbf d11f ebbd
00000030: be89 ec3e 4257 513f 60e2 42bd 4831 30bd
00000040: 1aa7 903f 95a7 84bd cbc3 f63e 217a 9b3e
00000050: 36e2 8a3f b002 f9be 49d9 87c0 6e3c f2bf
00000060: 277f 083e c8c8 8fbc 9374 123f 0f55 cebe
00000070: d586 94bd db3e bfbd 6379 c53d 2a51 b13d
00000080: 18ec 12be da21 68bd 66e5 993d d8de 953d
00000090: a8fa c43c e818 6fbd 5cb2 2fbd 2a79 67bd
000000a0: c098 1dbf cfc6 363f fc00 0bc0 aa1c a3be
000000b0: ffe1 ecbd 8727 1f3e fdc4 4e3f 6e59 513f
000000c0: 10bd 38bc de69 bdbd 2687 c5bd 6455 06bd
000000d0: 2d3a 473f f512 413e 56c1 d23d 074b b1bd
000000e0: 4c53 1cbe 2897 26bd 204c 9d3f 2a04 a2be
000000f0: 6ae0 a43f 6189 a73f ca0c f03d 20ec 323d
-0.04850577 -0.15458785 -0.10726367 0.084279045 0.13954742 0.03154373 0.73997694 -0.33959684
0.15969035 0.044536114 -1.3456589 -0.11480678 0.4619884 0.8177377 -0.04757917 -0.04301575
1.1300995 -0.06477276 0.48196253 0.30366614 1.0850284 -0.48634863 -4.245274 -1.8924692
0.13329755 -0.017551795 0.5720913 -0.4029927 -0.0725228 -0.093381606 0.09642293 0.08658059
-0.14347875 -0.05667291 0.075144574 0.07317895 0.024045303 -0.05837336 -0.042894706 -0.056512035
-0.61561203 0.7139711 -2.171935 -0.31857806 -0.11566543 0.15542422 0.8076933 0.81777084
-0.011275545 -0.09248708 -0.09644918 -0.03279628 0.77823144 0.18854888 0.10290782 -0.086568885
-0.1526615 -0.040671498 1.2288857 -0.31643802 1.2880986 1.30888 0.11721189 0.043682218

fa1.bias f4 [32]
00000000: 0fcf 2cbf a033 7fbe 0c07 17bf 62df 0940
00000010: d73e 1abf fd3f ca3f a08d 2040 a580 34bf
00000020: d81d e93f 5740 1a40 16f8 0e40 c0bb f13f
00000030: dfa1 10bf c5c1 0240 110c 24bf 9366 4ebe
00000040: 35fa 19bf ec18 30be a03f 07bf dc4d 0cbe
00000050: 36ee 2340 e524 a23f f37f 12bf 646f ed3f
00000060: a649 cebe 1a9d a6be 65b6 1640 b55a c2be
00000070: 2e54 2dbf 0691 1840 cb94 bbbd 42c0 61be
-0.67503446 -0.24922037 -0.5899513 2.1542592 -0.60252136 1.5800778 2.508644 -0.70508796
1.8212233 2.410177 2.233892 1.8885422 -0.56496996 2.0430768 -0.6408091 -0.20156316
-0.6014741 -0.17197007 -0.5283146 -0.13701576 2.5614142 1.2667509 -0.57226485 1.8549619
-0.40290564 -0.32541734 2.3548825 -0.3795983 -0.67706573 2.3838515 -0.091592394 -0.22045997

fca1.weight f4 [64, 64]
00000000: 744a 133f 7540 11bf 2298 1e3d 70e0 d43e
00000010: 537c a13d b8a2 423f 333d c9be e165 b43e
00000020: 4c85 49bf 2090 ef3e 4398 97be 8531 a83f
00000030: 42bf ba3d 19cc 13be c431 4a3f f7c5 433e
00000040: f854 cfbc 1213 afbf 7d2f 1f3f 0258 8bbc
00000050: 7ded 18c0 6f4c 373e 3fb3 203b c594 37bf
00000060: 8a12 debf e2b0 4440 e5f2 213f 7304 34bf
00000070: 1c24 963e a95c d53e feb0 603f 4502 993f
00000080: c482 75bd 5e3a f4bd 7886 8b3d 4f13 62bd
00000090: b4db 023d 351e 0bbe 63e1 83be 9c6e 2bbd
000000a0: cbed 89be 9817 9abe 293b 37be 444f ad3f
000000b0: dedd 8c3d 714d 2bbe 380a 36bd 06ff bf3a
000000c0: b43e b53d 22ff b03d b586 643d 9ebe bdbd
000000d0: 2f19 a7be 046a d2be 6e2e f3bd 122b a0be
000000e0: c0fa 63bb 70df 6bbc 11a2 77be 2a95 8d3d
000000f0: 5c34 36bd 6f10 23be d005 13be cec5 b5bd
00000100: 5e3c 2cbd 9981 fbbc 68ec 383d b518 05be
00000110: 241f 3a3d df20 663c 4ab2 c93d a37a 833d
00000120: 8028 92bc bf4d 913c 80c3 543d 6e0f e5bc
00000130: cd66 f73d fb5f febd 4180 93bd c525 edbc
00000140: 2503 22bd 1a1f baba 1a35 a83d 7f30 e6bc
00000150: afc1 d33d d015 0dbc 7a63 813c 34f8 46bd
00000160: 6a9d 94bd 8fe3 87bd 0b96 1fbe ead0 9dbd
00000170: 1943 fbbd 8815 d53c c48c ffbd 5e92 c8bd
00000180: 9621 6f3d 3e1c b93d 3a5e de3d 6e70 f8bd
00000190: 9c24 2bbd 4d53 053d d378 82bd d8f1 ed3d
000001a0: 2a62 273d af60 c0bd 8a8a 01be 6ac6 cdbd
000001b0: 7cc2 12bd 3e22 5c3d 48d9 853c 2813 4fbd
000001c0: 0d09 f7bd 6667 a63d da72 8dbd 8fd8 103d
000001d0: 3121 b9bd 2f22 403d a084 833b b01c e8bc
000001e0: 3c53 2d3d 76b7 973d b125 0abe 55f0 aa3d
000001f0: d61e 97bd 69c1 d5bb 5074 2e3c 4ab7 8b3d
00000200: 0268 5f3f 4073 113e 0a2a 953d 1131 e13d
00000210: fcd9 57c0 5e02 0c3f aea5 65c0 b97d 123f
00000220: 8af3 d7bd 4795 673e f778 c4bd 48fe 44c0
00000230: 8393 953d f3ef 9d3f 000e 463f 97ec 223f
00000240: d616 a03e 9c3b a9c0 8321 9ebc e71d 69bf
00000250: 1938 f13f 7f68 c0bc cbed 0340 d8bd 1f3f
00000260: 18c3 a03f a45b 18bf 61c1 fa3c 8742 8d3e
00000270: 8410 503e dcce 47be c458 81bd b4d1 f2be
00000280: f43d 423d 8b2a bcbd 9033 a9bd e977 86be
00000290: c04d 11bc 9635 d5be bd18 283e 6e4a eb3d
000002a0: 584b 4fbe caa7 d6bd e031 90be 1cf5 d53a
000002b0: 683d 563d f3aa 6bbe 109b a1bc d251 9e3d
000002c0: 9096 cb3d 50a7 05bd e063 3f3d f091 68bc
000002d0: 72c9 b93d d4af 9abf 5033 313c 1430 b83e
000002e0: 70df 253c 30aa 083d fae0 33be c023 a13d
000002f0: e2a7 d63d 9f66 5bbe 14df 4c3f 0753 87bd
00000300: a0d7 1fbc 5de8 90be 6edb 99bd af17 53bd
00000310: 7356 20c0 aefe e83d 813e 13bf 3899 03bb
00000320: a3d8 4bbc 9aac 13be 9645 0dbe d76e 29be
00000330: 6f91 5dbc eed0 8b3d a6e8 a7be 68af 9ebd
00000340: 15d2 b73d ad7f 28bf 0684 543d c883 45bf
00000350: 3790 953f aeab e5bc 914f f83f 4d99 37bd
00000360: 02cb 6bc0 b1d1 5540 ec92 06be 0275 883e
00000370: 6eba c53e d238 40bd 7685 9dbd 6d49 13be
00000380: 3008 b33c e045 5dbd bc56 ecbd 93a1 02bf
00000390: 4ac2 9bbd d689 c3bf 323b 3d3f 8225 e8bd
000003a0: 0828 65be 40c0 5b3e d46a 67bf 8d91 51bf
000003b0: a037 7d3c 8f24 70bf 306d c8bd c474 bc3d
000003c0: 30a4 19bc 2880 b13c f897 b1bc d6ea 52bd
000003d0: 8eeb 073f 5114 9ec0 8013 403b 876d 8b3f
000003e0: 3c4b 8cbd 04c8 6cbd 1364 413e a422 1f3d
000003f0: 1438 32bd 99f3 28bf e469 9c3f 0060 a3bb
0.5753548 -0.5673898 0.038719304 0.41577482 0.07885041 0.7602954 -0.39304504 0.35233977
-0.7871902 0.46789646 -0.29608354 1.3140112 0.09118511 -0.14433326 0.78982186 0.19118486
-0.025309071 -1.3677695 0.62181836 -0.017009739 -2.3894951 0.17900251 0.0024520901 -0.7171138
-1.7349408 3.073296 0.6326125 -0.7031929 0.29324424 0.41672257 0.8777007 1.1953818
-0.05993916 -0.11925195 0.06812757 -0.055194195 0.031947806 -0.13585742 -0.25757894 -0.041853532
-0.26939234 -0.30096126 -0.17893662 1.3539815 0.06878255 -0.1672876 -0.04444334 0.0014648146
0.0884985 0.08642413 0.05579253 -0.09264873 -0.326364 -0.41096509 -0.1187409 -0.3128286
-0.003478691 -0.014396533 -0.24182917 0.069132164 -0.044483528 -0.15924238 -0.14357686 -0.08875619
-0.042049758 -0.030701445 0.04514733 -0.12997706 0.045439854 0.014045923 0.09848459 0.064198755
-0.017841578 0.017737268 0.051944256 -0.027961459 0.120801546 -0.124206506 -0.07202197 -0.028948674
-0.03955378 -0.0014199943 0.08213253 -0.028099297 0.103396766 -0.008611158 0.015794504 -0.04857655
-0.07256587 -0.066352 -0.1558458 -0.07705863 -0.12268657 0.026011243 -0.12478021 -0.09793542
0.05838164 0.0903859 0.10857816 -0.12130819 -0.04178296 0.032550145 -0.06370702 0.11618394
0.0408651 -0.09393441 -0.12650505 -0.1004761 -0.035830006 0.053743593 0.01633896 -0.05055538
-0.12062273 0.081251904 -0.06906672 0.035362776 -0.09039534 0.0469076 0.004013613 -0.028333992
0.042315707 0.07408039 -0.1349094 0.08346621 -0.07378928 -0.0065233004 0.010647848 0.06822069
0.8726808 0.1420412 0.07283409 0.10995687 -3.3726797 0.5469111 -3.5882373 0.5722309
-0.10544498 0.22615539 -0.09593385 -3.07802 0.07303526 1.2338852 0.7736511 0.6364226
0.31267422 -5.2885265 -0.019303089 -0.9106125 1.8845245 -0.023487328 2.0613887 0.62399054
1.2559538 -0.5951483 0.030609788 0.2758982 0.203188 -0.19512504 -0.06315759 -0.47425616
0.047422364 -0.09187802 -0.08261788 -0.2626336 -0.008868635 -0.41642445 0.16415687 0.11488806
-0.20243585 -0.10481222 -0.28163052 0.0016323659 0.052304655 -0.2301443 -0.01972726 0.0773045
0.09940827 -0.032630265 0.046726108 -0.01419495 0.09071626 -1.2084908 0.0108154565 0.3597418
0.010124072 0.03336543 -0.1756629 0.07868147 0.1048124 -0.21425866 0.8002789 -0.06607633
-0.009755999 -0.2830228 -0.07512556 -0.05153626 -2.5052764 0.11376701 -0.5751725 -0.002008034
-0.012441787 -0.14421311 -0.13796076 -0.16546188 -0.013523444 0.068269596 -0.32794684 -0.077483
0.08975617 -0.6581982 0.05188372 -0.7715421 1.1684636 -0.028035965 1.9399282 -0.044823933
-3.6842656 3.3409235 -0.13141984 0.2665177 0.38618797 -0.046929188 -0.07691471 -0.14383478
0.02185449 -0.054021716 -0.11539981 -0.5102779 -0.07605417 -1.5276439 0.7391845 -0.11335279
-0.22378552 0.21460056 -0.9039738 -0.8186272 0.015455157 -0.93805784 -0.09786451 0.09201959
-0.009377524 0.021667555 -0.02167891 -0.05149349 0.530938 -4.93998 0.0029308498 1.08928
-0.06850287 -0.057807937 0.18885832 0.038851395 -0.04351051 -0.659967 1.2219815 -0.0049858093

fca1.bias f4 [64]
00000000: 96dc 89be aa4a 0bbe b8f7 d1be 194b adbe
00000010: e2a8 7dbb 8846 b83f 8b8a 843f de07 ce3f
00000020: a225 ba3f 26b6 cd3e 8ebd dabe e86e 02bf
00000030: d4a4 063c 1eab a2bd 0345 a8bd 15ed 97bd
00000040: eb47 e83c 2ac8 323d 6cc3 d8be d7f6 9c3f
00000050: 97b8 873d 004d a3bd 2d1a 05bf 7147 e7bc
00000060: 3ce5 0bbe a0a7 883b 913a f6bd 5c79 34be
00000070: 6d3c 48bd dc14 21bd 7ed5 6dbe f36f 6c3f
00000080: 6ec4 debe d0ee 35bf 710c ef3f 483c dbbe
00000090: cd59 2bbd 3703 21be f99e 25be 0cd0 d6be
000000a0: e1e9 a9be a737 0bbf 055b acbe 87cb 36be
000000b0: 0aca 71be 3b01 b4bd 600e 353e ffd6 b0be
000000c0: 7992 fdbe 98dc 2bbf 761c bf3c 3355 a4be
000000d0: 92e8 40be 1143 de3d e6f1 c8be 5b02 59be
000000e0: db1c f53c 8eec f13e 4a1a c5be 3f56 283f
000000f0: f46c 8ebe abe4 fbbe 0f7b 31bd ec7d 4bbf
-0.26926106 -0.13602701 -0.41009307 -0.33846357 -0.0038705398 1.4396524 1.035478 1.6096151
1.4542735 0.4017803 -0.42722744 -0.5095048 0.008218009 -0.07942794 -0.08216288 -0.07418267
0.028354606 0.043647923 -0.42336595 1.226283 0.066270046 -0.07973671 -0.51993066 -0.028232308
-0.13661665 0.004170373 -0.120228894 -0.1762442 -0.04888575 -0.039326534 -0.23225972 0.9235832
-0.4350924 -0.71067524 1.8675672 -0.42819428 -0.041833688 -0.15723883 -0.16173925 -0.41955602
-0.33186248 -0.54381794 -0.33663192 -0.17851077 -0.23612228 -0.08789297 0.17681265 -0.3453903
-0.49525812 -0.67133474 0.023329 -0.32096252 -0.18838719 0.10852636 -0.39247054 -0.21192305
0.029920986 0.4725079 -0.3849662 0.657566 -0.278175 -0.49197897 -0.04333025 -0.79489017

fca2.weight f4 [1, 64]
00000000: 6192 a2bf 0ed4 bfbc 81b7 64bf 3d5c 94bf
00000010: 9c79 d6c1 f5b8 3340 57e1 3f40 535c 2840
00000020: d3b0 b93f e947 0bc2 ec51 0bbf 2b7d 3fbf
00000030: 4271 30bd b7fb 903b 3d1b 8fbf e756 79bc
00000040: 1b3f 8f3c 6301 bd3b 170b afbf 77ca 3940
00000050: 83f6 7dbc 1aa5 19bf 7995 0fbf 193f b3c0
00000060: 6779 2bbf 949b e8ba 3020 0dbf 23da 83bf
00000070: b17d fb3c 0e8f 993c 2afb d0be 1894 d6c0
00000080: 6725 21bf a6c3 fbbe 1db4 2540 30ba c5bf
00000090: 3946 d63c 7ddd 9ec0 7115 80bf 0acc dcbf
000000a0: 3e98 adc1 9adf 5bbf 0a2c bbbe 498f c23b
000000b0: 6dc1 06bf 6208 37c0 950d 82c1 aa6a 8bbf
000000c0: 8759 aebf 9e8d 89bf fcf6 96bc 6d76 0dbf
000000d0: ce92 8abf bb61 88bf 014c 78bf ebf6 b9bf
000000e0: a5f1 84bc 53ac 62c1 db0f 61bf e4ae 17c2
000000f0: b18f 59c1 284f 62bf 5846 c6bf 1dbc 3cbf
-1.2700921 -0.023416545 -0.89342505 -1.1590649 -26.80938 2.808164 2.9981287 2.630635
1.4507087 -34.820225 -0.5442188 -0.74800366 -0.04307676 0.004424538 -1.1180187 -0.015218473
0.017486146 0.0057679876 -1.3675259 2.9029825 -0.0155006675 -0.6001755 -0.5608745 -5.6014524
-0.6698212 -0.0017746561 -0.5512724 -1.0300945 0.030699583 0.018744972 -0.40816623 -6.705578
-0.62947696 -0.49172705 2.5891182 -1.5447445 0.026156532 -4.964537 -1.0006543 -1.7249768
-21.699337 -0.85888064 -0.36557037 0.005937491 -0.52638894 -2.8598866 -16.256632 -1.0891926
-1.3621072 -1.0746343 -0.018428318 -0.5525883 -1.0826051 -1.0654825 -0.9699097 -1.4528478
-0.016228506 -14.167071 -0.8791482 -37.92079 -13.597581 -0.8840203 -1.5490217 -0.7372454
