src/Models/trained/4850_actor.pt (torch_old, 25545 bytes, 6 tensors)

fa1.weight f4 [64, 28]
000000 6e 08 86 3d bc 66 b6 3e 96 6f 5e be a0 11 2c be
       0.065445766 0.35625255 -0.21722254 -0.16803598
000010 19 bf a7 3e 49 92 9a 3f c0 97 e1 3e 24 2e 25 3e
       0.32762983 1.2075893 0.4406109 0.16130883
000020 81 d6 3f be e5 02 45 be a2 dc d8 bd b4 82 ac bd
       -0.1873417 -0.19239385 -0.10588957 -0.08423367
000030 01 aa 8b be 69 26 20 be a7 80 09 bf 5b a9 b4 be
       -0.2727814 -0.15639652 -0.5371193 -0.35285458
000040 c9 b8 06 bf d2 d1 a5 be 7c d7 18 be fe 65 90 3e
       -0.5262571 -0.32386643 -0.14925951 0.28202814
000050 ac 35 ab 3e d3 12 39 3e c4 e4 1c 3e 34 fd 74 3c
       0.33439386 0.18073587 0.15321642 0.014952946
000060 26 f3 7d c0 75 5e ed 3d 38 95 d6 3f 57 43 9e 3f
       -3.9679656 0.11590282 1.6764288 1.23643
000070 38 3f 09 be cf 5a 79 3d cc d1 b3 bd e6 17 d2 bd
       -0.13403022 0.060877617 -0.0878025 -0.102584645
000080 fa 85 94 3d 27 90 11 be 3f 00 70 3d e3 11 0c be
       0.072521165 -0.14215146 0.058593985 -0.13678698
000090 f9 5e b0 3c df a1 90 bd b3 7c 74 3d 62 e4 81 bd
       0.021529661 -0.070621245 0.059689235 -0.06342389
0000a0 28 b9 ca bd a3 c5 28 be 94 f9 bc bd 45 1f 47 bd
       -0.09898597 -0.16481642 -0.09227291 -0.048613805
0000b0 e5 62 77 3d 6a 8e 73 3d af 37 87 3d fc 6a 75 bd
       0.060397048 0.05946199 0.06602418 -0.05991648
0000c0 55 fb a1 3d 50 14 25 be 4d b6 ed bd 1a f0 01 3d
       0.07909266 -0.1612103 -0.11607037 0.03172312
0000d0 6a fe a7 bd 96 41 86 3d 9e 77 19 be de 8b 22 be
       -0.082028225 0.06555478 -0.14987037 -0.15873668
0000e0 01 ef 09 3d aa 5b 01 be 04 ac ff 3c 43 8a 03 be
       0.033675198 -0.12632623 0.031209953 -0.12845711
0000f0 1f 2d 9b bd ed a7 ab 3c 67 e9 40 3d 81 06 26 be
       -0.075769655 0.020954097 0.04709759 -0.16213419
000100 dd 48 51 3b 86 dc ac 3d d3 74 d8 bd a0 2d c2 bd
       0.00319343 0.08440499 -0.105691575 -0.094813585
000110 ca f0 fc bd da 98 a7 bd cc fa ec bd 9a 14 6a bc
       -0.12350614 -0.08183451 -0.11571273 -0.014287138
000120 8a eb 94 3d 6a 0b f4 bd d0 c4 ae 3d fa 3c c4 bd
       0.07271488 -0.119162396 0.08533633 -0.09581943
000130 82 b7 d6 bc 03 f0 d7 bb 79 f9 cb 3c a1 8e d5 bd
       -0.02621055 -0.006589891 0.024899231 -0.10427595
000140 b6 8f 86 bc c5 95 a1 3c 02 3f a7 ba d7 1c ae bd
       -0.016425949 0.019724736 -0.0012759867 -0.085015945
000150 3a b6 0a be ca ab 56 be 84 c1 46 be 51 7a 30 be
       -0.13546076 -0.2096397 -0.19409758 -0.1723416
000160 8f 9a 37 be 3a 89 27 be 87 64 a4 bd 57 6e 79 bd
       -0.17930053 -0.16360942 -0.080269866 -0.060896244
000170 9e 5b ac bb d4 b3 7f bc 1e 01 3f bd ff 45 2d be
       -0.005259945 -0.015606839 -0.046631925 -0.16921233
000180 14 56 7f be cc e4 7e be 22 37 8b be 68 ba 88 be
       -0.2493518 -0.24891967 -0.271905 -0.26704717
000190 19 79 80 be f6 bb 52 be 77 5b 66 be c6 73 35 be
       -0.2509239 -0.20579514 -0.22495829 -0.17719945
0001a0 2a ec f3 be dc 09 aa be bd 21 35 be aa 55 02 be
       -0.47641116 -0.33210647 -0.17688651 -0.12727991
0001b0 2e ce f8 be 5b fe 8b 3d 49 e3 89 bf a1 d3 fb bd
       -0.48594803 0.06835624 -1.0772487 -0.122962244
0001c0 d8 34 71 3d f2 f1 b9 bd 44 7a 41 bd 80 16 6e bc
       0.058888286 -0.090793505 -0.047235742 -0.014531732
0001d0 22 9a f3 3d 88 3d cf 3c 1e 08 b9 bd b8 76 3c 3d
       0.11894633 0.025297895 -0.09034751 0.046011657
0001e0 86 50 f3 bd 7b 48 e2 bd d9 39 e9 bd 40 b4 10 bd
       -0.11880593 -0.11048981 -0.11387987 -0.03532815
0001f0 43 58 a8 bd 2a fa e7 bd d4 44 64 bd ce 49 c2 3d
       -0.082199596 -0.11327012 -0.055729702 0.094867334
000200 68 1f 46 bd 30 d5 70 bd c0 49 4e 3b da 8a f9 3d
       -0.048369795 -0.05879706 0.0031477064 0.12184687
000210 10 58 04 bd 8a a8 43 bd c0 28 93 3c c4 a0 ee bd
       -0.032310545 -0.047768153 0.017963767 -0.11651757
000220 30 bf f6 3c 48 b1 4c bd a0 a5 52 3d cf 4d ad bc
       0.030120462 -0.049973756 0.051427484 -0.021155266
000230 5d a3 3e 3c ae 10 23 3d 26 80 a2 3d b2 2c d7 bd
       0.0116356285 0.03981083 0.079345986 -0.10506572
000240 8e 5b 10 be 45 1f c7 3a ef ac 23 3d 64 9c 7f 3d
       -0.14097425 0.0015191814 0.039959844 0.062405005
000250 73 23 45 3b 32 1b 3a 3c 21 e9 c2 bd 20 00 38 3d
       0.0030080944 0.011359023 -0.09517122 0.044921994
000260 d1 4c 26 3d 4c c0 16 be f9 e1 af bd ac 38 8e 3d
       0.0406006 -0.14721793 -0.08588023 0.06944403
000270 c2 ad 9d 3b 24 fa 7f bd 63 3f 16 be b6 12 86 3d
       0.0048119733 -0.062494412 -0.14672618 0.065465376
000280 ab a7 f4 bd 7f 2e 11 be 77 a4 36 3a 6e d5 35 3d
       -0.119460426 -0.14177893 0.0006967256 0.044392996
000290 46 6d 8f 3d 0f ea 2d 3c 1d 30 f7 bb 87 91 87 bd
       0.07003264 0.010614886 -0.0075435773 -0.06619554
0002a0 ec 5d 0d be 9f 7c 11 be 31 cb 1c be 0b 35 8c bd
       -0.1380536 -0.14207695 -0.15311886 -0.06846055
0002b0 1d 07 be bd e6 e8 19 be 80 46 54 bd ea 20 3b 3c
       -0.092787005 -0.1503025 -0.051825047 0.011421422
0002c0 40 c0 c1 bc 39 ab 93 3c fe 83 06 be e4 16 84 3d
       -0.023651242 0.018025981 -0.13136289 0.064496785
0002d0 c2 48 60 3b 2c 52 ff bd 10 1c 09 be 36 51 86 3c
       0.0034223055 -0.12466845 -0.13389611 0.016396146
0002e0 25 75 ab 3a 46 bd ac bd ba 12 cd bd d8 88 38 bd
       0.0013081176 -0.084345385 -0.100133374 -0.04505238
0002f0 0e 4c c8 bd 04 9f b3 3c 76 43 23 be c5 b1 8e bd
       -0.09780131 0.02192641 -0.15943703 -0.069675006
000300 21 e9 c2 3b 4a 4f 94 3d eb bb fd 3d ee 58 dc bc
       0.0059482013 0.07241686 0.12389358 -0.026897874
000310 2c fa 0d be d4 7f cf bd e9 e1 93 3d a6 48 ef bd
       -0.13864964 -0.10131803 0.07220823 -0.116837785
000320 95 99 f7 bd 7f 8f 24 3c 1f 78 40 bc 2c 50 aa 3d
       -0.1208984 0.010043978 -0.011747389 0.08316073
000330 0a d6 4d 3d 8c c3 a9 bd a5 63 0e be 96 e7 bf bd
       0.05025295 -0.08289251 -0.13905199 -0.093703434
000340 62 b7 1e bc 2f 11 4a bc e2 78 9e 3d 71 11 81 bd
       -0.009687277 -0.012333198 0.077379 -0.06302155
000350 c7 bd d3 bd c9 a0 df bd af 31 88 bd 55 a7 5a 3c
       -0.103389315 -0.10919339 -0.066501014 0.013345559
000360 47 45 a4 3d 44 f6 0d 3d dd 2a 0f be 4f 5f ca bd
       0.08021026 0.034658685 -0.13981195 -0.0988146
000370 7a d1 e0 bd e6 33 3f bd b3 d0 3b bd 80 d4 4a bd
       -0.109774545 -0.046680354 -0.045853328 -0.049519062
000380 70 df a5 bd 42 4d b1 bd a0 67 f1 bd 14 c6 33 3d
       -0.08099258 -0.08657314 -0.11787343 0.043890074
000390 da 28 73 bc fd 62 a1 3b 39 1d 1d be a5 fe d0 bd
       -0.014841283 0.0049251304 -0.15343179 -0.102048196
0003a0 19 97 c2 bd a5 52 98 bc a2 9e 44 bc d5 57 64 bb
       -0.09501476 -0.018594095 -0.012000712 -0.003484239
0003b0 fd 6d 18 be 2b 06 8c bc 39 bc 89 3c b2 37 ce bd
       -0.14885707 -0.017092785 0.016813384 -0.10069217
0003c0 5e 58 19 be 8f d4 66 3c 98 85 25 bd 9f 01 66 bd
       -0.14975116 0.014088764 -0.040410608 -0.05615389
0003d0 6f 25 53 3c 9b 80 f4 bd 6c f2 a9 bb 23 83 7e 3c
       0.012887343 -0.11938592 -0.0051863696 0.015534195
0003e0 65 94 ab 3d 2e ee 8f 3c db 20 1f bd 55 2a da 3a
       0.083779134 0.017569628 -0.038849693 0.0016644696
0003f0 ab 28 9f bd 47 52 f0 3c 46 40 2c be 81 b0 89 3d
       -0.07771429 0.029336108 -0.16821393 0.067231186

fa1.bias f4 [64]
000000 cf 44 39 3d c1 d1 5e bd 37 c8 87 3b 14 bb bc bd
       0.045231637 -0.054399256 0.0041437405 -0.0921537
000010 44 f7 5f 3d 41 1b 56 be b5 30 c8 3d ab 2a f4 bc
       0.05467917 -0.20908834 0.09774915 -0.029805502
000020 91 45 e9 bd a1 1c 4c be 52 a1 94 3c 58 39 c2 3c
       -0.11390222 -0.19932796 0.01814333 0.023708984
000030 75 a8 46 be 9c 22 04 be cb d5 0d 3f 62 bd 1d be
       -0.19400199 -0.12903827 0.5540435 -0.15404275
000040 b3 5e 32 3d be 5d 23 3e da 44 60 3d fa c8 90 3f
       0.043547343 0.15953729 0.054753162 1.1311333
000050 3f e8 8e 3f c3 24 9f 3d 49 89 43 bc e4 07 e3 bd
       1.1164626 0.077706836 -0.011934587 -0.110854894
000060 8c 44 be bd 20 27 1c be ec ef 4f 3f cd 03 0f 3d
       -0.09290418 -0.152493 0.81225467 0.034915734
000070 ab fb bb 3d 62 2f 27 3d 6f 1f 54 be 1d 84 3e bd
       0.09178861 0.040816672 -0.20715116 -0.04651271
000080 a9 6e 4c be a6 5a 34 3f 4f 36 11 bd 33 63 03 bd
       -0.19964088 0.7045082 -0.035452183 -0.032077026
000090 fa 85 94 bd 44 f6 0d 3e df 1d 2c bf d4 86 4f bd
       -0.072521165 0.13863474 -0.6723308 -0.05066569
0000a0 41 03 93 3d 6f 12 88 be 04 9f 33 be 39 91 fb bd
       0.07178355 -0.26576564 -0.17541128 -0.122835584
0000b0 e3 74 f4 bd 6f 14 dd 3c f6 f1 ac bf 61 42 f2 bd
       -0.11936357 0.026987283 -1.3511341 -0.11829067
0000c0 51 35 8a bd d2 9c 43 bc 71 ea 1c be 1a f2 56 3d
       -0.067484505 -0.011939244 -0.15323807 0.05247698
0000d0 c7 74 73 3f 60 9c 38 be 48 2e af bd 3b 72 b2 bd
       0.95100063 -0.18028402 -0.08553749 -0.08713194
0000e0 62 a1 30 3d 6a 0b 74 3c 9c 9f 04 be df 1e 11 3d
       0.043122657 0.014895299 -0.12951511 0.03542983
0000f0 7b da 02 bc 99 b7 00 be 51 0a 7c bd ec ed 58 3d
       -0.00798666 -0.12570037 -0.061533276 0.052961275

fa2.weight f4 [64, 64]
000000 3f ca 25 3f 01 ef 89 bd 09 c4 09 3e e1 9a 8a bf
       0.6476173 -0.067350395 0.13453688 -1.0828515
000010 98 c7 c4 3d 64 b8 ec 3d 8e 52 ee 3d 85 92 8e 3d
       0.09608382 0.11558607 0.1163684 0.0696154
000020 19 ed de bd 8e 07 49 3e 30 dc 92 3c a3 b4 32 bc
       -0.108850665 0.19631788 0.01792726 -0.010907325
000030 c9 67 10 be 90 4f 12 3e bc 24 e7 bf 4b 50 62 3d
       -0.14102091 0.14288163 -1.8058085 0.055252355
000040 52 b2 8a 3c 8f 20 07 3f c2 9c a7 3d 98 e1 32 be
       0.016930733 0.52784055 0.08184196 -0.1746887
000050 6b c4 45 3f 90 c1 9b bf 44 cf 29 3c 27 31 53 bc
       0.77252835 -1.2168446 0.010364357 -0.012890137
000060 e7 f8 08 3f f9 08 14 bd 7d 6d 14 3f ee 74 49 bd
       0.53504795 -0.03614137 0.57979566 -0.04918378
000070 25 32 5a 3e 2e 71 0f bf 4b 1c 32 3e 34 c0 ec bd
       0.21308191 -0.56032073 0.17393605 -0.11560097
000080 dd 3d da 3d 99 a0 03 bf 34 86 3d 40 45 62 18 3e
       0.10656331 -0.5141693 2.961316 0.14881237
000090 f9 ec 26 3e 41 8b 0a bd 43 f4 11 40 90 ef 19 bc
       0.16301335 -0.03382421 2.2805336 -0.009395495
0000a0 83 2c 03 3d bf ae a4 3f fe 58 78 3d 59 c1 39 bd
       0.03202487 1.2865828 0.060631745 -0.045350406
0000b0 b0 9d 92 3d 16 e1 19 39 12 68 d3 bd a9 6e cc 3d
       0.07158983 0.00014675068 -0.10322584 0.09982044
0000c0 41 64 a6 3d 3f 0f 91 3c bc 11 46 3c 9b f0 a8 3d
       0.08124591 0.017707465 0.012089189 0.08249017
0000d0 8e 1d 5a bf c1 21 fc bc 68 ba 08 bc 0c 74 b3 be
       -0.85201347 -0.030777814 -0.008345224 -0.35049474
0000e0 a8 a1 ae 3d 7f 84 ad bc 13 b0 c5 3d 6d 15 64 bd
       0.08526927 -0.021181343 0.09652724 -0.055684496
0000f0 c1 59 56 3e 7f 68 c0 3d 24 97 17 3d 21 d8 4c 3e
       0.20932676 0.09394931 0.037009373 0.20004322
000100 fc 36 0d bf 82 61 ba 3d 2d cd aa 3d 37 29 9b bf
       -0.55162024 0.091006294 0.083399154 -1.2121953
000110 a8 02 c2 bd 65 06 35 3c 76 38 ac 3d ea db 94 3d
       -0.09473163 0.011048888 0.084092066 0.07268508
000120 0a f2 3a 3d 3a fb 30 3e d3 d5 eb 3d 47 74 5c 3d
       0.045640983 0.17283335 0.11515393 0.05382183
000130 5c 44 a5 3d 47 56 9a bd b1 90 0e 40 4c 4e 0d 3e
       0.08069679 -0.07535987 2.2275813 0.13799399
000140 9f 60 24 bd 64 77 b3 3f 42 7a 94 3c 55 32 05 bf
       -0.040131208 1.402081 0.018124703 -0.52029926
000150 18 34 3f 40 28 70 7a bf be ba a2 3c 3e dd b5 bd
       2.9875546 -0.97827387 0.019864436 -0.08880089
000160 69 8a 34 3d dc 09 aa 3d 33 3b a9 bf aa 23 a7 3c
       0.04407731 0.08302662 -1.3221191 0.020402748
000170 d0 cf 25 3d b7 69 70 bf d7 b0 23 3e cb 22 58 bc
       0.04048139 -0.9391131 0.15985428 -0.013191889
000180 d2 64 0c bd 0d 5e 23 be e4 b1 c6 bd 69 a3 93 bd
       -0.034275837 -0.15953846 -0.09701899 -0.072089024
000190 6f 68 24 3e 40 16 5e 3c d5 c5 2b 3f b0 db 52 3c
       0.16055463 0.0135551095 0.6709874 0.01286976
0001a0 53 7b 7e bd 44 97 4f 3f ac 13 7f 3d 56 72 23 3d
       -0.06212933 0.8109019 0.06227462 0.03990396
0001b0 b9 3f 30 3e 44 84 04 3e c0 6f f7 bd 99 c4 4c bd
       0.17211808 0.1294108 -0.120818615 -0.049992178
0001c0 a0 5c 7a bc 9e 88 8f bd 7e c4 db bd 60 9c 38 3e
       -0.015280873 -0.070084795 -0.10730837 0.18028402
0001d0 21 3b 71 be 05 b7 80 bd 73 d8 1f 3d f0 da 54 be
       -0.23557712 -0.06284908 0.03902478 -0.20786643
0001e0 21 e9 c2 3d 17 69 11 bd 8c 78 04 3e ce a9 48 bd
       0.09517122 -0.035500612 0.1293661 -0.048990063
0001f0 c7 40 53 3e 03 89 45 3c 54 da bc bd 12 55 31 3e
       0.2063018 0.012056592 -0.0922133 0.17317608
000200 f7 72 03 bf 50 e7 c1 bc aa 2e 9e 3d f0 23 a5 bf
       -0.513473 -0.023669869 0.07723744 -1.2901592
000210 a4 bf a9 3d 80 62 41 3e 01 61 93 3c 07 c5 10 3e
       0.08288506 0.18885231 0.017990591 0.1413766
000220 10 9f 08 be 2a ec f3 3d 8f e3 07 3e ee e6 52 bb
       -0.13341928 0.11910279 0.132704 -0.0032181102
000230 5c 02 cb bd df 8c 70 3d 17 18 bd be a8 74 4b 3d
       -0.099125594 0.058728095 -0.36932442 0.0496718
000240 1a 35 28 3e 04 48 f8 3e e4 e9 a0 bb 3e 83 3f 3f
       0.16426507 0.48492444 -0.0049106944 0.74809635
000250 80 73 5b 3e 9a 91 6a bf 41 0e 8a bd ad 0b 2b bc
       0.21430779 -0.9162842 -0.06741 -0.010439795
000260 c7 6a b2 3e e4 12 5a 3d c3 35 d2 3e d4 0d 46 bd
       0.3484709 0.05324067 0.41056642 -0.04835303
000270 88 53 2e 3e 79 69 80 bf 2b f5 95 3d dd 1f 98 bd
       0.17024052 -1.0032188 0.07322153 -0.074279524
000280 19 be 26 bd 56 34 1f bd 0e 2e 86 3e f4 d8 c6 3d
       -0.040708635 -0.03886827 0.26207012 0.09709349
000290 0a 75 ba 3d 49 b6 26 bc a5 95 62 3f 72 22 fa bd
       0.09104355 -0.010175296 0.8850959 -0.12213601
0002a0 91 1c 30 bc ed df 05 3f 7d a1 21 3d dd 93 76 bd
       -0.010748998 0.5229481 0.039460648 -0.060199607
0002b0 7d a1 21 3c d8 b1 f1 3d 15 1b 9b 3e 13 60 28 3e
       0.009865162 0.11801499 0.302941 0.164429
0002c0 51 24 94 3d 95 d7 d0 bc 40 93 de 3d 8a 41 31 3e
       0.07233489 -0.025493423 0.108679295 0.17310157
0002d0 41 9f 14 bf 8d 4b a1 bc 1c f1 cf bc aa 2e 1e be
       -0.580555 -0.019689346 -0.025383525 -0.15447488
0002e0 f7 09 1b 3e 55 7e 21 3b 43 9d ce bd 02 1d 3b bc
       0.1514052 0.002464195 -0.10088589 -0.01142049
0002f0 bd 88 47 3d 6e fe ee bc 40 e9 7a 3d 7e c2 06 3e
       0.04871439 -0.029174056 0.0612576 0.1316013
000300 d6 c1 9a be e7 7d dd bd e5 0c 5b 3d b6 2a c9 bd
       -0.3022601 -0.108150296 0.053479094 -0.098225996
000310 00 d0 49 b8 7a e2 56 bd a4 dd 6b 3c 32 4d 95 3d
       -4.811585e-05 -0.05246208 0.014396105 0.072901145
000320 9c 0c bb bd 61 ea 80 3d e4 0b 8d bd 19 5f 68 bd
       -0.091332644 0.06294704 -0.068870336 -0.056731317
000330 9c a9 1c 3e 34 1a 33 bd fc 00 34 be 2e b6 b5 3d
       0.15299076 -0.04372616 -0.175785 0.08872639
000340 f7 88 70 3d 03 e7 4b bd 4b e2 02 3e a1 b5 a2 bd
       0.05872437 -0.049780857 0.12781636 -0.07944799
000350 3b 87 89 bd 63 a8 fd bd aa 3f 14 be 18 fe 54 bd
       -0.06715246 -0.12385633 -0.14477411 -0.052000135
000360 54 d0 69 bd 45 57 a1 3d e0 ba 8f be 79 3c 9d bd
       -0.057083443 0.078779735 -0.28072262 -0.0767755
000370 37 a1 23 3d 5d 37 34 be e2 ce ba 3d 54 f6 29 3d
       0.03994867 -0.17599244 0.09121491 0.041494682
000380 96 59 c9 3d 26 a7 95 bd 03 f7 f3 bd 66 8e 2c 3d
       0.0983154 -0.07307272 -0.11912348 0.04212799
000390 d1 01 81 3d 5e 70 dc bc 81 9f 13 bd 74 52 2b 3d
       0.062991746 -0.02690905 -0.036040787 0.04182668
0003a0 e9 6f 8a bd 67 21 1b be c3 ae eb 3d 71 4b 30 3d
       -0.067596264 -0.1514946 0.115079425 0.043040697
0003b0 ac bb 0d 3e 33 63 03 3d ca 2a a7 bc cc 09 0e 3d
       0.13841122 0.032077026 -0.020406146 0.03467731
0003c0 e9 53 9d bd 6e 7f 99 bc 38 97 7a 3d 51 c5 d5 ba
       -0.0768202 -0.018737521 0.06117937 -0.0016309415
0003d0 bc 5e 34 bd 12 ff 94 bd 83 93 15 bd 4a 83 c4 bd
       -0.04403566 -0.07275213 -0.03651763 -0.09595354
0003e0 9d 34 48 bc 6a 3c 01 3e d3 db 6a bd ec ed d8 3d
       -0.012219575 0.12620702 -0.057338547 0.10592255
0003f0 a5 e2 e3 3d f3 56 4e bc d3 ac 32 3c 4a 9f 31 bd
       0.111272134 -0.0125939725 0.010905462 -0.0433648

fa2.bias f4 [64]
000000 12 69 37 c0 05 07 82 bf 1a f4 c8 3e 38 6d e5 bb
       -2.865788 -1.0158392 0.39248735 -0.0070015453
000010 f9 5e b0 bf c3 3c c5 3e 43 d7 fd be 4c 9e 2a bf
       -1.3778983 0.3852292 -0.49578294 -0.6664779
000020 78 46 6f 3f 76 3c 25 be e2 a1 d7 bf c6 41 1d c0
       0.934669 -0.16136345 -1.6846278 -2.4571395
000030 b3 57 64 be 88 dd fa be d9 77 42 be 4d 65 f1 bf
       -0.2229908 -0.4899714 -0.18991031 -1.885904
000040 51 ec b9 bd 6e e6 2b bf 93 53 21 3f ee af 3b bf
       -0.09078277 -0.6714848 0.6301815 -0.7331532
000050 d9 89 8c bf 38 8e 99 bf a1 66 71 40 aa 78 42 bd
       -1.0979568 -1.1996527 3.771889 -0.047478355
000060 ed 73 db be ea 26 ba bf d7 f5 c9 bf 58 93 88 be
       -0.42861882 -1.4543126 -1.5778149 -0.26674914
000070 b6 94 26 3f 24 fe 29 bf b8 90 d4 bf a6 0a 3e bf
       0.65070665 -0.6640341 -1.6606665 -0.74235
000080 15 7b 94 bd 06 d8 db bf 25 fd a2 3f d6 4f f8 bc
       -0.072500385 -1.71753 1.2733504 -0.030311506
000090 4c 49 a8 bf 56 26 82 bb c1 a2 a6 bf 47 0d 4a bf
       -1.3147368 -0.003971855 -1.3018419 -0.7892651
0000a0 f1 c7 89 be bb e5 b7 be 70 0c 09 bd ac d0 80 bf
       -0.26910356 -0.35917458 -0.033459127 -1.0063682
0000b0 04 73 9a bf ff 50 24 bf d5 05 4e 3f 8b 84 02 bf
       -1.206635 -0.6418609 0.8047765 -0.50983495
0000c0 84 ea ff bd cc 38 46 bf e5 cc 32 bf f7 09 b6 bf
       -0.12495902 -0.77430415 -0.69843894 -1.4221791
0000d0 72 df 00 bf 7b 94 3f bf 53 41 cf bd 2a 24 ce bf
       -0.5034095 -0.7483594 -0.101198815 -1.6104786
0000e0 b1 27 df bb 97 da bd 3f ac bd 62 bf 2a 02 5b bf
       -0.0068101515 1.4832333 -0.88570666 -0.8555018
0000f0 63 95 b2 bf 09 7b b9 bf 60 c3 08 3e d2 c3 a7 be
       -1.3951839 -1.4490672 0.1335578 -0.32766587

fa3.weight f4 [2, 64]
000000 59 50 04 c0 c3 98 af c0 1c e3 b5 40 05 26 79 3d
       -2.067404 -5.4873977 5.6839733 0.060827274
000010 53 e5 33 40 73 68 c1 bf eb e2 61 40 2f aa 37 c0
       2.8108718 -1.511 3.529475 -2.8697622
000020 3f 77 6c c0 30 bb 1d bf a1 7b 8a 40 1f 70 03 c0
       -3.6947782 -0.6161375 4.3275914 -2.0537183
000030 c4 a9 81 bf f2 b5 8c bf 98 13 1c 40 29 27 29 3f
       -1.0129933 -1.0993025 2.438696 0.6607538
000040 ba 28 bb bd 0e ab 86 bf 58 7d c0 c0 6a 3b 9d 40
       -0.09138627 -1.0520952 -6.0153008 4.9135027
000050 41 51 b9 40 66 c6 e9 bf 93 1d f6 bf 90 84 01 40
       5.7911687 -1.8263671 -1.9227775 2.023716
000060 e0 78 db 3e 72 f1 69 be 64 2f 6e c0 2d b6 35 3f
       0.42865658 -0.2284601 -3.7216425 0.70981103
000070 71 b5 8e 40 28 0d 92 40 47 f1 5c c0 b3 83 b8 40
       4.4596486 4.564106 -3.4522264 5.7660766
000080 94 fd 84 40 d9 1b 27 c0 c3 02 33 40 00 61 c2 3c
       4.1559544 -2.6110747 2.7970436 0.023727894
000090 18 45 a9 c0 9e 90 7e c0 fa 47 bb 3f c5 3b 5b bf
       -5.2896843 -3.9775767 1.463134 -0.85638076
0000a0 80 fb 2e be fc f4 27 c0 91 83 c2 bd b9 f5 69 40
       -0.17088127 -2.6243277 -0.094977506 3.6556227
0000b0 30 22 f9 3f c7 40 53 bf a1 5d 97 3f be ba a2 be
       1.9463558 -0.8252072 1.1825448 -0.31783098
0000c0 9d ac d0 bc 2a b8 c3 40 d3 10 c2 c0 b5 49 88 bf
       -0.025472933 6.116231 -6.0645537 -1.0647494
0000d0 21 e6 85 40 bd 91 8a 40 58 77 1b 3c 15 53 a3 3f
       4.184342 4.3302903 0.009488903 1.275973
0000e0 91 de 56 bf 19 9f 07 40 9c ec 7e c0 a6 8c fb 3e
       -0.8393336 2.1190856 -3.9831915 0.49130744
0000f0 0f 06 9b be 20 c6 08 c0 a9 e0 55 40 51 5e c3 40
       -0.3027806 -2.1370926 3.3418372 6.105263
000100 52 d7 bb 3f ef ab e6 3d 2d 21 62 3c 4c 3d 17 3d
       1.4675086 0.112632625 0.013801855 0.03692369
000110 7e 3f 87 3f 68 bd 2d bf fc 35 be bf 38 4c d5 bf
       1.0566251 -0.67867136 -1.4860225 -1.6663885
000120 59 b7 de bf 5e f5 d3 3f 29 fb 14 c0 da bb db bf
       -1.7399703 1.6559255 -2.3278296 -1.7166703
000130 42 85 c4 3f a4 eb 85 bf 44 41 b3 bc c0 ab 3e 40
       1.5353167 -1.0462537 -0.021881707 2.9792328
000140 62 56 0b bb 2c 5d 76 40 9b 4b 21 3f ac 75 43 bf
       -0.0021261205 3.8494368 0.6300599 -0.7635143
000150 bd 34 2c 40 13 df 95 c0 b5 91 d4 3e f8 52 fc bf
       2.690719 -4.6834807 0.41517416 -1.971282
000160 38 a5 34 c0 5f 4c 1b 40 2e 5a 1a c0 ab 13 7f be
       -2.8225842 2.4265363 -2.4117541 -0.24909846
000170 93 86 ad 3f f4 16 20 be a7 c8 12 c0 25 28 db 3c
       1.3556694 -0.15633756 -2.2934968 0.02675254
000180 40 76 0d c0 86 0e 08 c1 c9 a9 01 40 65 d5 e6 ba
       -2.2103424 -8.503546 2.0259879 -0.0017611204
000190 d1 00 a4 bf 09 51 30 be 0e 6d ad bf ff 7f 5c 40
       -1.2812749 -0.17218412 -1.3548906 3.4453123
0001a0 bc 54 97 bb 94 ea b4 3f f4 93 a0 bc c7 fc 7f bf
       -0.0046182554 1.4134088 -0.0196018 -0.9999508
0001b0 a2 a4 8f bf 95 a8 18 40 6f 1d 85 3f c8 56 c1 bf
       -1.1222117 2.3852894 1.0399607 -1.5104609
0001c0 c2 0e 31 b9 3e 1a 08 bf 54 40 e3 bf 2f 34 ac bf
       -0.00016885533 -0.5316504 -1.7754006 -1.3453425
0001d0 ef 9b 2d 3f 34 e8 a4 bd 06 82 bf bb 5c 8d d0 bf
       0.6781606 -0.08052102 -0.0058443574 -1.629314
0001e0 b3 85 16 40 27 c2 c8 3f 6b fa fd 3f 05 ab 2e 40
       2.3519104 1.568425 1.9842046 2.7291882
0001f0 9b 78 20 c0 19 a7 31 c0 bd 25 66 40 51 98 f2 bc
       -2.5073612 -2.7758238 3.5960534 -0.029613646

fa3.bias f4 [2]
000000 16 b9 9a 40 72 7b 6f 3e
       4.8350935 0.23386934
