src/Models/trained/4850_critic.pt (torch_old, 22186 bytes, 7 tensors)

fc1.weight f4 [32, 28]
00000000: 425c 33bd 1a1e d3bf 1145 90bf fa41 46be
00000010: c079 1a3e 03c3 ae3e ce50 253f 79f0 133f
00000020: 7613 173f 54ff 223f f21b f03e 9441 043f
00000030: 62ae ff3e abe6 be3c 5550 773d a99f eabe
00000040: b378 9dbe 28ab 7fbe 8365 62bd abd5 953f
00000050: 9782 003f 566c 3d3e c49a f0be 5465 2a3c
00000060: 5a1c 3540 83e2 113d 3ba7 6fc0 1df9 4ac0
00000070: 0d8b 3cbf 5c17 10bf 8ad6 1ebe caa7 0d3e
00000080: 78b1 763e 4e1e 9b3e e6b8 0d3e b097 c73d
00000090: 4059 493d c1c0 083e e0d2 023e b992 4e3e
000000a0: bec9 83bd 5080 48be 3db0 1ebe f651 9abd
000000b0: 4ee7 ef3c cef2 a1be 6f6b cfbd 73bd 6a3d
000000c0: f7f2 d63e 451c 8b3f a980 c4bd 10fd 4bbf
000000d0: d129 41c0 cfa7 44be 3cbd 9d40 d505 6f3e
000000e0: 4608 d2bd 12e3 27be 3349 ebbc 36ce 863d
000000f0: 2110 27be 8e79 52be 3b9f 953b 0371 02be
00000100: e311 0cbe 84a5 d9ba 48eb ddbc a6be a2bc
00000110: 75c1 2abe 932e f4bd bb7c 023e 65b6 17be
00000120: b127 df3a 6334 1fbe adc0 85bc 2af0 1dbe
00000130: 1c29 aa3d fd7a 64bd c1da 00be b952 fb3d
00000140: 5915 013e 2afb 943d 9bab 823c 1af0 01bd
00000150: 0a10 aebf 4ba8 dabe 6215 e63e d437 e33d
00000160: 8ed2 1e3f 2a85 a63e daa7 783f 0716 da3e
00000170: 3878 2bbd 8505 0abf bb3f 2c3e a0a9 4bbe
00000180: c843 2abf 6064 a13d 802c babe 34bc 1dbe
00000190: fbb0 bebe 2e53 49bf 4b0b a23e 7e5a 833f
000001a0: a4ce dc3f 1da4 a93f e056 5bbf 073a 92bf
000001b0: 89d8 5ec0 74fd a2be 1585 50bf 0e2b 9c3f
000001c0: eb3c 98bc d5d4 87be d255 083e af3a b63e
000001d0: da8a b83e b7a8 d9bc d0be 80bd f5af 143e
000001e0: d427 bb3d 4d05 283e 92b1 cb3e 9ec8 d03e
000001f0: 30e6 c03e 1f2e e23d 34ae b03d 3e39 953e
00000200: 1852 e73e c0c1 713e c364 a6bc 1f86 753e
00000210: 6bd9 a33d 2f01 08c1 b5bc 813e deb6 f83d
00000220: 71a8 f2bf ea6f d5bd b497 5bbf 2223 ffbe
00000230: ac84 61bf 79ba ac3f 6117 3840 6567 7b3f
00000240: 5d20 7b3c a80e ca3d 64de 78bf d4f4 fdbe
00000250: d407 11bf 74b8 52be ac98 99bb 2f50 003e
00000260: 69c1 e5bc 5a90 9e3d da8c aebd 6131 f93c
00000270: 6911 e338 b350 c63e 7172 3dbf 2602 78bf
00000280: e4ca f4be f4f1 873f 1cb6 b03f b644 55bf
00000290: 677d b5bf 7548 debe 5ae6 0e3f 8793 f53f
000002a0: 9fe9 4b3e b299 5c3d 9edc 993d c4af 753e
000002b0: 2954 6f3e 706a 493e 72af 843e 534a a53e
000002c0: 8c6d a53e 2a46 983e f24a 8a3e 7fad 793e
000002d0: e3c4 463e 1481 453e 7a41 803d b7da eebc
000002e0: 5eea 883e f331 8a3d f6c1 dbc0 c8ff 0ebf
000002f0: eb27 983e d2a7 28be aded 003e e01f f53d
00000300: b736 c43e d6c4 1bbe d3eb 41c0 bd50 e0bf
00000310: 367d 0b3f 9ba4 323f 47ca 823f 7c02 1d3f
00000320: 1f4f d13e 5d4f 90be 776b 07bf 0460 02bf
00000330: 26d7 d1be 4046 cebe 43a0 26bf c161 f4bd
00000340: 45a1 e83d 389b ab3c 5ad9 143f bf2b 62be
00000350: bc01 35be 0e98 78bf 04ae 91be 2d8a 6a3d
00000360: b71a 203f b81b b83e 16ad a93f 6097 413f
00000370: a112 d540 b207 a03d 7b2e a340 5bc8 be3f
00000380: 29b7 963e 3d6a 40be d07b 01c0 16f6 aebf
00000390: 6b9f 62bf 1a95 05bf cb8a e7bd c0dd c13e
000003a0: 8fed e73e 864c 423e d29e 0a3f b7b5 083f
000003b0: cc20 423f efed 703f 816f 233f b76a 333f
000003c0: 6d65 2d3f 2ced e33e 3dfb 4dbe b516 50bf
000003d0: ca9b 56bf 15d9 00bf 0698 bcbe 054b 833e
000003e0: 441d 9e40 4958 97bc 5f6e 9140 25b8 52bf
000003f0: e38c 27bf 4777 8c3d ef4e e33d 1888 72be
-0.043789156 -1.6493561 -1.1271077 -0.19361106 0.15085506 0.34133157 0.64576423 0.5778881
0.5901407 0.6367085 0.4689632 0.51662564 0.4993773 0.02330335 0.060379345 -0.45824936
-0.3075615 -0.24967635 -0.05527259 1.1705831 0.50199264 0.18498358 -0.46993077 0.010400135
2.8298554 0.03561641 -3.744582 -3.1714547 -0.73649675 -0.56285644 -0.15511528 0.13833538
0.24091136 0.30296558 0.13840064 0.09745729 0.04915738 0.1335478 0.12775755 0.20173158
-0.06434964 -0.19580197 -0.15496917 -0.07535164 0.0292851 -0.31630558 -0.10127913 0.05730958
0.41982242 1.0868002 -0.095948525 -0.7968302 -3.0181773 -0.19204639 4.92935 0.23342068
-0.10255484 -0.16395214 -0.028721428 0.065823 -0.16314746 -0.20554182 0.004566101 -0.12738423
-0.13678698 -0.0016605114 -0.02708973 -0.019866299 -0.1667536 -0.11922946 0.12742893 -0.14815672
0.0017025379 -0.15547328 -0.016327227 -0.15423647 0.08308622 -0.055781353 -0.12583448 0.122716375
0.126058 0.07274468 0.015950968 -0.03172312 -1.3598645 -0.42706522 0.4493819 0.11094633
0.6204003 0.3252347 0.9713112 0.4259493 -0.041862696 -0.5391467 0.16821186 -0.19888926
-0.66509676 0.07880473 -0.36362076 -0.15403825 -0.372444 -0.7864255 0.3164924 1.0261991
1.7250562 1.3253208 -0.85679436 -1.1423959 -3.4819663 -0.31833994 -0.8145307 1.2200639
-0.018583735 -0.26529565 0.13313988 0.35591647 0.36043435 -0.026569707 -0.062863946 0.14520247
0.09138456 0.16408272 0.39783913 0.4077806 0.3767562 0.11043953 0.086269766 0.29145235
0.4517982 0.23609066 -0.020311719 0.23976944 0.080004536 -8.500289 0.25339285 0.12144254
-1.8957654 -0.104217365 -0.85778356 -0.49831492 -0.88093066 1.3494407 2.876427 0.9820464
0.01532754 0.09866077 -0.9721434 -0.49600852 -0.5665257 -0.20578176 -0.0046873894 0.12530588
-0.028046327 0.077423766 -0.08522959 0.030419054 0.000108274464 0.38733444 -0.7400275 -0.9687828
-0.47811043 1.0620713 1.3805575 -0.8330797 -1.4178895 -0.43414655 0.5582024 1.9185647
0.19913338 0.053857513 0.075127825 0.2399283 0.23371948 0.19669509 0.25915104 0.32283267
0.3231014 0.2974103 0.27010304 0.2438259 0.19411044 0.1928752 0.06262489 -0.029157026
0.26741308 0.06747808 -6.867427 -0.5585904 0.29717955 -0.16470268 0.12590666 0.1196897
0.38322994 -0.15211806 -3.0300186 -1.7524639 0.5448793 0.6978242 1.021798 0.61331916
0.40880677 -0.2818555 -0.52898353 -0.5092776 -0.40984458 -0.40287971 -0.6508829 -0.119327076
0.11358885 0.020948038 0.5814415 -0.22087 -0.17676443 -0.9710702 -0.28453076 0.05726068
0.62540764 0.35958648 1.3255947 0.75621605 6.658524 0.07813968 5.099424 1.4904894
0.29436615 -0.18790527 -2.023182 -1.366885 -0.885245 -0.52180636 -0.113057695 0.37864494
0.4529843 0.18974504 0.5414859 0.53402275 0.75831294 0.9411306 0.63842016 0.7008471
0.6773289 0.44516885 -0.20115371 -0.8128465 -0.83831465 -0.5033124 -0.36834735 0.25643173
4.9410725 -0.018474715 4.544723 -0.8231223 -0.6544935 0.06858688 0.1109904 -0.23684728

fc1.bias f4 [32]
00000000: dda1 073d 4a0e 813e 5030 12bd d07d 0e40
00000010: 3c17 fe3e e600 1840 81b9 d9bf 765b 233f
00000020: a8e3 823f 9d2f be3f 03c2 99bd bc69 bf3f
00000030: 3ec1 48be e7af a4be ffad bdbf ba9f 033f
00000040: a3ef 0240 cf00 863f d88c e43e da00 fc3e
00000050: 18b4 8a3f 0f13 e73c cf43 e2be 8a29 bfbf
00000060: de00 49c0 9b7e 0c3f b10f 10bf 11ab f6bf
00000070: 9bf3 9a3f c9f3 703f 00df 6f3f 60da 843e
0.03311335 0.25206214 -0.035690606 2.226429 0.496271 2.3750548 -1.7009736 0.63811433
1.0225725 1.485828 -0.07507708 1.4954143 -0.19604966 -0.32165453 -1.4818724 0.514156
2.0458763 1.0468997 0.44638705 0.492194 1.083621 0.02820733 -0.4419236 -1.4934552
-3.140678 0.54880685 -0.56273943 -1.9270955 1.2105592 0.94121987 0.93699646 0.25947857

fa1.weight f4 [32, 2]
00000000: fcad 46bd 474c 1ebe 0ead dbbd 7e9a ac3d
00000010: 85e5 0e3e 0034 013d 2870 3c3f 95d3 afbe
00000020: de85 233e 806b 363d b6b0 acbf 0e98 e4bd
00000030: 8c4f ea3e 866b 513f 60e2 42bd 4831 30bd
00000040: 2dfd 8f3f 1f7c 8cbd 4a3b f43e b706 9b3e
00000050: 2d5f 8a3f f9f4 fabe 37f1 85c0 f419 f1bf
00000060: 277f 083e c8c8 8fbc be6a 113f edde cfbe
00000070: d586 94bd db3e bfbd 6379 c53d 2a51 b13d
00000080: 18ec 12be da21 68bd 66e5 993d d8de 953d
00000090: a8fa c43c e818 6fbd 5cb2 2fbd 2a79 67bd
000000a0: 21bd 1ebf 7117 373f 78f1 0ac0 d814 9dbe
000000b0: ffe1 ecbd 8727 1f3e b8d6 4d3f 4466 513f
000000c0: 10bd 38bc de69 bdbd 2687 c5bd 6455 06bd
000000d0: fcde 453f f536 3f3e 56c1 d23d 074b b1bd
000000e0: 4c53 1cbe 2897 26bd 10b2 9c3f cc6e a4be
000000f0: 783c bb3f b305 aa3f ca0c f03d 20ec 323d
-0.04850577 -0.15458785 -0.10726367 0.084279045 0.13954742 0.03154373 0.73608637 -0.34341112
0.15969035 0.044536114 -1.3491428 -0.11161815 0.45763814 0.8180469 -0.04757917 -0.04301575
1.1249138 -0.06859612 0.47701484 0.3027856 1.0810295 -0.49015024 -4.185695 -1.8836045
0.13329755 -0.017551795 0.568035 -0.40599766 -0.0725228 -0.093381606 0.09642293 0.08658059
-0.14347875 -0.05667291 0.075144574 0.07317895 0.024045303 -0.05837336 -0.042894706 -0.056512035
-0.6200734 0.71520144 -2.170988 -0.30679965 -0.11566543 0.15542422 0.8040576 0.8179667
-0.011275545 -0.09248708 -0.09644918 -0.03279628 0.7729337 0.18673308 0.10290782 -0.086568885
-0.1526615 -0.040671498 1.224184 -0.3211578 1.4627829 1.3282989 0.11721189 0.043682218

fa1.bias f4 [32]
00000000: 0fcf 2cbf a033 7fbe 0c07 17bf f6d2 0940
00000010: d73e 1abf 1266 ca3f 6384 2040 a580 34bf
00000020: b204 e93f f63a 1a40 aceb 0e40 780e fb3f
00000030: dfa1 10bf 6fb3 0240 110c 24bf 9366 4ebe
00000040: 35fa 19bf ec18 30be a03f 07bf dc4d 0cbe
00000050: 95f0 2340 cf52 a23f f37f 12bf 1956 ed3f
00000060: a649 cebe 1a9d a6be 97af 1640 b55a c2be
00000070: 2e54 2dbf 7585 1840 a28b 0bbe 42c0 61be
-0.67503446 -0.24922037 -0.5899513 2.153501 -0.60252136 1.5812399 2.5080802 -0.70508796
1.8204558 2.4098487 2.2331343 1.961379 -0.56496996 2.0422018 -0.6408091 -0.20156316
-0.6014741 -0.17197007 -0.5283146 -0.13701576 2.561559 1.2681521 -0.57226485 1.85419
-0.40290564 -0.32541734 2.3544672 -0.3795983 -0.67706573 2.3831456 -0.13627484 -0.22045997

fca1.weight f4 [64, 64]
00000000: 6ce7 123f 2aad 14bf 2298 1e3d 7eda d93e
00000010: 28ce 163e 9bf0 433f 3b30 ccbe de7f b03e
00000020: 47ec 52bf b2f6 ee3e 39f0 8bbe e1ef a63f
00000030: 42bf ba3d fa6f 11be d2e4 4e3f e3c8 313e
00000040: bd41 e8bc 9361 a5bf 0b88 1b3f 449f 433d
00000050: 845a 11c0 6f4c 373e 636e 093d 7345 39bf
00000060: 2151 dabf 679e 3d40 7d5f 243f 2314 31bf
00000070: e7ec 943e 9c52 d33e 09b3 643f 8bc3 993f
00000080: c482 75bd 5e3a f4bd 7886 8b3d 0444 71bd
00000090: b4db 023d 848a 10be 9adb 86be 9c6e 2bbd
000000a0: ffd9 8bbe 90b2 9cbe 5eab 3abe abb7 ac3f
000000b0: dedd 8c3d 28f1 2ebe 380a 36bd 06ff bf3a
000000c0: b43e b53d 22ff b03d b586 643d 9ebe bdbd
000000d0: 8b54 aabe ed31 d5be 6e2e f3bd ef02 a3be
000000e0: c0fa 63bb 70df 6bbc f37b 7cbe 2a95 8d3d
000000f0: 5c34 36bd 67e1 26be a078 14be cec5 b5bd
00000100: 5e3c 2cbd 9981 fbbc 68ec 383d b518 05be
00000110: 241f 3a3d df20 663c 4ab2 c93d a37a 833d
00000120: 8028 92bc bf4d 913c 80c3 543d 6e0f e5bc
00000130: cd66 f73d fb5f febd 4180 93bd c525 edbc
00000140: 2503 22bd 1a1f baba 1a35 a83d 7f30 e6bc
00000150: afc1 d33d d015 0dbc 7a63 813c 34f8 46bd
00000160: 6a9d 94bd 8fe3 87bd 0b96 1fbe ead0 9dbd
00000170: 1943 fbbd 8815 d53c c48c ffbd 5e92 c8bd
00000180: 9621 6f3d 3e1c b93d 3a5e de3d 6e70 f8bd
00000190: 9c24 2bbd 4d53 053d d378 82bd d8f1 ed3d
000001a0: 2a62 273d af60 c0bd 8a8a 01be 6ac6 cdbd
000001b0: 7cc2 12bd 3e22 5c3d 48d9 853c 2813 4fbd
000001c0: 0d09 f7bd 6667 a63d da72 8dbd 8fd8 103d
000001d0: 3121 b9bd 2f22 403d a084 833b b01c e8bc
000001e0: 3c53 2d3d 76b7 973d b125 0abe 55f0 aa3d
000001f0: d61e 97bd 69c1 d5bb 5074 2e3c 4ab7 8b3d
00000200: 756e 653f 38fa 0e3e 0a2a 953d 322d ef3d
00000210: e11e 57c0 aa38 0e3f 3194 63c0 c887 123f
00000220: 0b17 dabd c76c 6e3e 87cb a1bd 5f38 44c0
00000230: 8393 953d dc88 9e3f 2745 443f 59f8 253f
00000240: f2ac a13e f9a4 a9c0 0a17 0dbc fc6b 67bf
00000250: cfd1 f03f 7f68 c0bc d04f 0640 4f31 203f
00000260: b4b9 9f3f 0bdc 17bf 422b 383d b631 9c3e
00000270: 6fd1 563e b851 3ebe 5561 8bbd 87be ebbe
00000280: f43d 423d 8b2a bcbd 9033 a9bd fa3b 82be
00000290: c04d 11bc ccc3 d1be bd48 273e 6e4a eb3d
000002a0: 3ed4 48be 06c9 d0bd 2c72 8bbe 1baa aa3c
000002b0: 683d 563d 2669 62be 109b a1bc d251 9e3d
000002c0: 9096 cb3d 50a7 05bd e063 3f3d f091 68bc
000002d0: 935d b83d ac29 99bf 5033 313c 8b28 b73e
000002e0: 70df 253c 30aa 083d b5ef 2fbe c023 a13d
000002f0: e2a7 d63d fa79 53be 5ee9 4c3f 0753 87bd
00000300: 9112 e73c 0285 8ebe 6edb 99bd dc9f 09bd
00000310: 5d21 1bc0 c26f e83d edff 14bf 817c 503b
00000320: 7a05 3ebc ad90 23be c3d0 14be 3c9e 54be
00000330: 6f91 5dbc 20cb 733d 1511 afbe eff8 a4bd
00000340: 2a1d bb3d 47bd 5bbf 144a 943d 9db2 3fbf
00000350: 9e69 913f aeab e5bc 0869 eb3f ec1c 8fbd
00000360: 6ac2 72c0 026c 5e40 5604 16be 0af0 8a3e
00000370: da73 c63e c73b 18bd a782 a1bd e25d 0cbe
00000380: 3008 b33c e045 5dbd bc56 ecbd 0714 04bf
00000390: 4ac2 9bbd 07da c4bf 370a 3b3f 8225 e8bd
000003a0: 8804 6bbe 5db1 533e 049d 68bf 0fe1 3abf
000003b0: a037 7d3c 3886 71bf 306d c8bd c474 bc3d
000003c0: 30a4 19bc 2880 b13c f897 b1bc d6ea 52bd
000003d0: 527f 053f 0f9b 9ec0 8013 403b 7f61 8a3f
000003e0: 3c4b 8cbd 04c8 6cbd 78e2 393e a422 1f3d
000003f0: 1438 32bd 6b5b 2abf 918a 9b3f 0060 a3bb
0.5738437 -0.5807673 0.038719304 0.4254951 0.1472708 0.7653901 -0.39880547 0.34472555
-0.8239178 0.4667259 -0.27331713 1.3041955 0.09118511 -0.14202872 0.808179 0.17361788
-0.028351659 -1.2920402 0.6075446 0.04775931 -2.2711496 0.17900251 0.03355254 -0.72371596
-1.7056009 2.962793 0.64208204 -0.6917135 0.29086992 0.41273963 0.89335686 1.20128
-0.05993916 -0.11925195 0.06812757 -0.058902755 0.031947806 -0.1411534 -0.26339418 -0.041853532
-0.27314755 -0.30604982 -0.18229434 1.3493551 0.06878255 -0.17084181 -0.04444334 0.0014648146
0.0884985 0.08642413 0.05579253 -0.09264873 -0.33267626 -0.41639653 -0.1187409 -0.31838176
-0.003478691 -0.014396533 -0.24656658 0.069132164 -0.044483528 -0.16296922 -0.1449914 -0.08875619
-0.042049758 -0.030701445 0.04514733 -0.12997706 0.045439854 0.014045923 0.09848459 0.064198755
-0.017841578 0.017737268 0.051944256 -0.027961459 0.120801546 -0.124206506 -0.07202197 -0.028948674
-0.03955378 -0.0014199943 0.08213253 -0.028099297 0.103396766 -0.008611158 0.015794504 -0.04857655
-0.07256587 -0.066352 -0.1558458 -0.07705863 -0.12268657 0.026011243 -0.12478021 -0.09793542
0.05838164 0.0903859 0.10857816 -0.12130819 -0.04178296 0.032550145 -0.06370702 0.11618394
0.0408651 -0.09393441 -0.12650505 -0.1004761 -0.035830006 0.053743593 0.01633896 -0.05055538
-0.12062273 0.081251904 -0.06906672 0.035362776 -0.09039534 0.0469076 0.004013613 -0.028333992
0.042315707 0.07408039 -0.1349094 0.08346621 -0.07378928 -0.0065233004 0.010647848 0.06822069
0.8962167 0.13962638 0.07283409 0.11678542 -3.3612597 0.5555521 -3.55592 0.57238436
-0.10648926 0.23283683 -0.07900148 -3.0659406 0.07303526 1.2385516 0.7666802 0.64832073
0.3157726 -5.3013883 -0.00861145 -0.90399146 1.8814029 -0.023487328 2.0986214 0.6257524
1.2478547 -0.59320134 0.04496313 0.30506676 0.2097833 -0.1858586 -0.06805674 -0.46043798
0.047422364 -0.09187802 -0.08261788 -0.25436383 -0.008868635 -0.40969694 0.16336341 0.11488806
-0.19612214 -0.10194592 -0.27235544 0.020833066 0.052304655 -0.22110423 -0.01972726 0.0773045
0.09940827 -0.032630265 0.046726108 -0.01419495 0.09002223 -1.1965842 0.0108154565 0.3577312
0.010124072 0.03336543 -0.17181285 0.07868147 0.1048124 -0.20651999 0.8004359 -0.06607633
0.028207095 -0.27835852 -0.07512556 -0.03359972 -2.4239113 0.11349441 -0.5820301 0.0031812491
-0.011597985 -0.15973158 -0.14532761 -0.20763487 -0.013523444 0.059519887 -0.3419272 -0.08055293
0.09136422 -0.8583569 0.07240692 -0.7488192 1.1360357 -0.028035965 1.8391428 -0.06987938
-3.793116 3.4753423 -0.14650092 0.2713626 0.38760263 -0.037166383 -0.07886248 -0.13707688
0.02185449 -0.054021716 -0.11539981 -0.5159306 -0.07605417 -1.5379037 0.7306246 -0.11335279
-0.22950947 0.20673127 -0.90864587 -0.7299966 0.015455157 -0.94345427 -0.09786451 0.09201959
-0.009377524 0.021667555 -0.02167891 -0.05149349 0.521474 -4.956428 0.0029308498 1.0811003
-0.06850287 -0.057807937 0.18152797 0.038851395 -0.04351051 -0.6654574 1.2151662 -0.0049858093

fca1.bias f4 [64]
00000000: 7ecd 8cbe aa4a 0bbe 13d1 cfbe 22c0 b1be
00000010: 2caf 253d 9658 b83f c364 843f a35c ce3f
00000020: 1274 ba3f 03d1 c53e fecb dbbe 4031 01bf
00000030: d4a4 063c 1eab a2bd f8c7 b2bd 15ed 97bd
00000040: eb47 e83c 2ac8 323d 9111 d8be 7a20 9d3f
00000050: 97b8 873d 8614 9fbd 2f70 05bf 5813 ebbc
00000060: c21d 16be a0a7 883b e307 e3bd 049e 33be
00000070: 6d3c 48bd dc14 21bd 9bc9 6ebe e182 693f
00000080: bf15 e2be 002f 37bf 1d61 ef3f e377 dfbe
00000090: cd59 2bbd e7d8 24be a6fd 27be c99a d7be
000000a0: 3424 a7be 8d3e 0cbf aca6 b1be 87cb 36be
000000b0: f77f 71be f588 afbd ea57 2a3e afba b1be
000000c0: 83da fdbe c2c6 2bbf 761c bf3c 2fa9 a8be
000000d0: 5b28 47be a99e e93d c7b7 c9be d6d8 5bbe
000000e0: db1c f53c 5d31 f93e 5e54 c5be d2bf 263f
000000f0: 756d 98be 61f0 fcbe ad8d 38bd 45ea 4cbf
-0.27500528 -0.13602701 -0.40589198 -0.34716898 0.04045026 1.4402034 1.034325 1.612202
1.4566672 0.38636026 -0.4292907 -0.50465775 0.008218009 -0.07942794 -0.08729547 -0.07418267
0.028354606 0.043647923 -0.42200902 1.2275536 0.066270046 -0.077675864 -0.52124304 -0.028695747
-0.14659789 0.004170373 -0.11085489 -0.17540747 -0.04888575 -0.039326534 -0.23319094 0.9121533
-0.44157216 -0.7155609 1.8701512 -0.43646154 -0.041833688 -0.16098367 -0.16405353 -0.4211028
-0.32644808 -0.54782945 -0.34697473 -0.17851077 -0.23583971 -0.08571044 0.16635099 -0.3471274
-0.49580774 -0.67100155 0.023329 -0.32941577 -0.19448988 0.11407215 -0.39398023 -0.21469435
0.029920986 0.48670474 -0.3854093 0.65136445 -0.2977101 -0.49402145 -0.045056988 -0.80044967

fca2.weight f4 [1, 64]
00000000: 510d a2bf 0ed4 bfbc 5b07 65bf c731 95bf
00000010: 5d8d d8c1 daac 3340 41b3 3f40 3968 2840
00000020: 22c7 b93f 99e2 0bc2 9770 0bbf 8f09 3dbf
00000030: 4271 30bd b7fb 903b 3337 8ebf e756 79bc
00000040: 1b3f 8f3c 6301 bd3b 997f afbf c3a9 3940
00000050: 83f6 7dbc 8e6a 19bf d1d1 0fbf 5f4b b6c0
00000060: 87dc 29bf 949b e8ba 89b7 0cbf 9a70 84bf
00000070: b17d fb3c 0e8f 993c 67d8 d2be c8a9 d5c0
00000080: bf23 1ebf 9e44 febe 77c4 2540 ba91 c5bf
00000090: 3946 d63c c9a9 9bc0 b637 80bf d7c5 dbbf
000000a0: b65b b0c1 602a 5abf 28e6 b7be 498f c23b
000000b0: 69f8 09bf 3491 36c0 33b8 82c1 d4ea 8abf
000000c0: 7c00 acbf e74c 8abf fcf6 96bc 617a 0cbf
000000d0: b9a7 8ebf ee0d 85bf bd9f 79bf aa77 bbbf
000000e0: a5f1 84bc 76f5 66c1 7bf1 62bf 570f 18c2
000000f0: d43c 5ec1 9d47 62bf c275 c7bf df43 3fbf
-1.2660314 -0.023416545 -0.8946435 -1.1655816 -27.069025 2.807425 2.9953158 2.6313612
1.4513896 -34.971287 -0.54468673 -0.7384271 -0.04307676 0.004424538 -1.1110595 -0.015218473
0.017486146 0.0057679876 -1.3710815 2.9009864 -0.0155006675 -0.59928215 -0.5617953 -5.6967006
-0.66352123 -0.0017746561 -0.5496755 -1.0346863 0.030699583 0.018744972 -0.41180727 -6.6769753
-0.61773294 -0.49661726 2.5901163 -1.5435097 0.026156532 -4.8644757 -1.0017002 -1.7169751
-22.04478 -0.8522091 -0.35917783 0.005937491 -0.5389467 -2.8526125 -16.339941 -1.0852914
-1.3437648 -1.0804719 -0.018428318 -0.54874235 -1.1144935 -1.0394876 -0.97509366 -1.4645894
-0.016228506 -14.434927 -0.8864972 -38.01498 -13.889851 -0.88390523 -1.5582812 -0.7471294
