src/Models/trained/4950_critic.pt (torch_old, 22186 bytes, 7 tensors)

fc1.weight f4 [32, 28]
00000000: e506 2ebd c265 dbbf e886 96bf 69cb 49be
00000010: 3766 5b3e 8efe cc3e 2914 2e3f bd69 0a3f
00000020: a172 143f e828 303f fc0e f63e 617b 133f
00000030: e6e6 053f c930 12bc 5964 4d3d fc37 debe
00000040: 6de6 84be c10e 84be bb48 cbbd 98af 873f
00000050: 8588 e23e 616d e23d ce9c f0be fc29 4f3c
00000060: 1edc 3640 cdb7 4b3d d2d9 77c0 4c75 4ec0
00000070: 6ef9 3abf 3fbd 0bbf b72d 4dbe 182d 133e
00000080: 5f1d 943e cb66 ad3e d509 103e 0888 c43d
00000090: ca56 583d 33eb a13d e03f e93d d8d3 323e
000000a0: cf60 15bd 820e 3cbe 442c 32be 7f53 b5bd
000000b0: b5d7 d13c 3272 9cbe 6a25 d3bd e361 903d
000000c0: 2955 d63e 9abd 893f 4059 69bd 0c47 4abf
000000d0: a5b8 47c0 e43c 76be ff6f 9f40 1f06 213e
000000e0: 4608 d2bd 12e3 27be 3349 ebbc 36ce 863d
000000f0: 2110 27be 8e79 52be 3b9f 953b 0371 02be
00000100: e311 0cbe 84a5 d9ba 48eb ddbc a6be a2bc
00000110: 75c1 2abe 932e f4bd bb7c 023e 65b6 17be
00000120: b127 df3a 6334 1fbe adc0 85bc 2af0 1dbe
00000130: 1c29 aa3d fd7a 64bd c1da 00be b952 fb3d
00000140: 5915 013e 2afb 943d 9bab 823c 1af0 01bd
00000150: e723 b9bf 4951 e2be 4c09 123f 3c0a 8c3e
00000160: 39d6 383f 718c c83e 3144 803f 944f dc3e
00000170: 4025 db3b bbc0 f1be 8d95 6f3e 073b 92be
00000180: 745e 11bf 7dd1 073e fc95 f5be 38cc 43be
00000190: ee94 d0be 6a2a 56bf fb2c ca3e 2ee3 863f
000001a0: d9bc cd3f 5ed9 a53f 0330 6dbf 0f3d 9dbf
000001b0: a797 60c0 a0e3 81be c82f 4ebf 275b 993f
000001c0: e628 b73c 7fc3 6bbe 7001 0b3e e9c3 9b3e
000001d0: ebf9 c73e 7a34 f8bb 519c 6ebd 9a8a ec3d
000001e0: 18c9 ee3d 834b 2f3e 9273 b93e d571 cd3e
000001f0: e9f4 d23e 234e df3d 31c6 863d ef5b 8c3e
00000200: 3d8c c13e 673e 7b3e c93e 68bd 1159 833e
00000210: 0bc5 793d e3a8 0ac1 dc4c 983e b264 243e
00000220: 3bcc f6bf 48cb 02be 3db1 5cbf faa5 e1be
00000230: 995f 41bf 90d1 a13f b527 3a40 03b5 713f
00000240: d331 f5bb 97e8 b23d b309 71bf 7b35 f1be
00000250: 5b25 10bf fc5d 7bbe 12fd 17bd 3c69 b93d
00000260: 062e 793c b5ad 193e 9ce8 e7bd d447 853d
00000270: 1902 983b 92bd cf3e cc32 5dbf 513b 81bf
00000280: 0e6e 0dbf 72ca 9a3f e42d b23f 98d2 34bf
00000290: 8d8e a0bf ea7e 9cbe 3257 123f 49c1 0140
000002a0: 47f9 5e3e f4fd 4f3d e338 8a3d 67a0 783e
000002b0: c65c 6c3e 5b65 7a3e c136 973e 2c6a ad3e
000002c0: 6cbf b93e 1f44 aa3e a3a9 803e a2db 7e3e
000002d0: 5094 4b3e c889 443e c349 153d dd4f 01bd
000002e0: 3251 733e d9e9 933b 9880 e4c0 facb 27bf
000002f0: 15b4 8b3e 4fa4 24be 0cde 2b3e 2b69 0d3e
00000300: ef12 ac3e 636f 04be 90a0 46c0 f88c d8bf
00000310: 9227 1b3f 6472 2e3f 5e1e 873f d039 193f
00000320: 9006 df3e 40d2 abbe 8b86 18bf 6aab fbbe
00000330: b484 c6be ebd3 d0be 7d53 23bf 4372 c4bd
00000340: 955c 7c3d 4a72 17bd 71c3 143f e9f9 82be
00000350: d524 18be 2fe9 79bf 4045 acbe b8e1 193d
00000360: d7e6 1e3f 23ad 993e a6e7 ab3f 3ffb 503f
00000370: 41bf d740 e00a 0d3d e4c5 a340 8d26 c83f
00000380: 5e95 9c3e 9af5 85bd 5423 01c0 1897 a8bf
00000390: 8620 5bbf caaf 00bf 4eef 3dbe f3cc bb3e
000003a0: 174a e63e 7279 2c3e 2791 023f 6bc9 ff3e
000003b0: 0d63 383f fa7c 683f c703 103f 0ab3 313f
000003c0: 6ccd 273f c701 cf3e 5737 5fbe b17b 4ebf
000003d0: 6831 4dbf e277 d4be 2557 d2be c7e9 8a3e
000003e0: 9969 a640 8ab6 01bc e9c1 9740 1ffa 4bbf
000003f0: eaf0 2bbf e56a cf3c b373 003e 9074 9cbe
-0.042487044 -1.7140429 -1.175992 -0.19706501 0.2142571 0.4003796 0.6799951 0.54067594
0.5798741 0.6881242 0.48058307 0.57610136 0.5230545 -0.008922764 0.050144527 -0.43402088
-0.2595705 -0.25792506 -0.099259816 1.0600462 0.4424478 0.110560186 -0.46994632 0.012644287
2.857185 0.049735833 -3.8726697 -3.2259092 -0.7303685 -0.5458564 -0.2003697 0.1437267
0.28928658 0.33867487 0.1406625 0.095962584 0.052817143 0.07906189 0.11389136 0.17463624
-0.036469277 -0.1836491 -0.17399698 -0.08853816 0.025615552 -0.30555874 -0.103098705 0.070499204
0.41861847 1.0760987 -0.05696988 -0.7901466 -3.1206448 -0.24046665 4.9824214 0.15724991
-0.10255484 -0.16395214 -0.028721428 0.065823 -0.16314746 -0.20554182 0.004566101 -0.12738423
-0.13678698 -0.0016605114 -0.02708973 -0.019866299 -0.1667536 -0.11922946 0.12742893 -0.14815672
0.0017025379 -0.15547328 -0.016327227 -0.15423647 0.08308622 -0.055781353 -0.12583448 0.122716375
0.126058 0.07274468 0.015950968 -0.03172312 -1.4464082 -0.4420264 0.57045436 0.27351558
0.7220188 0.39169648 1.002081 0.43029463 0.00668779 -0.47217354 0.23396893 -0.2856066
-0.5678475 0.13263507 -0.47965991 -0.19120872 -0.40738624 -0.8365847 0.39487442 1.053808
1.6073257 1.295696 -0.92651385 -1.2284259 -3.5092561 -0.25368977 -0.8054166 1.1980942
0.02235837 -0.23023795 0.13574767 0.30422905 0.3905786 -0.007574615 -0.058254544 0.11549874
0.11659449 0.17118649 0.36220986 0.4012591 0.41202477 0.10903575 0.06580771 0.2741389
0.37802306 0.24535523 -0.0567005 0.2565389 0.06097893 -8.666232 0.2974614 0.16054037
-1.9281076 -0.12772858 -0.86207944 -0.44071943 -0.75536495 1.2642078 2.9086735 0.94416827
-0.007482746 0.08735769 -0.94155425 -0.47111115 -0.56307 -0.24547571 -0.03710658 0.09053275
0.015208727 0.1500767 -0.113236636 0.06507841 0.004638922 0.40574318 -0.86405635 -1.0096227
-0.55246055 1.2093031 1.3920255 -0.7063384 -1.2543503 -0.30565578 0.571643 2.0274222
0.2177478 0.050779298 0.067491315 0.24279939 0.23082265 0.24452727 0.2953396 0.33870065
0.36278856 0.33255097 0.25129423 0.24888471 0.19880795 0.19193184 0.036447298 -0.031570304
0.23761442 0.004513961 -7.1406975 -0.6554562 0.2728583 -0.16078304 0.16783923 0.1380965
0.33608195 -0.12933116 -3.10355 -1.691802 0.60607255 0.68143296 1.0556142 0.5985384
0.43559694 -0.33558846 -0.59580296 -0.49154216 -0.3877312 -0.4078668 -0.6379927 -0.09592106
0.06161173 -0.03697423 0.5811072 -0.2558129 -0.148578 -0.97621435 -0.33646584 0.037568778
0.62070984 0.30014905 1.3430068 0.8163337 6.7420964 0.0344342 5.1179066 1.5636765
0.30582708 -0.065409854 -2.0177813 -1.317111 -0.855965 -0.5026823 -0.18548319 0.366798
0.449784 0.16843203 0.51002735 0.49958357 0.7202614 0.908157 0.56255764 0.69413817
0.65547824 0.40431044 -0.21798454 -0.8065749 -0.8015351 -0.41497713 -0.4108211 0.27131483
5.2003903 -0.007917056 4.7424207 -0.7967853 -0.6716448 0.025319526 0.12544136 -0.3055768

fc1.bias f4 [32]
00000000: dcb2 b0bb ec1e 903e 5030 12bd 7c5c 1040
00000010: 527f 073f 9ab6 1840 fb76 d4bf bb6b 143f
00000020: fc89 813f bd22 bb3f a996 61bd 5c79 c23f
00000030: 3ec1 48be 7a2b b6be ed12 bdbf 9262 023f
00000040: 0635 0240 d970 863f c665 d13e 729d 0a3f
00000050: 3e94 8e3f 0f13 e73c 17d7 eabe 20eb c2bf
00000060: 6453 4bc0 8df4 1f3f 447e 19bf 0527 f7bf
00000070: 4d37 963f 6e9e 623f 3bc7 743f b01d 293e
-0.0053924154 0.28148592 -0.035690606 2.2556448 0.5292865 2.386145 -1.659881 0.57976884
1.0120234 1.4619976 -0.05507532 1.5193286 -0.19604966 -0.35580045 -1.4771401 0.50931656
2.0344863 1.0503188 0.4089796 0.5414649 1.113899 0.02820733 -0.45867226 -1.5228004
-3.1769648 0.6248253 -0.5995829 -1.9308783 1.1735626 0.88522995 0.956165 0.16515231

fa1.weight f4 [32, 2]
00000000: fcad 46bd 474c 1ebe 0ead dbbd 7e9a ac3d
00000010: 85e5 0e3e 0034 013d 7a26 3d3f 4d23 aebe
00000020: de85 233e 806b 363d b55e acbf 730d f7bd
00000030: 6789 eb3e 5ee1 513f 60e2 42bd 4831 30bd
00000040: 4c41 903f 389b 82bd 6b31 f53e 139e 9b3e
00000050: 4fc1 8a3f 3fe1 f7be c1d0 82c0 e95a e9bf
00000060: 277f 083e c8c8 8fbc 6c14 123f c976 cdbe
00000070: d586 94bd db3e bfbd 6379 c53d 2a51 b13d
00000080: 18ec 12be da21 68bd 66e5 993d d8de 953d
00000090: a8fa c43c e818 6fbd 5cb2 2fbd 2a79 67bd
000000a0: f32b 1ebf bc33 363f 2a9d 0ac0 7b2c a1be
000000b0: ffe1 ecbd 8727 1f3e 71b4 4e3f 35ca 513f
000000c0: 10bd 38bc de69 bdbd 2687 c5bd 6455 06bd
000000d0: e840 463f 7371 423e 56c1 d23d 074b b1bd
000000e0: 4c53 1cbe 2897 26bd c200 9d3f a084 a2be
000000f0: dddd d33f 1ad6 ac3f ca0c f03d 20ec 323d
-0.04850577 -0.15458785 -0.10726367 0.084279045 0.13954742 0.03154373 0.73886836 -0.34011307
0.15969035 0.044536114 -1.3466402 -0.12063112 0.46003267 0.8198451 -0.04757917 -0.04301575
1.1269927 -0.06377262 0.47889265 0.3039404 1.0840243 -0.48414037 -4.0879827 -1.8230869
0.13329755 -0.017551795 0.5706241 -0.40129688 -0.0725228 -0.093381606 0.09642293 0.08658059
-0.14347875 -0.05667291 0.075144574 0.07317895 0.024045303 -0.05837336 -0.042894706 -0.056512035
-0.6178581 0.7117269 -2.1658425 -0.31479248 -0.11566543 0.15542422 0.8074408 0.8194917
-0.011275545 -0.09248708 -0.09644918 -0.03279628 0.7744279 0.1898859 0.10290782 -0.086568885
-0.1526615 -0.040671498 1.2265856 -0.3174181 1.6552082 1.3502839 0.11721189 0.043682218

fa1.bias f4 [32]
00000000: 0fcf 2cbf a033 7fbe 0c07 17bf 749c 0940
00000010: d73e 1abf 8145 ca3f 1a41 2040 a580 34bf
00000020: 7792 e83f d704 1a40 f1b7 0e40 d0de 0240
00000030: dfa1 10bf f880 0240 110c 24bf 9366 4ebe
00000040: 35fa 19bf ec18 30be a03f 07bf dc4d 0cbe
00000050: cbbe 2340 2655 a23f f37f 12bf bebe ec3f
00000060: a649 cebe 1a9d a6be cc75 1640 b55a c2be
00000070: 2e54 2dbf f455 1840 2f2f 96be 42c0 61be
-0.67503446 -0.24922037 -0.5899513 2.1501741 -0.60252136 1.5802461 2.5039735 -0.70508796
1.8169698 2.4065454 2.229977 2.0448494 -0.56496996 2.0391216 -0.6408091 -0.20156316
-0.6014741 -0.17197007 -0.5283146 -0.13701576 2.55852 1.2682235 -0.57226485 1.849571
-0.40290564 -0.32541734 2.3509398 -0.3795983 -0.67706573 2.3802462 -0.29332873 -0.22045997

fca1.weight f4 [64, 64]
00000000: e2c9 143f d2dd 0fbf 2298 1e3d 555d de3e
00000010: d983 8c3e 6873 453f 2bdd b6be ebc1 a73e
00000020: cad6 58bf 7052 ed3e 980a 6fbe 0085 a73f
00000030: 42bf ba3d 34a2 14be 4782 5a3f 530b 1d3e
00000040: 833d f8ba 4e24 8abf 54b4 0f3f 8425 4e3e
00000050: 9b6f 03c0 6f4c 373e cc46 7d3d 4f2e 3dbf
00000060: 163c d7bf c046 3240 79b9 273f 2ae4 2abf
00000070: 5e7e 8f3e d050 cb3e 47ba 6f3f 22a6 9e3f
00000080: c482 75bd 5e3a f4bd 7886 8b3d c862 82bd
00000090: b4db 023d 04f4 13be 710d 8abe 9c6e 2bbd
000000a0: 3855 8ebe 05a0 9fbe a283 3fbe 2b3d ad3f
000000b0: dedd 8c3d 418b 33be 380a 36bd 06ff bf3a
000000c0: b43e b53d 22ff b03d b586 643d 9ebe bdbd
000000d0: 1671 adbe 445a d5be 6e2e f3bd 9a07 a6be
000000e0: c0fa 63bb 70df 6bbc 211c 81be 2a95 8d3d
000000f0: 5c34 36bd 6a1e 2cbe 71b5 09be cec5 b5bd
00000100: 5e3c 2cbd 9981 fbbc 68ec 383d b518 05be
00000110: 241f 3a3d df20 663c 4ab2 c93d a37a 833d
00000120: 8028 92bc bf4d 913c 80c3 543d 6e0f e5bc
00000130: cd66 f73d fb5f febd 4180 93bd c525 edbc
00000140: 2503 22bd 1a1f baba 1a35 a83d 7f30 e6bc
00000150: afc1 d33d d015 0dbc 7a63 813c 34f8 46bd
00000160: 6a9d 94bd 8fe3 87bd 0b96 1fbe ead0 9dbd
00000170: 1943 fbbd 8815 d53c c48c ffbd 5e92 c8bd
00000180: 9621 6f3d 3e1c b93d 3a5e de3d 6e70 f8bd
00000190: 9c24 2bbd 4d53 053d d378 82bd d8f1 ed3d
000001a0: 2a62 273d af60 c0bd 8a8a 01be 6ac6 cdbd
000001b0: 7cc2 12bd 3e22 5c3d 48d9 853c 2813 4fbd
000001c0: 0d09 f7bd 6667 a63d da72 8dbd 8fd8 103d
000001d0: 3121 b9bd 2f22 403d a084 833b b01c e8bc
000001e0: 3c53 2d3d 76b7 973d b125 0abe 55f0 aa3d
000001f0: d61e 97bd 69c1 d5bb 5074 2e3c 4ab7 8b3d
00000200: 06a9 693f 0164 053e 0a2a 953d efc6 f13d
00000210: 771f 59c0 ae39 113f f921 61c0 83b1 103f
00000220: 9082 f5bd 4eda 673e daaa 72bd 7061 45c0
00000230: 8393 953d 11cc 9e3f af02 423f c24c 2a3f
00000240: 08b2 9f3e 52a4 acc0 8fe1 5bbb 501b 69bf
00000250: 834b ee3f 7f68 c0bc 60ed 0440 89fc 203f
00000260: 1dd7 9a3f 56d6 0abf ac1b 5e3d a08b a83e
00000270: 7044 523e 7fe8 40be cd97 a5bd 2817 f2be
00000280: f43d 423d 8b2a bcbd 9033 a9bd 5e74 81be
00000290: c04d 11bc cc2d d0be 73b3 263e 6e4a eb3d
000002a0: ab81 47be 193b d0bd 9ea4 8abe 4612 7d3c
000002b0: 683d 563d d289 60be 109b a1bc d251 9e3d
000002c0: 9096 cb3d 50a7 05bd e063 3f3d f091 68bc
000002d0: f5bb b73d 9e55 98bf 5033 313c 39f0 b63e
000002e0: 70df 253c 30aa 083d c97c 2fbe c023 a13d
000002f0: e2a7 d63d f554 52be 84ee 4b3f 0753 87bd
00000300: 0188 c33d 9f51 b1be 6edb 99bd 42a7 0e3d
00000310: cfb0 05c0 5008 d73d b91c 2bbf c0e5 80bc
00000320: e232 6abd 65f0 23be cb47 3ebe c115 58be
00000330: 6f91 5dbc 6098 dc3d 9197 bdbe 66e6 f4bd
00000340: 0cae ff3d 41ea 61bf 3ad0 e63d ef0a 5abf
00000350: 3877 7d3f aeab e5bc b2db e83f 925f 06be
00000360: 0fc4 80c0 0fe0 6440 2f70 2ebe 3f00 8d3e
00000370: 00ec ce3e eb03 3ebd bb9d 93bd be39 16be
00000380: 3008 b33c e045 5dbd bc56 ecbd d339 07bf
00000390: 4ac2 9bbd fa22 c7bf 9c69 383f 8225 e8bd
000003a0: e913 75be 6e50 483e 92b7 6bbf 4951 05bf
000003b0: a037 7d3c 71d0 74bf 306d c8bd c474 bc3d
000003c0: 30a4 19bc 2880 b13c f897 b1bc d6ea 52bd
000003d0: 9677 023f 66d3 9fc0 8013 403b 703e 893f
000003e0: 3c4b 8cbd 04c8 6cbd cbc3 2e3e a422 1f3d
000003f0: 1438 32bd 7b4b 2dbf fa9e 9b3f 0060 a3bb
0.5812055 -0.56197846 0.038719304 0.43430582 0.27444342 0.7712922 -0.35715613 0.32765135
-0.8470274 0.46351957 -0.23343885 1.3087463 0.09118511 -0.14515 0.8535504 0.15336351
-0.001893923 -1.0792329 0.56134534 0.20131499 -2.0536869 0.17900251 0.061835095 -0.73898786
-1.6815212 2.7855682 0.65517384 -0.667544 0.28026098 0.39710093 0.9364361 1.239445
-0.05993916 -0.11925195 0.06812757 -0.06366497 0.031947806 -0.14448553 -0.2696338 -0.041853532
-0.27799392 -0.31176773 -0.18702558 1.3534292 0.06878255 -0.1753359 -0.04444334 0.0014648146
0.0884985 0.08642413 0.05579253 -0.09264873 -0.3387534 -0.4167043 -0.1187409 -0.32427675
-0.003478691 -0.014396533 -0.25216773 0.069132164 -0.044483528 -0.16808477 -0.1344812 -0.08875619
-0.042049758 -0.030701445 0.04514733 -0.12997706 0.045439854 0.014045923 0.09848459 0.064198755
-0.017841578 0.017737268 0.051944256 -0.027961459 0.120801546 -0.124206506 -0.07202197 -0.028948674
-0.03955378 -0.0014199943 0.08213253 -0.028099297 0.103396766 -0.008611158 0.015794504 -0.04857655
-0.07256587 -0.066352 -0.1558458 -0.07705863 -0.12268657 0.026011243 -0.12478021 -0.09793542
0.05838164 0.0903859 0.10857816 -0.12130819 -0.04178296 0.032550145 -0.06370702 0.11618394
0.0408651 -0.09393441 -0.12650505 -0.1004761 -0.035830006 0.053743593 0.01633896 -0.05055538
-0.12062273 0.081251904 -0.06906672 0.035362776 -0.09039534 0.0469076 0.004013613 -0.028333992
0.042315707 0.07408039 -0.1349094 0.08346621 -0.07378928 -0.0065233004 0.010647848 0.06822069
0.91273534 0.1302643 0.07283409 0.11805522 -3.3925455 0.5672864 -3.5176985 0.5652086
-0.119877934 0.2264187 -0.059244968 -3.084072 0.07303526 1.2406026 0.75785345 0.66523373
0.31190515 -5.3950586 -0.0033551191 -0.910573 1.8616794 -0.023487328 2.0769882 0.6288534
1.2096897 -0.542333 0.05422561 0.32919025 0.2053392 -0.1883869 -0.08085594 -0.47283292
0.047422364 -0.09187802 -0.08261788 -0.25284094 -0.008868635 -0.4065994 0.16279392 0.11488806
-0.19483058 -0.10167522 -0.27078718 0.015446251 0.052304655 -0.21927574 -0.01972726 0.0773045
0.09940827 -0.032630265 0.046726108 -0.01419495 0.08971397 -1.1901128 0.0108154565 0.3573015
0.010124072 0.03336543 -0.17137446 0.07868147 0.1048124 -0.20540221 0.7966082 -0.06607633
0.09547425 -0.34632584 -0.07512556 0.03482748 -2.0889165 0.10499632 -0.668407 -0.015734553
-0.057177432 -0.16009672 -0.18582074 -0.21102048 -0.013523444 0.10771251 -0.37029698 -0.119580075
0.12484369 -0.8824807 0.11270185 -0.85172933 0.9901004 -0.028035965 1.8192046 -0.13122395
-4.023933 3.5761755 -0.17034982 0.2753925 0.4041443 -0.046390455 -0.07207819 -0.14670464
0.02185449 -0.054021716 -0.11539981 -0.5282261 -0.07605417 -1.5557549 0.7203615 -0.11335279
-0.23933376 0.19561931 -0.9207698 -0.52077156 0.015455157 -0.95630556 -0.09786451 0.09201959
-0.009377524 0.021667555 -0.02167891 -0.05149349 0.50963724 -4.9945555 0.0029308498 1.072218
-0.06850287 -0.057807937 0.17066877 0.038851395 -0.04351051 -0.676933 1.2157891 -0.0049858093

fca1.bias f4 [64]
00000000: fb94 90be aa4a 0bbe ec6e d0be 8e59 b9be
00000010: 8cd3 b53d 295a b83f dd19 843f 5991 ce3f
00000020: a399 ba3f 1074 cd3e 5a80 dbbe 49b9 01bf
00000030: d4a4 063c 1eab a2bd 6457 b4bd 15ed 97bd
00000040: eb47 e83c 2ac8 323d 1014 d6be 264f 9d3f
00000050: 97b8 873d 0dac 8dbd 85f2 05bf e809 7abc
00000060: 766b 1dbe a0a7 883b db55 cdbd 0908 34be
00000070: 6d3c 48bd dc14 21bd bbea 6dbe bfc4 673f
00000080: ffd8 e4be ca8f 39bf ea95 ef3f afcb e4be
00000090: cd59 2bbd e4f3 2abe 529a 21be 5320 d7be
000000a0: 8b9f a0be b27a 0cbf f398 b9be 87cb 36be
000000b0: 81e3 73be 5a6e 2ebd bf70 223e f3a9 b5be
000000c0: 3fd3 ffbe b9e6 2cbf 761c bf3c 73b4 b0be
000000d0: 34a6 5bbe 9fe1 003e b118 cabe 5c8a 57be
000000e0: db1c f53c f11e f33e 7064 c2be f459 223f
000000f0: 38f5 97be 50f4 febe 40fd 31bd d716 4cbf
-0.28238663 -0.13602701 -0.40709627 -0.36201137 0.0887824 1.4402515 1.0320393 1.6138107
1.4578136 0.4012761 -0.42871362 -0.5067335 0.008218009 -0.07942794 -0.08805731 -0.07418267
0.028354606 0.043647923 -0.4181218 1.2289779 0.066270046 -0.06917582 -0.5232318 -0.015261151
-0.15373024 0.004170373 -0.10026141 -0.1758119 -0.04888575 -0.039326534 -0.23234074 0.90534586
-0.44696805 -0.7248503 1.8717625 -0.44686648 -0.041833688 -0.166946 -0.15781525 -0.4201685
-0.31371722 -0.5487472 -0.36249503 -0.17851077 -0.23817255 -0.04258571 0.15863322 -0.35481223
-0.49965855 -0.67539555 0.023329 -0.34512672 -0.2145012 0.12586068 -0.39471963 -0.21048874
0.029920986 0.47484544 -0.37967253 0.6341851 -0.29679275 -0.4979577 -0.04345441 -0.7972235

fca2.weight f4 [1, 64]
00000000: 1d66 a0bf 0ed4 bfbc b5f1 64bf 0798 99bf
00000010: 9cfd dcc1 049c 3340 ff0d 3f40 0165 2840
00000020: 2eae b93f 24aa 0cc2 23cd 0ebf ae56 38bf
00000030: 4271 30bd b7fb 903b 6637 8cbf e756 79bc
00000040: 1b3f 8f3c 6301 bd3b d361 afbf 043c 3940
00000050: 83f6 7dbc 9c75 14bf 596c 14bf 9744 bac0
00000060: f4e7 22bf 949b e8ba 15ae 12bf eee8 85bf
00000070: b17d fb3c 0e8f 993c 350e debe 1684 ccc0
00000080: 4731 17bf 03f0 02bf 69c5 2540 1c9e bcbf
00000090: 3946 d63c 89f4 9ac0 ddb4 80bf 66af dabf
000000a0: 53c3 b6c1 952c 57bf 155b bdbe 498f c23b
000000b0: 7d33 11bf 9063 37c0 c956 83c1 78a1 88bf
000000c0: e386 a6bf 3c3c 8cbf fcf6 96bc 1a2b 0abf
000000d0: 02e6 9dbf 013d 81bf bd08 7cbf 37d6 bdbf
000000e0: a5f1 84bc 118c 70c1 6915 67bf d9b0 18c2
000000f0: 313f 69c1 823d 61bf c626 c8bf 0c67 4dbf
-1.2531163 -0.023416545 -0.89431316 -1.199952 -27.623833 2.8063974 2.9852293 2.6311648
1.450628 -35.166153 -0.55781764 -0.7200726 -0.04307676 0.004424538 -1.0954406 -0.015218473
0.017486146 0.0057679876 -1.3701729 2.894288 -0.0155006675 -0.5799196 -0.57977825 -5.820873
-0.6363518 -0.0017746561 -0.5729688 -1.046171 0.030699583 0.018744972 -0.43370214 -6.391124
-0.59059566 -0.5114748 2.590174 -1.4735751 0.026156532 -4.8423505 -1.0055195 -1.7084777
-22.845373 -0.840524 -0.36983553 0.005937491 -0.5671919 -2.8654518 -16.417376 -1.0674276
-1.3009914 -1.0955882 -0.018428318 -0.5397202 -1.2335818 -1.0096742 -0.98450834 -1.4830998
-0.016228506 -15.034196 -0.90267044 -38.172703 -14.577928 -0.8798448 -1.5636833 -0.8023536
