src/Models/trained/750_actor.pt (torch_old, 25545 bytes, 6 tensors)

fa1.weight f4 [64, 28]
000000 f6 fd 3b 3c 26 c1 5f 3e 51 dd 2c 3f 3f 2a 4d 3f
       0.011474123 0.21851024 0.675252 0.8014259
000010 78 15 84 3e a9 d6 53 bd 42 10 a3 bd af 71 90 be
       0.2579763 -0.051718388 -0.07962085 -0.28211734
000020 b7 de 3e bd 01 d3 a8 3d b9 ef 8b 3d d6 7e f7 bd
       -0.046599116 0.08243371 0.06832833 -0.12084739
000030 73 b6 81 3d c0 e3 0c bd 31 58 05 bc e4 b8 60 be
       0.063336276 -0.034396887 -0.008138702 -0.2194553
000040 ad 85 fc 3d dd 94 26 3e 0c 10 10 be e3 2c 39 be
       0.12330184 0.16267724 -0.14068621 -0.18083529
000050 58 61 9b bf dc 85 63 be 4f 18 6e bc e1 21 58 bc
       -1.2139082 -0.22219032 -0.014532163 -0.013191671
000060 77 0e 4a be f8 27 ac bd 4b 1e 84 3f 7b 31 45 bf
       -0.1973208 -0.08406061 1.0321745 -0.77028626
000070 38 3f 09 be cf 5a 79 3d cc d1 b3 bd e6 17 d2 bd
       -0.13403022 0.060877617 -0.0878025 -0.102584645
000080 fa 85 94 3d 27 90 11 be 3f 00 70 3d e3 11 0c be
       0.072521165 -0.14215146 0.058593985 -0.13678698
000090 f9 5e b0 3c df a1 90 bd b3 7c 74 3d 62 e4 81 bd
       0.021529661 -0.070621245 0.059689235 -0.06342389
0000a0 28 b9 ca bd a3 c5 28 be 94 f9 bc bd 45 1f 47 bd
       -0.09898597 -0.16481642 -0.09227291 -0.048613805
0000b0 e5 62 77 3d 6a 8e 73 3d af 37 87 3d fc 6a 75 bd
       0.060397048 0.05946199 0.06602418 -0.05991648
0000c0 55 fb a1 3d 50 14 25 be 4d b6 ed bd 1a f0 01 3d
       0.07909266 -0.1612103 -0.11607037 0.03172312
0000d0 6a fe a7 bd 96 41 86 3d 9e 77 19 be de 8b 22 be
       -0.082028225 0.06555478 -0.14987037 -0.15873668
0000e0 01 ef 09 3d aa 5b 01 be 04 ac ff 3c 43 8a 03 be
       0.033675198 -0.12632623 0.031209953 -0.12845711
0000f0 1f 2d 9b bd ed a7 ab 3c 67 e9 40 3d 81 06 26 be
       -0.075769655 0.020954097 0.04709759 -0.16213419
000100 dd 48 51 3b 86 dc ac 3d d3 74 d8 bd a0 2d c2 bd
       0.00319343 0.08440499 -0.105691575 -0.094813585
000110 ca f0 fc bd da 98 a7 bd cc fa ec bd 9a 14 6a bc
       -0.12350614 -0.08183451 -0.11571273 -0.014287138
000120 8a eb 94 3d 6a 0b f4 bd d0 c4 ae 3d fa 3c c4 bd
       0.07271488 -0.119162396 0.08533633 -0.09581943
000130 82 b7 d6 bc 03 f0 d7 bb 79 f9 cb 3c a1 8e d5 bd
       -0.02621055 -0.006589891 0.024899231 -0.10427595
000140 b6 8f 86 bc c5 95 a1 3c 02 3f a7 ba d7 1c ae bd
       -0.016425949 0.019724736 -0.0012759867 -0.085015945
000150 3a b6 0a be ca ab 56 be 84 c1 46 be 51 7a 30 be
       -0.13546076 -0.2096397 -0.19409758 -0.1723416
000160 8f 9a 37 be 3a 89 27 be 87 64 a4 bd 57 6e 79 bd
       -0.17930053 -0.16360942 -0.080269866 -0.060896244
000170 9e 5b ac bb d4 b3 7f bc 1e 01 3f bd ff 45 2d be
       -0.005259945 -0.015606839 -0.046631925 -0.16921233
000180 14 56 7f be cc e4 7e be 22 37 8b be 68 ba 88 be
       -0.2493518 -0.24891967 -0.271905 -0.26704717
000190 19 79 80 be f6 bb 52 be 77 5b 66 be c6 73 35 be
       -0.2509239 -0.20579514 -0.22495829 -0.17719945
0001a0 2a ec f3 be dc 09 aa be bd 21 35 be aa 55 02 be
       -0.47641116 -0.33210647 -0.17688651 -0.12727991
0001b0 2e ce f8 be 5b fe 8b 3d 49 e3 89 bf a1 d3 fb bd
       -0.48594803 0.06835624 -1.0772487 -0.122962244
0001c0 d8 34 71 3d f2 f1 b9 bd 44 7a 41 bd 80 16 6e bc
       0.058888286 -0.090793505 -0.047235742 -0.014531732
0001d0 22 9a f3 3d 88 3d cf 3c 1e 08 b9 bd b8 76 3c 3d
       0.11894633 0.025297895 -0.09034751 0.046011657
0001e0 86 50 f3 bd 7b 48 e2 bd d9 39 e9 bd 40 b4 10 bd
       -0.11880593 -0.11048981 -0.11387987 -0.03532815
0001f0 43 58 a8 bd 2a fa e7 bd d4 44 64 bd ce 49 c2 3d
       -0.082199596 -0.11327012 -0.055729702 0.094867334
000200 68 1f 46 bd 30 d5 70 bd c0 49 4e 3b da 8a f9 3d
       -0.048369795 -0.05879706 0.0031477064 0.12184687
000210 10 58 04 bd 8a a8 43 bd c0 28 93 3c c4 a0 ee bd
       -0.032310545 -0.047768153 0.017963767 -0.11651757
000220 30 bf f6 3c 48 b1 4c bd a0 a5 52 3d cf 4d ad bc
       0.030120462 -0.049973756 0.051427484 -0.021155266
000230 5d a3 3e 3c ae 10 23 3d 26 80 a2 3d b2 2c d7 bd
       0.0116356285 0.03981083 0.079345986 -0.10506572
000240 8e 5b 10 be 45 1f c7 3a ef ac 23 3d 64 9c 7f 3d
       -0.14097425 0.0015191814 0.039959844 0.062405005
000250 73 23 45 3b 32 1b 3a 3c 21 e9 c2 bd 20 00 38 3d
       0.0030080944 0.011359023 -0.09517122 0.044921994
000260 d1 4c 26 3d 4c c0 16 be f9 e1 af bd ac 38 8e 3d
       0.0406006 -0.14721793 -0.08588023 0.06944403
000270 c2 ad 9d 3b 24 fa 7f bd 63 3f 16 be b6 12 86 3d
       0.0048119733 -0.062494412 -0.14672618 0.065465376
000280 ab a7 f4 bd 7f 2e 11 be 77 a4 36 3a 6e d5 35 3d
       -0.119460426 -0.14177893 0.0006967256 0.044392996
000290 46 6d 8f 3d 0f ea 2d 3c 1d 30 f7 bb 87 91 87 bd
       0.07003264 0.010614886 -0.0075435773 -0.06619554
0002a0 ec 5d 0d be 9f 7c 11 be 31 cb 1c be 0b 35 8c bd
       -0.1380536 -0.14207695 -0.15311886 -0.06846055
0002b0 1d 07 be bd e6 e8 19 be 80 46 54 bd ea 20 3b 3c
       -0.092787005 -0.1503025 -0.051825047 0.011421422
0002c0 40 c0 c1 bc 39 ab 93 3c fe 83 06 be e4 16 84 3d
       -0.023651242 0.018025981 -0.13136289 0.064496785
0002d0 c2 48 60 3b 2c 52 ff bd 10 1c 09 be 36 51 86 3c
       0.0034223055 -0.12466845 -0.13389611 0.016396146
0002e0 25 75 ab 3a 46 bd ac bd ba 12 cd bd d8 88 38 bd
       0.0013081176 -0.084345385 -0.100133374 -0.04505238
0002f0 0e 4c c8 bd 04 9f b3 3c 76 43 23 be c5 b1 8e bd
       -0.09780131 0.02192641 -0.15943703 -0.069675006
000300 21 e9 c2 3b 4a 4f 94 3d eb bb fd 3d ee 58 dc bc
       0.0059482013 0.07241686 0.12389358 -0.026897874
000310 2c fa 0d be d4 7f cf bd e9 e1 93 3d a6 48 ef bd
       -0.13864964 -0.10131803 0.07220823 -0.116837785
000320 95 99 f7 bd 7f 8f 24 3c 1f 78 40 bc 2c 50 aa 3d
       -0.1208984 0.010043978 -0.011747389 0.08316073
000330 0a d6 4d 3d 8c c3 a9 bd a5 63 0e be 96 e7 bf bd
       0.05025295 -0.08289251 -0.13905199 -0.093703434
000340 62 b7 1e bc 2f 11 4a bc e2 78 9e 3d 71 11 81 bd
       -0.009687277 -0.012333198 0.077379 -0.06302155
000350 c7 bd d3 bd c9 a0 df bd af 31 88 bd 55 a7 5a 3c
       -0.103389315 -0.10919339 -0.066501014 0.013345559
000360 47 45 a4 3d 44 f6 0d 3d dd 2a 0f be 4f 5f ca bd
       0.08021026 0.034658685 -0.13981195 -0.0988146
000370 7a d1 e0 bd e6 33 3f bd b3 d0 3b bd 80 d4 4a bd
       -0.109774545 -0.046680354 -0.045853328 -0.049519062
000380 70 df a5 bd 42 4d b1 bd a0 67 f1 bd 14 c6 33 3d
       -0.08099258 -0.08657314 -0.11787343 0.043890074
000390 da 28 73 bc fd 62 a1 3b 39 1d 1d be a5 fe d0 bd
       -0.014841283 0.0049251304 -0.15343179 -0.102048196
0003a0 19 97 c2 bd a5 52 98 bc a2 9e 44 bc d5 57 64 bb
       -0.09501476 -0.018594095 -0.012000712 -0.003484239
0003b0 fd 6d 18 be 2b 06 8c bc 39 bc 89 3c b2 37 ce bd
       -0.14885707 -0.017092785 0.016813384 -0.10069217
0003c0 5e 58 19 be 8f d4 66 3c 98 85 25 bd 9f 01 66 bd
       -0.14975116 0.014088764 -0.040410608 -0.05615389
0003d0 6f 25 53 3c 9b 80 f4 bd 6c f2 a9 bb 23 83 7e 3c
       0.012887343 -0.11938592 -0.0051863696 0.015534195
0003e0 65 94 ab 3d 2e ee 8f 3c db 20 1f bd 55 2a da 3a
       0.083779134 0.017569628 -0.038849693 0.0016644696
0003f0 ab 28 9f bd 47 52 f0 3c 46 40 2c be 81 b0 89 3d
       -0.07771429 0.029336108 -0.16821393 0.067231186

fa1.bias f4 [64]
000000 05 43 1e 3d c1 d1 5e bd 37 c8 87 3b 14 bb bc bd
       0.038638134 -0.054399256 0.0041437405 -0.0921537
000010 44 f7 5f 3d 41 1b 56 be b5 30 c8 3d ab 2a f4 bc
       0.05467917 -0.20908834 0.09774915 -0.029805502
000020 91 45 e9 bd a1 1c 4c be 52 a1 94 3c 58 39 c2 3c
       -0.11390222 -0.19932796 0.01814333 0.023708984
000030 75 a8 46 be e3 9f 02 be 3c 12 00 3d 62 bd 1d be
       -0.19400199 -0.12756304 0.03126739 -0.15404275
000040 b3 5e 32 3d 82 a7 3a be da 44 60 3d b4 d4 1e 3d
       0.043547343 -0.18227962 0.054753162 0.03877707
000050 2c e6 0c 3e c3 24 9f 3d 49 89 43 bc e4 07 e3 bd
       0.13759679 0.077706836 -0.011934587 -0.110854894
000060 55 e4 9a bd 20 27 1c be 24 24 0c be cd 03 0f 3d
       -0.07563082 -0.152493 -0.13685662 0.034915734
000070 ab fb bb 3d 62 2f 27 3d 6f 1f 54 be 1d 84 3e bd
       0.09178861 0.040816672 -0.20715116 -0.04651271
000080 56 ea 2b be d9 fd 9c 3e 6a ed c3 bd 33 63 03 bd
       -0.16788611 0.3066242 -0.095667675 -0.032077026
000090 fa 85 94 bd 44 f6 0d 3e 7d a0 21 be d4 86 4f bd
       -0.072521165 0.13863474 -0.15783878 -0.05066569
0000a0 41 03 93 3d ff 5d 70 be 04 9f 33 be 39 91 fb bd
       0.07178355 -0.23473357 -0.17541128 -0.122835584
0000b0 e3 74 f4 bd 6f 14 dd 3c 9d e9 c2 3d 61 42 f2 bd
       -0.11936357 0.026987283 0.095172144 -0.11829067
0000c0 51 35 8a bd d2 9c 43 bc 71 ea 1c be 1a f2 56 3d
       -0.067484505 -0.011939244 -0.15323807 0.05247698
0000d0 61 e8 e9 3e 60 9c 38 be 48 2e af bd 3b 72 b2 bd
       0.45685104 -0.18028402 -0.08553749 -0.08713194
0000e0 62 a1 30 3d 6a 0b 74 3c 93 9a 04 be df 1e 11 3d
       0.043122657 0.014895299 -0.1294959 0.03542983
0000f0 7b da 02 bc 99 b7 00 be 51 0a 7c bd 3c 21 8e 3d
       -0.00798666 -0.12570037 -0.061533276 0.06939933

fa2.weight f4 [64, 64]
000000 f2 c5 cb 3e 01 ef 89 bd 09 c4 09 3e e1 9a 8a bf
       0.39799458 -0.067350395 0.13453688 -1.0828515
000010 98 c7 c4 3d 64 b8 ec 3d 8e 52 ee 3d 85 92 8e 3d
       0.09608382 0.11558607 0.1163684 0.0696154
000020 19 ed de bd 8e 07 49 3e 30 dc 92 3c a3 b4 32 bc
       -0.108850665 0.19631788 0.01792726 -0.010907325
000030 c9 67 10 be 90 4f 12 3e c5 c0 2e bf 4b 50 62 3d
       -0.14102091 0.14288163 -0.6826289 0.055252355
000040 52 b2 8a 3c 49 96 dd be c2 9c a7 3d 0e 91 47 bd
       0.016930733 -0.4327872 0.08184196 -0.04872232
000050 59 af 01 3f 90 c1 9b bf 44 cf 29 3c 27 31 53 bc
       0.50658184 -1.2168446 0.010364357 -0.012890137
000060 c8 02 93 3f f9 08 14 bd 03 49 84 3e ee 74 49 bd
       1.1485224 -0.03614137 0.25836954 -0.04918378
000070 25 32 5a 3e 2e 71 0f bf 4b 1c 32 3e 34 c0 ec bd
       0.21308191 -0.56032073 0.17393605 -0.11560097
000080 dd 3d da 3d 34 3e c2 3d 42 8f db 3f 45 62 18 3e
       0.10656331 0.094845206 1.7153094 0.14881237
000090 f9 ec 26 3e 41 8b 0a bd d7 98 8f 3f 90 ef 19 bc
       0.16301335 -0.03382421 1.1218518 -0.009395495
0000a0 83 2c 03 3d 6a fe a7 3f fe 58 78 3d 59 c1 39 bd
       0.03202487 1.3124516 0.060631745 -0.045350406
0000b0 b0 9d 92 3d 16 e1 19 39 10 92 3e be a9 6e cc 3d
       0.07158983 0.00014675068 -0.18610406 0.09982044
0000c0 41 64 a6 3d 3f 0f 91 3c bc 11 46 3c 9b f0 a8 3d
       0.08124591 0.017707465 0.012089189 0.08249017
0000d0 01 35 d7 be c1 21 fc bc 68 ba 08 bc 0c 74 b3 be
       -0.42032626 -0.030777814 -0.008345224 -0.35049474
0000e0 a8 a1 ae 3d 7f 84 ad bc fa a0 c5 3d 6d 15 64 bd
       0.08526927 -0.021181343 0.096498445 -0.055684496
0000f0 c1 59 56 3e 7f 68 c0 3d 24 97 17 3d 09 a8 1c 3e
       0.20932676 0.09394931 0.037009373 0.15298475
000100 b7 41 c7 bf 82 61 ba 3d 2d cd aa 3d 37 29 9b bf
       -1.556693 0.091006294 0.083399154 -1.2121953
000110 a8 02 c2 bd 65 06 35 3c 76 38 ac 3d ea db 94 3d
       -0.09473163 0.011048888 0.084092066 0.07268508
000120 0a f2 3a 3d 3a fb 30 3e d3 d5 eb 3d 47 74 5c 3d
       0.045640983 0.17283335 0.11515393 0.05382183
000130 5c 44 a5 3d 0f 89 9a bd 08 78 95 3f 4c 4e 0d 3e
       0.08069679 -0.07545673 1.1677256 0.13799399
000140 9f 60 24 bd b5 25 4f 3f 42 7a 94 3c b2 c9 2f 3e
       -0.040131208 0.8091691 0.018124703 0.17166784
000150 90 29 6d 3f 28 70 7a bf be ba a2 3c 3e dd b5 bd
       0.92641544 -0.97827387 0.019864436 -0.08880089
000160 37 dd 4a 3f dc 09 aa 3d 9f 6e 8a bd aa 23 a7 3c
       0.792438 0.08302662 -0.067593805 0.020402748
000170 d0 cf 25 3d b7 69 70 bf d7 b0 23 3e cb 22 58 bc
       0.04048139 -0.9391131 0.15985428 -0.013191889
000180 27 24 87 bd 13 7f 8f 3d 93 41 37 3f 69 a3 93 bd
       -0.065986924 0.07006659 0.71584433 -0.072089024
000190 6f 68 24 3e 40 16 5e 3c e7 ad e1 3e b0 db 52 3c
       0.16055463 0.0135551095 0.4407799 0.01286976
0001a0 53 7b 7e bd 3a 40 57 3f ac 13 7f 3d 56 72 23 3d
       -0.06212933 0.84082377 0.06227462 0.03990396
0001b0 b9 3f 30 3e 44 84 04 3e 22 19 59 3e 99 c4 4c bd
       0.17211808 0.1294108 0.21200994 -0.049992178
0001c0 a0 5c 7a bc 9e 88 8f bd 7e c4 db bd 60 9c 38 3e
       -0.015280873 -0.070084795 -0.10730837 0.18028402
0001d0 3b e5 ea be 05 b7 80 bd 73 d8 1f 3d f0 da 54 be
       -0.45878014 -0.06284908 0.03902478 -0.20786643
0001e0 21 e9 c2 3d 17 69 11 bd 8c 78 04 3e ce a9 48 bd
       0.09517122 -0.035500612 0.1293661 -0.048990063
0001f0 c7 40 53 3e 03 89 45 3c 54 da bc bd 3d 8d 18 3e
       0.2063018 0.012056592 -0.0922133 0.14897628
000200 23 0e 00 bf 50 e7 c1 bc aa 2e 9e 3d f0 23 a5 bf
       -0.5002157 -0.023669869 0.07723744 -1.2901592
000210 a4 bf a9 3d 80 62 41 3e 01 61 93 3c 07 c5 10 3e
       0.08288506 0.18885231 0.017990591 0.1413766
000220 10 9f 08 be 2a ec f3 3d 8f e3 07 3e ee e6 52 bb
       -0.13341928 0.11910279 0.132704 -0.0032181102
000230 5c 02 cb bd 10 02 71 3d 40 95 85 be a8 74 4b 3d
       -0.099125594 0.058839858 -0.2609043 0.0496718
000240 1a 35 28 3e 4f 2a d6 3d e4 e9 a0 bb b3 d0 75 bd
       0.16426507 0.104572885 -0.0049106944 -0.060013484
000250 37 20 ee be 9a 91 6a bf 41 0e 8a bd ad 0b 2b bc
       -0.46508953 -0.9162842 -0.06741 -0.010439795
000260 e1 9f 71 bf e4 12 5a 3d 9b ef 8f 3e d4 0d 46 bd
       -0.9438458 0.05324067 0.28112492 -0.04835303
000270 88 53 2e 3e 79 69 80 bf 2b f5 95 3d dd 1f 98 bd
       0.17024052 -1.0032188 0.07322153 -0.074279524
000280 19 be 26 bd 47 32 cc 3d ac b5 89 be f4 d8 c6 3d
       -0.040708635 0.09970527 -0.26896417 0.09709349
000290 0a 75 ba 3d 49 b6 26 bc 21 b1 13 be 72 22 fa bd
       0.09104355 -0.010175296 -0.14423038 -0.12213601
0002a0 91 1c 30 bc b9 4c fc 3e 7d a1 21 3d dd 93 76 bd
       -0.010748998 0.49277285 0.039460648 -0.060199607
0002b0 7d a1 21 3c d8 b1 f1 3d 2e 68 c1 3e 13 60 28 3e
       0.009865162 0.11801499 0.37774795 0.164429
0002c0 51 24 94 3d 95 d7 d0 bc 40 93 de 3d 8a 41 31 3e
       0.07233489 -0.025493423 0.108679295 0.17310157
0002d0 02 2f 9d be 8d 4b a1 bc 1c f1 cf bc aa 2e 1e be
       -0.30699927 -0.019689346 -0.025383525 -0.15447488
0002e0 f7 09 1b 3e 55 7e 21 3b 93 82 ce bd 02 1d 3b bc
       0.1514052 0.002464195 -0.10083499 -0.01142049
0002f0 bd 88 47 3d 6e fe ee bc 40 e9 7a 3d 4e 4d 86 3d
       0.04871439 -0.029174056 0.0612576 0.065577134
000300 d6 c1 9a be e7 7d dd bd e5 0c 5b 3d b6 2a c9 bd
       -0.3022601 -0.108150296 0.053479094 -0.098225996
000310 00 d0 49 b8 7a e2 56 bd a4 dd 6b 3c 32 4d 95 3d
       -4.811585e-05 -0.05246208 0.014396105 0.072901145
000320 9c 0c bb bd 61 ea 80 3d e4 0b 8d bd 19 5f 68 bd
       -0.091332644 0.06294704 -0.068870336 -0.056731317
000330 9c a9 1c 3e 34 1a 33 bd fc 00 34 be 2e b6 b5 3d
       0.15299076 -0.04372616 -0.175785 0.08872639
000340 f7 88 70 3d 03 e7 4b bd 4b e2 02 3e a1 b5 a2 bd
       0.05872437 -0.049780857 0.12781636 -0.07944799
000350 3b 87 89 bd 63 a8 fd bd aa 3f 14 be 18 fe 54 bd
       -0.06715246 -0.12385633 -0.14477411 -0.052000135
000360 54 d0 69 bd 45 57 a1 3d e0 ba 8f be 79 3c 9d bd
       -0.057083443 0.078779735 -0.28072262 -0.0767755
000370 37 a1 23 3d 5d 37 34 be e2 ce ba 3d 54 f6 29 3d
       0.03994867 -0.17599244 0.09121491 0.041494682
000380 96 59 c9 3d 26 a7 95 bd 03 f7 f3 bd 66 8e 2c 3d
       0.0983154 -0.07307272 -0.11912348 0.04212799
000390 d1 01 81 3d 5e 70 dc bc 81 9f 13 bd 74 52 2b 3d
       0.062991746 -0.02690905 -0.036040787 0.04182668
0003a0 e9 6f 8a bd 67 21 1b be c3 ae eb 3d 71 4b 30 3d
       -0.067596264 -0.1514946 0.115079425 0.043040697
0003b0 ac bb 0d 3e 33 63 03 3d ca 2a a7 bc cc 09 0e 3d
       0.13841122 0.032077026 -0.020406146 0.03467731
0003c0 e9 53 9d bd 6e 7f 99 bc 38 97 7a 3d 51 c5 d5 ba
       -0.0768202 -0.018737521 0.06117937 -0.0016309415
0003d0 bc 5e 34 bd 12 ff 94 bd 83 93 15 bd 4a 83 c4 bd
       -0.04403566 -0.07275213 -0.03651763 -0.09595354
0003e0 9d 34 48 bc 6a 3c 01 3e d3 db 6a bd ec ed d8 3d
       -0.012219575 0.12620702 -0.057338547 0.10592255
0003f0 a5 e2 e3 3d f3 56 4e bc d3 ac 32 3c 4a 9f 31 bd
       0.111272134 -0.0125939725 0.010905462 -0.0433648

fa2.bias f4 [64]
000000 8b db 53 bf b0 c5 35 bf 4c 9d 0f 3f 38 6d e5 bb
       -0.8275687 -0.7100477 0.5609939 -0.0070015453
000010 4d 37 98 bf fb 55 c8 be ad 87 c6 3d 96 94 09 bf
       -1.1891876 -0.39128098 0.09693847 -0.5374235
000020 e0 e6 28 3f 5c 59 9a 3d 85 8d 8b bf c2 5b 3d bf
       0.6597729 0.07536575 -1.0902563 -0.73968136
000030 03 9f d3 be f5 16 bc be d9 77 42 be 6f cd 22 bf
       -0.41332254 -0.36736265 -0.18991031 -0.63594717
000040 51 ec b9 bd c1 f3 d3 be 54 a2 17 be 39 f0 80 3d
       -0.09078277 -0.41396907 -0.14808017 0.06295819
000050 de 0f 22 bf 12 cf 0c bf 92 b4 37 3e 24 4e c7 be
       -0.6330546 -0.55003464 0.17939976 -0.38926804
000060 68 56 20 be 76 3b 45 bf bb 86 1d bf b4 9c 94 3e
       -0.15657961 -0.77043855 -0.6153371 0.29025805
000070 28 06 73 3d 8c a6 c3 3e 50 20 39 bf 0c 0f 06 bf
       0.059332043 0.38213003 -0.7231493 -0.5236671
000080 1e ea 5b bf b5 71 1b bf 01 a2 e2 3e d6 4f f8 bc
       -0.8590411 -0.6072038 0.44264224 -0.030311506
000090 74 da 2d bf de 4f 82 bc fc c3 76 bf a8 0c 03 bf
       -0.6791146 -0.015907224 -0.963928 -0.51191187
0000a0 60 ba 7a be e8 ac cc 3d 70 0c 09 bd 4c cb 61 bf
       -0.24485159 0.09993917 -0.033459127 -0.8820083
0000b0 58 b5 bd be 57 c5 f6 be ab 76 af 3e 22 c1 c0 be
       -0.37052417 -0.48197433 0.34270224 -0.3764735
0000c0 f5 dd be bd 7f 20 c2 be 8d 2d 3c bf 85 40 a6 3c
       -0.09319679 -0.37915418 -0.73507005 0.020294437
0000d0 0d fa 56 be 24 dc 07 3f 05 88 be bd cc e8 62 bf
       -0.20993824 0.5307028 -0.093032874 -0.8863647
0000e0 12 bc 1f bf bc f6 ca 3e 1f 40 3a bf a6 7e 1b 3e
       -0.6239635 0.39641368 -0.7275409 0.15185031
0000f0 64 97 38 bf 97 65 39 bf dc 71 9c 3e 9c 83 97 be
       -0.72106004 -0.7242064 0.30555618 -0.29592597

fa3.weight f4 [2, 64]
000000 be 05 88 bf 87 9f 7b c0 af 71 94 40 05 26 79 3d
       -1.0626752 -3.9316118 4.6388774 0.060827274
000010 7a 30 1f 40 8f b2 7a bf 45 57 42 3f 4d d3 8c c0
       2.4873338 -0.9792871 0.7591441 -4.4007936
000020 44 f8 30 40 5b 60 2a 40 02 ce 8f 40 79 57 a8 bf
       2.765153 2.662131 4.4938974 -1.3151695
000030 62 73 02 c0 5a b5 62 c0 98 13 1c 40 ad bb bf 3f
       -2.0382924 -3.5423188 2.438696 1.4979149
000040 ba 28 bb bd bd fe e0 bf 3d 60 0f c0 2b e9 ab 40
       -0.09138627 -1.757774 -2.240249 5.372213
000050 31 9a 91 40 f0 c8 41 bf 75 aa c2 bf 28 18 09 40
       4.550072 -0.7569723 -1.5208269 2.1420994
000060 6b ee 1a 40 73 ab 5c bf 82 ad 45 c0 b3 05 c9 3f
       2.4208019 -0.8619911 -3.088715 1.5704864
000070 64 19 3e 40 e5 2c 42 3f d4 87 42 c0 a5 dc c1 40
       2.9702997 0.75849754 -3.0395403 6.058184
000080 d1 b7 98 40 59 29 5a 3f e7 f2 41 40 00 61 c2 3c
       4.7724385 0.8521934 3.0304506 0.023727894
000090 de 15 5d c0 15 c5 36 c0 bf 01 06 40 dd f7 8f bf
       -3.4544597 -2.855779 2.0938566 -1.1247517
0000a0 7f fb 2e be 0d 33 19 3f 91 83 c2 bd ec 2a 8d 40
       -0.17088126 0.5984352 -0.094977506 4.4114895
0000b0 9e f5 5e bf 08 bf 96 bf 74 4e a4 3f f0 d7 83 bf
       -0.8709353 -1.1777048 1.2836442 -1.0300274
0000c0 22 42 02 bd b9 62 bd 40 2e 57 39 c0 24 78 c7 3d
       -0.03180135 5.918301 -2.895946 0.09739712
0000d0 b3 97 60 40 1a 75 96 40 58 77 1b 3c 10 2a 7c 3f
       3.509259 4.7017946 0.009488903 0.9850168
0000e0 cd 6f 2e bf 59 07 11 40 03 b9 87 c0 b5 f8 ad bf
       -0.68139344 2.2660735 -4.2413344 -1.3591524
0000f0 da 33 96 3f 96 c7 3a c0 ee 45 28 40 50 5e c3 40
       1.1734574 -2.9184318 2.6292682 6.1052628
000100 cb a5 36 3f c6 ec 8f 3e 19 be 07 3e 4c 3d 17 3d
       0.7134673 0.2811033 0.1325611 0.03692369
000110 d6 72 ca 3e 98 21 0d 3b 31 8c 66 bf a7 ac dd bf
       0.39540738 0.0021534916 -0.90057665 -1.7318314
000120 23 77 07 be 24 7e 04 3e f1 67 25 c0 27 ff a0 bf
       -0.13229041 0.12938744 -2.584469 -1.2577866
000130 ec f9 c7 bb 6f 92 e0 bf 44 41 b3 bc cb 2e e4 3f
       -0.006102791 -1.7544688 -0.021881707 1.782678
000140 61 56 0b bb c5 dc 86 40 4d 32 84 3e 77 9a 1c bd
       -0.0021261203 4.2144494 0.25819626 -0.038233247
000150 1c 24 5c 3f a7 0f 15 c0 0c 8e da 3f 57 de ad 3d
       0.859926 -2.3290803 1.7074599 0.084896736
000160 25 34 9d be a3 5b e5 3f 1e d8 24 c0 e1 cb 74 3e
       -0.30703846 1.791859 -2.5756907 0.23905899
000170 7e 7c 11 3e db 96 15 be 2c f4 3d c0 c4 c0 45 3e
       0.14207646 -0.14608328 -2.968028 0.19311816
000180 77 22 11 3e 2c ea 09 c1 b0 1a 0e 3f 65 d5 e6 ba
       0.14173304 -8.619671 0.5550947 -0.0017611204
000190 d3 59 2c c0 a6 86 bb be c7 a1 d0 bf ad 72 67 40
       -2.6929824 -0.36626166 -1.629937 3.6163743
0001a0 64 55 84 3c 68 19 38 3e f4 93 a0 bc c3 a2 5a bf
       0.016153999 0.17978442 -0.0196018 -0.85404605
0001b0 81 36 79 bf 4b 51 2c 40 51 03 3f 3f 80 06 d8 bf
       -0.9734879 2.6924617 0.74614435 -1.6876984
0001c0 f3 c6 02 bd 22 9f 27 bf fe af d3 bf a2 b9 01 be
       -0.031928014 -0.6547719 -1.6538084 -0.1266847
0001d0 05 1d e1 be 59 2c 8f bd e0 36 d4 bc 06 8d b9 bf
       -0.43967453 -0.069908805 -0.025905073 -1.4496162
0001e0 80 db cf 3f 39 21 1c 3f 79 67 0d 40 75 e3 57 3f
       1.6238861 0.60988194 2.2094405 0.84331447
0001f0 4b c4 28 c0 ae cd 4e c0 0d 0a 76 3f 7b c9 0c 3b
       -2.6369808 -3.2313037 0.96109086 0.0021482396

fa3.bias f4 [2]
000000 fa f4 38 40 62 90 2a be
       2.8899522 -0.1665664
